temp_model.pt (torch_old, 201405 bytes, 18 tensors)

fc1.weight f4 [50, 320]
0	0x3ca66f50	0.02031675
1	0xbc9079f2	-0.017636273
2	0x3bccee20	0.0062539726
3	0x3d1513b0	0.03639573
4	0xbd366cf0	-0.044537485
5	0x3929dd00	0.00016199425
6	0xbd4d8e3f	-0.050184485
7	0x3cf5c6c8	0.030002013
8	0x3acae500	0.0015479624
9	0xbbcf5fe0	-0.006328568
10	0x3d03f618	0.032217115
11	0x3d4ea67a	0.050451733
12	0xbd5baf38	-0.0536339
13	0xbcc1aa96	-0.023640912
14	0x3d030022	0.03198255
15	0x3d3579e6	0.044305705
16	0xbd464003	-0.04840089
17	0xbd55c4d0	-0.05218965
18	0x3cdd5610	0.027018577
19	0x3b9f7258	0.0048659258
20	0xbd15eaae	-0.03660076
21	0x3d23bdb8	0.03997585
22	0xbcf9a06b	-0.030472001
23	0xbd5da24f	-0.054109868
24	0x3ccad040	0.024757504
25	0x3d45f904	0.048333183
26	0x3d3dca00	0.04633522
27	0x3a4a7380	0.00077228993
28	0x3d51ec04	0.051250473
29	0x3d477ea4	0.04870476
30	0xbb1ed620	-0.0024236515
31	0xbd580d2b	-0.052746933
32	0x3cecf92c	0.028927408
33	0x3d170620	0.036871076
34	0x3d4ca872	0.04996533
35	0xbd210078	-0.039307088
36	0xbcb4df44	-0.022079118
37	0x3d561a2c	0.052271053
38	0x3d480ec2	0.0488422
39	0x3d084f3e	0.033278696
40	0xbd0b6c45	-0.0340388
41	0x3cfb363c	0.03066551
42	0x3d2b3dea	0.041807093
43	0xbca77260	-0.02044028
44	0x3a9b4500	0.0011846125
45	0xbd3463a4	-0.044040337
46	0xbd13ef5a	-0.036116935
47	0xbcbbba86	-0.02291609
48	0x3cad3d04	0.021147259
49	0xbc8c8f48	-0.017158166
50	0x3a862f60	0.0010237508
51	0x3bcd4d50	0.00626532
52	0x3d207a34	0.039179042
53	0xbcb51a5e	-0.0221073
54	0xbc568b88	-0.01309479
55	0x3c4ac288	0.012375481
56	0x3d063224	0.03276266
57	0x3d32a39c	0.04361306
58	0xbd404f64	-0.046950713
59	0x3b027840	0.00199081
60	0xbcca95a8	-0.024729565
61	0xbd4378ac	-0.047722504
62	0xbb2d15d0	-0.0026410706
63	0xbcdbf3de	-0.026849683
64	0x3d3a461c	0.045477018
65	0xbcbb5d18	-0.022871539
66	0xbd2f7356	-0.042834602
67	0x3c3ab318	0.011395238
68	0x3ce05b08	0.027387157
69	0x3c83be40	0.01608193
70	0xbbb2bfe8	-0.005455006
71	0x3d53a4ba	0.051670767
72	0xbd484407	-0.048893
73	0x3d4023dc	0.0469092
74	0x3d646d30	0.05576819
75	0x3bdbd570	0.0067087933
76	0x3c276228	0.010216273
77	0xbc0d69dc	-0.008631196
78	0xbcb7b48c	-0.022424959
79	0x3ca31c94	0.019911088
80	0xbc31af44	-0.010845009
81	0x3d0195f6	0.031637155
82	0xbd15cb16	-0.03657063
83	0x3d54bfda	0.051940776
84	0xbc961084	-0.018318422
85	0xbd438a6f	-0.047739442
86	0x3d0993a4	0.033588067
87	0xb9c12b00	-0.00036843866
88	0xbd1d9c02	-0.03847886
89	0xbd24b036	-0.04020711
90	0xbc81949c	-0.015817933
91	0xbbb0c698	-0.005394768
92	0x3c7e4200	0.015518665
93	0xbc156af0	-0.009119734
94	0xbd29e8ee	-0.041481905
95	0x3c76bb50	0.015059307
96	0x3d56127e	0.05226373
97	0x3c14fb78	0.009093158
98	0xbce55c84	-0.027998216
99	0x3d1772b6	0.03697463
100	0xbd2d9614	-0.042379454
101	0xbd3645aa	-0.04450003
102	0xbd4470a0	-0.04795897
103	0xbc4f5c48	-0.012656279
104	0x3cd12a24	0.02553279
105	0x3cbdfc14	0.02319149
106	0xbce971f3	-0.028496718
107	0xbc8a845a	-0.016908813
108	0x3d350f82	0.044204243
109	0x3c0ed6d0	0.0087182075
110	0xbd235a4d	-0.03988104
111	0xbd1ad898	-0.037804216
112	0x3d5f3924	0.054497853
113	0x3c3d0aa0	0.011538178
114	0x3ca6781c	0.020320944
115	0xbcd41c7e	-0.025892492
116	0xbc2ca540	-0.010537446
117	0x3c02b888	0.007978566
118	0x3d051cdc	0.032498226
119	0xbd0d83bc	-0.03454946
120	0xba321580	-0.0006793365
121	0xbcea80ce	-0.028625872
122	0xbd49d016	-0.04927071
123	0xbcd19d74	-0.025587775
124	0xbbdb99c8	-0.0067016818
125	0xbd3c23fa	-0.045932747
126	0x3b486cb0	0.003058236
127	0xbd52cb88	-0.051463634
128	0x3aec9420	0.0018049516
129	0x3d291790	0.041282237
130	0x3d394054	0.045227364
131	0x3d293788	0.041312724
132	0xbc9674ce	-0.018366244
133	0xbd1e4d8e	-0.03864818
134	0xbd4e1a46	-0.050318025
135	0x3cfd7b40	0.03094256
136	0xbd6118b7	-0.05495521
137	0x3d29305a	0.041305877
138	0x3ccef4dc	0.025263242
139	0x3d3cfb1c	0.046137914
140	0x3d24776e	0.04015296
141	0x3d25a354	0.040438965
142	0x3d46ad54	0.048505142
143	0x3c9a658c	0.01884725
144	0xbb6090c0	-0.0034265965
145	0xbd2b0030	-0.041748226
146	0x3d575bac	0.05257766
147	0xbd17b31e	-0.037036054
148	0x3c994e80	0.01871419
149	0xbd37777f	-0.044791695
150	0xbcf20e6f	-0.029547898
151	0xbb3e6af0	-0.002905544
152	0xbd526400	-0.0513649
153	0x3b9e23f8	0.004826065
154	0x3d1ad882	0.037804134
155	0xbcab30e0	-0.020897329
156	0xbc7cbd60	-0.01542601
157	0x3d59aaae	0.05314129
158	0xbccc8003	-0.024963384
159	0x3c9b67a0	0.01897031
160	0x3d2f0314	0.042727545
161	0x3d33688a	0.043800868
162	0x3d15bd08	0.036557227
163	0xbd1c73b6	-0.038196288
164	0x3ce83b48	0.02834858
165	0x3c264dc8	0.01015038
166	0x3cb62014	0.022232093
167	0xbd386ca4	-0.045025483
168	0x3b97b980	0.0046302676
169	0x3beab880	0.0071631074
170	0xbcc2cb8c	-0.0237787
171	0xbd3b3155	-0.045701344
172	0x3cbf77f0	0.02337262
173	0xbd56067e	-0.052252285
174	0x3cd6478c	0.026157163
175	0xbd0ea5b7	-0.034826007
176	0x3c90771c	0.01763492
177	0x3cc96244	0.02458299
178	0xbcd4fe40	-0.026000142
179	0xbb5223c0	-0.0032064766
180	0x3d5ddd84	0.054166332
181	0xbbac8060	-0.005264327
182	0xbd3f0883	-0.046638977
183	0xbc995ba4	-0.018720455
184	0x3d2e4468	0.042545706
185	0xbd4a02dd	-0.049319137
186	0x3d3e67be	0.046485655
187	0x3b9e5538	0.004831936
188	0x3d52a6d0	0.051428616
189	0x3ccc68c8	0.024952307
190	0x3c222c80	0.009898305
191	0xbccdcf4c	-0.02512326
192	0xbb365de0	-0.002782695
193	0xbca78328	-0.020448282
194	0x3cd0ee10	0.025504142
195	0xbccafa35	-0.024777511
196	0x3d580aa8	0.052744538
197	0x3d0f0332	0.034915157
198	0x3cbd5a30	0.023114294
199	0xbcf9eb50	-0.030507714
200	0xbd1ca2aa	-0.038241066
201	0xbbf43af8	-0.0074533187
202	0x3c982be0	0.018575609
203	0x3ceacb68	0.028661445
204	0xbd19fd9d	-0.03759538
205	0xbc22d4d4	-0.0099384375
206	0x3cb02c20	0.021505415
207	0x3c22f5c8	0.009946294
208	0x3d1d0534	0.03833504
209	0xbd21b802	-0.039482124
210	0xbd324184	-0.04351951
211	0x3c95fbd8	0.018308565
212	0xbcd044d9	-0.025423454
213	0xbcb9e182	-0.022690538
214	0x3c0c07e8	0.008546807
215	0x3d0f62c4	0.0350063
216	0xbcf72baa	-0.030172188
217	0x3cb17660	0.02166289
218	0x3c1b8a88	0.009493478
219	0xbc38bd74	-0.011275638
220	0x3d20b262	0.03923262
221	0xbcdcc094	-0.026947297
222	0xbd0480e4	-0.032349482
223	0x3d634e38	0.055494517
224	0xbd38c5c1	-0.045110468
225	0x3d566332	0.052340694
226	0xbafe6b40	-0.0019410625
227	0xbd5338e4	-0.051567927
228	0xbd301b9c	-0.04299508
229	0xbd0a324c	-0.033739373
230	0x3d21e54c	0.039525315
231	0xbc82dbd6	-0.015973967
232	0x3b9f5f58	0.004863661
233	0x3d310570	0.043218076
234	0x3d1b46c2	0.037909277
235	0xbd10e8a4	-0.035378113
236	0x3c90cacc	0.017674826
237	0x3cdd5c10	0.027021438
238	0xbd1c84b4	-0.038212493
239	0xbb0f7910	-0.0021892227
240	0xbd5790ca	-0.052628316
241	0x3d1441b4	0.036195472
242	0x3c9d2edc	0.019187383
243	0x3d544a72	0.05182881
244	0xbb113930	-0.002215933
245	0x3d1c2134	0.038117602
246	0xbc4041e4	-0.01173446
247	0xbd3bc9f0	-0.04584688
248	0x3cc5d79c	0.024150662
249	0xbd574ebc	-0.05256532
250	0xbc33f29c	-0.010983136
251	0x3c81ec1c	0.015859656
252	0xbd47a48c	-0.04874091
253	0x3cbbcb98	0.02292423
254	0xbb85b398	-0.004080247
255	0xbaa7f7c0	-0.0012814924

fc1.bias f4 [50]
0	0xbcb66d3a	-0.02226888
1	0xbcfe622e	-0.031052675
2	0xbd048d6c	-0.032361433
3	0xbcacb24a	-0.021081109
4	0xbd0a1bea	-0.033718027
5	0x3aac9680	0.0013167411
6	0xbd4f1db5	-0.05056544
7	0xba9dff60	-0.0012054257
8	0x3d4151d0	0.047197163
9	0xbab0dcc0	-0.0013493523
10	0x3caf25b8	0.02138029
11	0x3d3832da	0.04497037
12	0xbba80ff8	-0.0051288567
13	0xbd5d562f	-0.05403727
14	0x3ca44558	0.020052597
15	0xbd06d845	-0.032921094
16	0xbd217d35	-0.039426047
17	0x3d042ed4	0.03227122
18	0xbd35d5b0	-0.04439324
19	0xbc852e72	-0.016257498
20	0xbd60f225	-0.054918427
21	0xbca0e580	-0.019640684
22	0x3caafa30	0.020871252
23	0x3c75d588	0.015004523
24	0xbc8c1750	-0.01710096
25	0xbd4e5191	-0.050370757
26	0x3d236ff8	0.039901704
27	0xbca6c868	-0.020359233
28	0xbc45ea10	-0.012079731
29	0x3c3dc170	0.011581764
30	0x3c9ca200	0.019120216
31	0xbd025737	-0.031821456
32	0x3bda4c50	0.006661929
33	0x3d4b1e3a	0.049589373
34	0xbd23fbeb	-0.04003517
35	0x3d38523c	0.0450003
36	0xbd4d1c57	-0.050075855
37	0x3d330746	0.04370811
38	0x3d5edbe8	0.054408938
39	0xbd57ad90	-0.052655756
40	0xbd37a507	-0.044835117
41	0xbd49dc22	-0.0492822
42	0xbd62387c	-0.05522965
43	0x3c02aa50	0.007975176
44	0xbcc9e558	-0.024645492
45	0xbd45a369	-0.048251543
46	0xbca1e698	-0.019763276
47	0xbc4534e8	-0.01203654
48	0x3b80e5e0	0.0039336532
49	0x3ce4bd04	0.02792216

fc2.weight f4 [10, 50]
0	0x3e00c64b	0.12575643
1	0x3de2bc7e	0.11071108
2	0x3dcee2e4	0.1010187
3	0xbd82d2d7	-0.06387871
4	0x3db2e9ec	0.08736023
5	0xbd9763d1	-0.07392085
6	0x3d3c625c	0.04599224
7	0xbbcf3860	-0.006323859
8	0x3dbbb1cc	0.091647714
9	0x3dfbc7b6	0.12293951
10	0x3d2bedb4	0.04197474
11	0xbdb8cc6c	-0.090233654
12	0xbd78ebfe	-0.060771935
13	0x3c9ccf90	0.019141942
14	0x3e0a3547	0.13496886
15	0x3d69c438	0.057071894
16	0xbdade4b0	-0.08490884
17	0xbd1ad31a	-0.03779898
18	0x3e0b7817	0.1362003
19	0x3d77c458	0.060489982
20	0x3d4faa78	0.05069968
21	0x3d93ceee	0.07217203
22	0xbcac6f94	-0.021049298
23	0x3c0f9370	0.008763179
24	0x3c3c7b90	0.011504069
25	0xbc8e60ac	-0.017380081
26	0xbd562110	-0.052277625
27	0xbcb6a010	-0.02229312
28	0xbb1b5100	-0.0023699403
29	0x395a1c00	0.00020800531
30	0x3e044d5d	0.12920137
31	0x3dfb32a2	0.12265517
32	0xbd836a60	-0.06416774
33	0xbd10fcd6	-0.035397373
34	0xbd0a417e	-0.033753864
35	0xbd20fe7c	-0.039305195
36	0xbddc89b2	-0.10768451
37	0xbd7cdc4e	-0.061733536
38	0xbdc84058	-0.097778976
39	0xbdd80353	-0.10547509
40	0xbc936d54	-0.017996468
41	0xbde3910c	-0.1111165
42	0xbdc99f08	-0.09844786
43	0xbdcf9add	-0.1013696
44	0x3dfeb38a	0.12436588
45	0x3cd465d0	0.025927454
46	0xbe02101e	-0.1270146
47	0xbd91d2bb	-0.07120272
48	0x3df3da2a	0.11906846
49	0x3d2856e4	0.04109849
50	0x3d63ffcc	0.05566387
51	0xbde4c6ae	-0.11170708
52	0xbd9ae2bb	-0.07562777
53	0x3e0c028f	0.13672851
54	0xbd49e3d0	-0.049289525
55	0x3e037ae7	0.12839852
56	0x3d2fac18	0.04288873
57	0x3d8ccc76	0.06874935
58	0xbdd43a92	-0.10362734
59	0xbcd39898	-0.025829598
60	0x3d4636b0	0.048391998
61	0xbe0be7f0	-0.13662696
62	0xbcb38788	-0.021915212
63	0x3da4df20	0.0805037
64	0xbc82ae90	-0.015952379
65	0x3d702f38	0.05863878
66	0xbe0d42ec	-0.1379506
67	0x3d9672e4	0.073461324
68	0xbd85b2f3	-0.065282725
69	0x3db34702	0.08753778
70	0xbdf8d3b1	-0.12149752
71	0x3d305b78	0.04305598
72	0x3df6e8e2	0.120561376
73	0xbddc7907	-0.10765272
74	0x3dc3e468	0.095650494
75	0x3dd6d4d2	0.10489811
76	0x3d608db8	0.054822654
77	0x3d9c3d74	0.07628909
78	0xbc253ec0	-0.010085762
79	0xbdeaf3be	-0.114722714
80	0x3daf787c	0.085679024
81	0xbc3c0fc0	-0.0114783645
82	0xbbdbf0a0	-0.0067120343
83	0x3e011c43	0.12608437
84	0x3dcd138e	0.100134954
85	0xbdff942e	-0.12479435
86	0x3df3d53e	0.11905907
87	0xbd36d476	-0.044636212
88	0xbdb65e49	-0.08904702
89	0xbd881ca0	-0.06646085
90	0x3d893bb2	0.06700839
91	0x3db13264	0.086521894
92	0x3d358e0c	0.04432492
93	0xbdeb6c38	-0.114952505
94	0xbbceaaa0	-0.006306961
95	0x3d251b50	0.04030925
96	0xbd4e7016	-0.050399862
97	0x3e03d133	0.12872772
98	0xbd3178fa	-0.043328263
99	0x3df2a632	0.118481055
100	0xbd88b79d	-0.066756465
101	0xbd48f81e	-0.049064748
102	0xbe0328b5	-0.12808497
103	0x3cb76f00	0.022391796
104	0xbde4d45c	-0.11173317
105	0xbe0f9a80	-0.14023781
106	0xbde8e380	-0.11371517
107	0x3d7c17ac	0.061546013
108	0x3de13eca	0.10998304
109	0xbce1bf84	-0.027557142
110	0x3d1b4074	0.037903264
111	0x3cdac9c8	0.026707545
112	0x3e0f9c29	0.14024414
113	0x3d9d88d6	0.07692115
114	0xbd3f9660	-0.04677427
115	0xbd801148	-0.06253296
116	0x3e079d9f	0.13243721
117	0x3d5a1198	0.053239435
118	0x3da452ee	0.0802363
119	0xbd44b6c4	-0.04802586
120	0x3d9f5f80	0.07781887
121	0xbdc4bc81	-0.09606267
122	0x3de8c47a	0.113656
123	0xbd64a9aa	-0.055825867
124	0xbc353f10	-0.011062399
125	0xbd4b9b32	-0.049708553
126	0xbdad9f2c	-0.08477625
127	0x3c777e70	0.015105829
128	0x3c361360	0.011113018
129	0x3a292c00	0.0006453395
130	0xbd7af3cc	-0.06126766
131	0x3d11e604	0.03561975
132	0x3db971f6	0.090549394
133	0xbdc278a2	-0.09495665
134	0xbd9adbff	-0.07561492
135	0xbd9b39b7	-0.075793676
136	0x3cd82cb8	0.026388511
137	0xbdfa9f12	-0.122373715
138	0x3dacf184	0.08444503
139	0x3dccd83e	0.100021824
140	0xbe04c747	-0.12966643
141	0xbd75c8e0	-0.060006022
142	0x3de36b52	0.11104454
143	0x3cb05fe0	0.021530092
144	0xbcdb823c	-0.026795499
145	0x3d1582f4	0.03650184
146	0x3b329f40	0.0027255565
147	0xbd2ac58c	-0.0416923
148	0x3dcdef9c	0.100554675
149	0xbd243ac0	-0.04009509
150	0xbde64e9a	-0.11245461
151	0xbd73fbf6	-0.05956646
152	0x3d9567e0	0.07295203
153	0xbda35676	-0.079754755
154	0xbd9f6bc6	-0.07784228
155	0xbd09a4b4	-0.03360434
156	0x3ca3d520	0.019999087
157	0x3c8bc048	0.01705946
158	0xbe03892a	-0.12845293
159	0x3ca8d060	0.020607173
160	0xbba5f960	-0.005065128
161	0xbdc59798	-0.09648055
162	0x3d034370	0.032046735
163	0xbc428af0	-0.011873946
164	0xbde64d22	-0.11245181
165	0xbd889787	-0.066695265
166	0x3dc5c0e4	0.096559316
167	0xbdf55ca0	-0.119805574
168	0xbd3a3b9a	-0.045466997
169	0xbe066d32	-0.13127592
170	0x3e0d3049	0.1378795
171	0xbe010ec9	-0.12603296
172	0x3dc66520	0.09687257
173	0xbc852a20	-0.016255438
174	0x3de831da	0.113376334
175	0x3d89eaac	0.06734213
176	0xbdc0ac4c	-0.09407863
177	0xbd0ef02e	-0.034897022
178	0x3dadd982	0.08488752
179	0x3c80b130	0.01570949
180	0xbe083189	-0.13300146
181	0x3d9c83a8	0.07642299
182	0x3d43e6ac	0.047827408
183	0xbe05938a	-0.13044563
184	0x3df6f70e	0.12058841
185	0x3dcba18a	0.099429205
186	0x3d0794a0	0.033100724
187	0x3db061c6	0.08612399
188	0x3c98d500	0.018656254
189	0xbdc9bb14	-0.098501354
190	0x3d8f8472	0.07007684
191	0x3e0c13b7	0.13679396
192	0xbd3eb5c0	-0.04656005
193	0x3dd5f81e	0.10447715
194	0x3c9529d0	0.018208414
195	0x3cf7c078	0.030243143
196	0xbd881e01	-0.06646348
197	0xbd5d7eca	-0.054075994
198	0x3cc272d0	0.023736387
199	0x3dd85a4c	0.10564098
200	0xbe0b9d4a	-0.1363422
201	0x3d414d88	0.04719308
202	0x3d582904	0.05277349
203	0xbdf754b0	-0.120767
204	0xbd8f41fd	-0.06995008
205	0xbd7bca76	-0.06147238
206	0xbe0c0970	-0.13675475
207	0x3d3d2bec	0.046184465
208	0xbdfc8e13	-0.12331786
209	0xbe00c03e	-0.12573335
210	0x3e041ec9	0.12902369
211	0xbdb8ed9b	-0.09029695
212	0xbd0dc1a8	-0.034608513
213	0x3da46e88	0.08028895
214	0xbd207b22	-0.03917993
215	0xbdbd073c	-0.092298955
216	0xbe0096f5	-0.12557586
217	0xbd65e4d6	-0.056126438
218	0xbde70c02	-0.11281587
219	0x3d889c3a	0.06670423
220	0xbd16f1a4	-0.03685154
221	0x3d4fe66c	0.050756857
222	0xbd873776	-0.06602375
223	0x3c59a650	0.013284281
224	0x3d148804	0.036262527
225	0x3dac1956	0.0840327
226	0xbccce9fc	-0.025013916
227	0xbe06ef70	-0.13177276
228	0x3d9a1c9c	0.07524988
229	0x3c2ba830	0.010477111
230	0x3d8fa83c	0.0701451
231	0xbdbd9bee	-0.09258257
232	0x3ce2e9a0	0.027699292
233	0xbd0d22e6	-0.03445711
234	0xbd0bfabe	-0.034174673
235	0xbd2b7306	-0.04185774
236	0x3dd9151a	0.10599728
237	0x3db29e90	0.0872165
238	0x3d8b680e	0.06806956
239	0xbdff9233	-0.12479057
240	0xbc252540	-0.010079682
241	0xbd11a858	-0.035560936
242	0x3dbdec38	0.09273571
243	0xbcf5fce0	-0.030027807
244	0xbca753f8	-0.020425782
245	0x3e0b2a5b	0.13590376
246	0x3ccc1d90	0.02491644
247	0xbc6056a0	-0.013692528
248	0x3dff467e	0.12464617
249	0x3daf1634	0.08549157
250	0x3d0c082c	0.03418748
251	0xbe02b87f	-0.12765692
252	0x3d04f808	0.032463104
253	0xbdbeb2a8	-0.0931142
254	0xbd81c903	-0.06337168
255	0x3d531e20	0.0515424

fc2.bias f4 [10]
0	0xbd25abd8	-0.040447086
1	0x3c9c4b48	0.019078866
2	0xbde06567	-0.10956841
3	0xbd7b17a2	-0.061301835
4	0xbdd3714d	-0.10324345
5	0x3db648d0	0.08900607
6	0x3dc853dc	0.0978162
7	0xbc8343f8	-0.016023621
8	0x3d13e81c	0.03611003
9	0xbd95d683	-0.073163055

localization.0.weight f4 [6, 3, 5, 5]
0	0x3d56c5f1	0.052434865
1	0xbc1560bd	-0.0091173025
2	0xbd5f9f29	-0.054595146
3	0xbc216cc2	-0.00985259
4	0xbe0161e9	-0.12635006
5	0x3d8f37b0	0.069930434
6	0xbdef4fbe	-0.116851315
7	0xbdf5188a	-0.11967571
8	0xbd9c8cec	-0.07644066
9	0xbd92bddb	-0.07165118
10	0x3c7cef0d	0.0154378535
11	0x3cb551bb	0.022133699
12	0xbe0b986e	-0.13632366
13	0x3caf42b2	0.021394107
14	0xbdedd425	-0.11612729
15	0x3b2fa94e	0.0026803794
16	0xbd9cb225	-0.07651166
17	0xbddd34e6	-0.10801105
18	0xbdd63eb1	-0.10461176
19	0x3d9556cb	0.07291945
20	0xbd192e2a	-0.03739754
21	0xbdc10052	-0.09423889
22	0xbd838319	-0.06421489
23	0xbd851d13	-0.06499686
24	0xbd3e6ed5	-0.046492416
25	0xbd07bdb1	-0.03313989
26	0x3dceb6fc	0.10093495
27	0x3c2ffde5	0.0107416855
28	0xbd62784b	-0.0552905
29	0x3c8ad548	0.016947404
30	0x3d9b8378	0.07593435
31	0xbdfa47d6	-0.12220733
32	0x3d2f7844	0.042839304
33	0xbd319812	-0.043357916
34	0x3d1459b0	0.036218345
35	0xbdd9df11	-0.1063825
36	0xbc8b974f	-0.017039923
37	0x3d935f40	0.07195902
38	0xbd50cb0f	-0.0509749
39	0xbe035920	-0.12826967
40	0x3d01c1ed	0.031679083
41	0xbce300b8	-0.027710304
42	0xbd6ebe5a	-0.058287002
43	0xbdd7abca	-0.10530813
44	0x3d9a9df4	0.075496584
45	0x3da1ec3d	0.07906387
46	0xbde7ddc2	-0.11321594
47	0xbb5ce4df	-0.0033705754
48	0xbc7dc2d0	-0.015488341
49	0xbcd29882	-0.025707487
50	0x3d7fe595	0.062474806
51	0x3da22f54	0.079191834
52	0x3da8349a	0.08213158
53	0xbd87abfd	-0.06624601
54	0x3c335f77	0.010948054
55	0xbd0ea8bc	-0.034828886
56	0x3c84b700	0.016200542
57	0xbdb44838	-0.08802837
58	0xbd004c04	-0.031322494
59	0x3d84e1a1	0.06488348
60	0xbd2035d5	-0.03911384
61	0x3dc7d1bb	0.097568
62	0x3ce99ad6	0.028516214
63	0x3d47053c	0.048588976
64	0xbd822bda	-0.0635602
65	0xbd5733d4	-0.05253966
66	0x3b402c63	0.0029323332
67	0xbd85bc1a	-0.06530018
68	0xbd4f3c31	-0.050594512
69	0xbc38dbb5	-0.011282851
70	0xbdd4f01b	-0.10397359
71	0x3d3ccf4b	0.046096127
72	0xbd328ac0	-0.043589354
73	0xbd4c9a98	-0.04995212
74	0xbdcd02e6	-0.100103185
75	0x3d86b330	0.06577146
76	0xbcaa8f14	-0.020820178
77	0x3cb5e9f9	0.022206293
78	0x3d381fc2	0.04495216
79	0x3d519f83	0.051177513
80	0xbb9167f1	-0.0044374396
81	0x3c2cf1ca	0.010555694
82	0xbd4280c3	-0.047486078
83	0x3d9114f7	0.07084077
84	0xbdaa7110	-0.08322346
85	0x3b959c73	0.0045657693
86	0x3d87300d	0.06600962
87	0xbdf8a95d	-0.121416785
88	0x3d5449cd	0.051828194
89	0x3d334886	0.043770336
90	0xbb76aada	-0.0037638457
91	0xbdf15cc9	-0.117852755
92	0x3d7aae7b	0.061201554
93	0xbdcb840f	-0.099372976
94	0xbd1d76a7	-0.038443234
95	0x3d10cdb3	0.03535242
96	0x3d6b6a1c	0.05747424
97	0x3cb488e1	0.022037925
98	0xbde6573e	-0.11247109
99	0xbb9d30d3	-0.00479708
100	0xbd921c79	-0.07134337
101	0x3d0a8ef2	0.03382773
102	0xbdd8b43b	-0.10581251
103	0xbc32d1dc	-0.010914292
104	0xbdf9aa33	-0.12190666
105	0xbdc73d55	-0.09728495
106	0xbce91db0	-0.028456539
107	0x3ceedd58	0.02915828
108	0xbd1ccd93	-0.03828199
109	0x3d81e64d	0.063427545
110	0x3d7df431	0.062000457
111	0xbd819891	-0.06327928
112	0xbd750563	-0.05981959
113	0xbd3f3c7b	-0.046688538
114	0xbd2b8ddc	-0.041883335
115	0xbd91e49b	-0.07123681
116	0x3d8b5db2	0.0680498
117	0xbd9f9076	-0.077912256
118	0x3db31237	0.087437086
119	0xbdeaa920	-0.11458039
120	0xbdc88e02	-0.09792711
121	0xbde4a7b0	-0.11164796
122	0xbde2e41e	-0.11078666
123	0xbd8b7af3	-0.0681056
124	0xbd3bebea	-0.045879282
125	0xbdf8c2d7	-0.12146538
126	0xbdab7392	-0.08371653
127	0xbc816ab1	-0.015797945
128	0xbcc292bb	-0.023751607
129	0xbdae6d9d	-0.08517001
130	0xbdad7c1d	-0.08470938
131	0x3d3e8bbe	0.046519987
132	0x3d109779	0.035300706
133	0xbda26b60	-0.079306364
134	0xbdb8f43a	-0.090309575
135	0x3d38b8a6	0.04509797
136	0x3d837c22	0.06420161
137	0xbde79b63	-0.113089345
138	0xbdfe18d7	-0.124070816
139	0x3da178b4	0.078843504
140	0xbc6d9a44	-0.014502112
141	0x3cb43cc7	0.022001637
142	0x3d38d699	0.04512653
143	0x3d84b96c	0.06480679
144	0xbd9b71fd	-0.07590101
145	0xbd114f98	-0.035476297
146	0xbd1ae13f	-0.037812468
147	0xbc8311ec	-0.015999757
148	0x3dd1ceeb	0.102445446
149	0x3c1a67e6	0.009424185
150	0x3d118a02	0.035532005
151	0xbbbd595f	-0.005778476
152	0x3bc40607	0.005982164
153	0xbdb2afd0	-0.0872494
154	0x3d57a920	0.052651525
155	0xbd5c3734	-0.053763583
156	0xbc4c76a8	-0.012479462
157	0x3d396e32	0.045271106
158	0x3d8a2881	0.06746007
159	0x3caf2c9a	0.021383572
160	0xbccdd914	-0.025127925
161	0xbc505364	-0.012715194
162	0xbc85c3ad	-0.016328657
163	0xbd90626d	-0.07050023
164	0xbcd178af	-0.025570242
165	0xbd3b6e19	-0.045759294
166	0xbe12ec48	-0.14347947
167	0x3c386df3	0.011256683
168	0xbdf05814	-0.117355496
169	0x3d8d2063	0.06890943
170	0xbe040334	-0.12891847
171	0xbd879d7a	-0.06621833
172	0xbca4e7b8	-0.020130023
173	0xbd7676bb	-0.060171824
174	0xbdc43143	-0.095797084
175	0x3b8cf9d3	0.0043022423
176	0x3d87f495	0.06638447
177	0x3d1cdd63	0.03829707
178	0x3da9fd29	0.083002396
179	0x3c1e6d13	0.00966956
180	0x3d612f24	0.054976597
181	0x3d57fc4a	0.052730836
182	0xbcc20aa0	-0.023686707
183	0x3de05407	0.10953527
184	0xbde68c68	-0.11257249
185	0xbba43349	-0.0050109965
186	0x3cc4be61	0.024016561
187	0x3de758c1	0.11296225
188	0xbde3f955	-0.11131541
189	0xbdbb730f	-0.09152805
190	0x3d7a666e	0.06113284
191	0xbc2cc460	-0.010544866
192	0x3d99e592	0.0751449
193	0xbcbd76d8	-0.023127958
194	0xbd271232	-0.040788837
195	0x3da7058e	0.08155356
196	0x3db0bad0	0.08629382
197	0x3d3365b7	0.043798175
198	0x3dd7e557	0.1054179
199	0xbcf3d241	-0.029763343
200	0xbd46d31c	-0.048541173
201	0xbcc54fac	-0.024085842
202	0x3db101c9	0.086429186
203	0x3df0c050	0.11755431
204	0x3d6ecf8c	0.0583034
205	0xbd89c196	-0.06726377
206	0xbd95e1bc	-0.07318446
207	0xbc8037ee	-0.01565167
208	0x3cc0ecaf	0.02355036
209	0xbc37bf0a	-0.011214981
210	0x3d3ff1ed	0.046861578
211	0x3dd8b3df	0.10581183
212	0x3bb560f1	0.005535238
213	0xbce1b3f1	-0.027551623
214	0xbd3abf5a	-0.045592643
215	0x3d8a62be	0.06757115
216	0x3dbb6466	0.09150009
217	0xbdb635f9	-0.08897013
218	0x3c89738e	0.016778734
219	0xbd30bc73	-0.04314847
220	0xbdd7238f	-0.10504829
221	0xbd94b4f3	-0.07261076
222	0xbcbb3574	-0.022852637
223	0xbc72f9ca	-0.014830062
224	0xbd35dec1	-0.044401888
225	0xbd54a420	-0.051914334
226	0xbe216868	-0.15762484
227	0xbe09a55b	-0.13441984
228	0xbcaa6582	-0.020800356
229	0xbe008aec	-0.12552994
230	0xbda65031	-0.08120764
231	0xbd87f2fb	-0.06638142
232	0xbdcefbbe	-0.1010661
233	0xbdb969f8	-0.09053415
234	0xbe1a2c88	-0.1505605
235	0x3d8e67f6	0.06953423
236	0xbd871a0c	-0.06596765
237	0x3d810955	0.06300608
238	0x3d626bc6	0.055278562
239	0x3bdc6e07	0.0067269835
240	0xbddbc095	-0.107300915
241	0xbdfc78b6	-0.12327711
242	0x3cf652b4	0.030068733
243	0xbd2bc2b4	-0.04193373
244	0x3dc28d2d	0.094995834
245	0xbd6b310e	-0.05741983
246	0x3d063493	0.032764982
247	0x3de6cf37	0.11269992
248	0xbdcb6fba	-0.099334195
249	0x3d6ff92d	0.058587242
250	0xbdf92cd4	-0.121667534
251	0x3d41e02e	0.047332935
252	0x3d5f1c30	0.05447024
253	0x3c19e611	0.009393231
254	0xbe120d6c	-0.14262933
255	0x3ca7ded1	0.02049199

localization.0.bias f4 [6]
0	0x3e04c66f	0.12966321
1	0xbdedfa86	-0.11620049
2	0xbd2f0a79	-0.042734597
3	0xbd704095	-0.05865534
4	0xbd82d609	-0.0638848
5	0x3be2e3be	0.0069241216

localization.3.weight f4 [16, 6, 5, 5]
0	0xbc433f56	-0.011916956
1	0xbd36a258	-0.044588417
2	0x3cfe9b94	0.031080045
3	0xbd092601	-0.03348351
4	0xbd939683	-0.07206442
5	0xbd5b9ebe	-0.053618185
6	0xbd7acf24	-0.0612327
7	0xbcf23384	-0.02956558
8	0xbcb34b53	-0.021886503
9	0xbd140c23	-0.036144387
10	0xbd950fd2	-0.07278408
11	0xbd785f06	-0.060637496
12	0x3d4c5967	0.04988995
13	0x3d176a2a	0.03696648
14	0xba485bc4	-0.00076430687
15	0x3d8107f1	0.06300343
16	0xbd905e14	-0.07049194
17	0xbdae33c3	-0.085059665
18	0xbcacf83b	-0.02111446
19	0x3bb1c558	0.0054251365
20	0xbd5125da	-0.05106149
21	0x3d95184e	0.072800264
22	0x3d4cadfe	0.04997062
23	0xbb002721	-0.0019554573
24	0xbd9d1215	-0.076694645
25	0xbd78b1ff	-0.060716625
26	0x3c93d937	0.018047912
27	0x3d588505	0.052861232
28	0x3be64367	0.007027078
29	0xbbe00170	-0.006836109
30	0xbd0e92e2	-0.034808047
31	0x3d096b02	0.033549316
32	0xbd14ae15	-0.03629883
33	0xbd8dd143	-0.06924679
34	0xbcf3fafd	-0.029782766
35	0xbb8c4c66	-0.0042815683
36	0x3da76b10	0.081747174
37	0xbb678695	-0.003532802
38	0xbc874c08	-0.016515747
39	0x3d29ef52	0.041488
40	0xbb787695	-0.0037912477
41	0x3ca15fc4	0.019698985
42	0x3d64cb0a	0.055857696
43	0x3ce6946f	0.02814695
44	0xbd720fc7	-0.059097078
45	0xbd459d9a	-0.048246004
46	0xbd8a7c59	-0.06761999
47	0xbc982973	-0.018574452
48	0x3d8ab6e4	0.06773165
49	0x3d60ab14	0.054850653
50	0x3d38d22c	0.04512231
51	0xbd615164	-0.05500926
52	0xbc8db11d	-0.017296368
53	0xbbeeeae5	-0.007291185
54	0x3c67ca6d	0.014147383
55	0x3d6d05d9	0.057866905
56	0x3d0ed5b3	0.03487177
57	0xbc273a38	-0.0102067515
58	0xbcb1b530	-0.021692842
59	0xbd8d7a10	-0.06908047
60	0xbd96cd32	-0.07363357
61	0x3ca33e61	0.019927206
62	0xbc65df51	-0.014030294
63	0x3c94a598	0.018145368
64	0xbc51e412	-0.012810724
65	0x3d095609	0.033529315
66	0x3d880c4c	0.066429704
67	0xbd46f70c	-0.048575446
68	0xbd60343a	-0.054737307
69	0xbcaab42f	-0.020837871
70	0xbd924a68	-0.07143098
71	0xbd6b2f72	-0.057418294
72	0x3cd30bd3	0.025762474
73	0x3d808c68	0.0627678
74	0x3c0fc3fd	0.008774755
75	0x3d02001e	0.031738393
76	0xbd17b788	-0.037040263
77	0xbd40df14	-0.047087744
78	0xbd367b18	-0.044550985
79	0x3d913cf6	0.070917055
80	0x3c06fa0f	0.00823833
81	0x3d6f5f32	0.058440395
82	0x3d4eef02	0.050520904
83	0x3d2fb224	0.042894498
84	0x3b242efa	0.0025052414
85	0x3d712abc	0.058878645
86	0xba5ca25d	-0.0008416528
87	0x3d81ae0a	0.063320234
88	0x3d9be15b	0.076113425
89	0x3d57299e	0.052529924
90	0xbda259ff	-0.07927322
91	0xbd4accc0	-0.04951167
92	0x3ce6c52c	0.02817019
93	0xbd9399d8	-0.07207078
94	0xbcc4e728	-0.024036005
95	0xbd47dcb1	-0.048794452
96	0x39df28fd	0.00042564413
97	0x3cc3364e	0.023829605
98	0x3d40e361	0.047091845
99	0xbcaad3c3	-0.020852929
100	0x3d29a20a	0.041414298
101	0x3c23e565	0.010003422
102	0x3d5a6974	0.053323224
103	0xbd0b5b26	-0.034022473
104	0x3c8eac1a	0.017416049
105	0x3cc4b62b	0.024012646
106	0x3d067279	0.032824013
107	0x3c2e510f	0.010639443
108	0xbd98c1cb	-0.07458838
109	0xbd8af20f	-0.0678445
110	0x3d26d2b8	0.0407283
111	0xbcc86346	-0.0244614
112	0xbd7f53d9	-0.062335823
113	0x3d13ce0e	0.03608518
114	0xbc7ff5e8	-0.015622593
115	0x3cadc5f9	0.021212565
116	0xbdb2a29d	-0.08722422
117	0xbd24b813	-0.04021461
118	0xbd8d1cc4	-0.06890252
119	0x3cf3e381	0.029771568
120	0xbd9c5021	-0.07632471
121	0xbdeb79ef	-0.11497866
122	0xbd834191	-0.0640899
123	0xbe0be020	-0.13659716
124	0xbda1aabc	-0.07893893
125	0xba9671bb	-0.0011477986
126	0x3d8e76f5	0.06956283
127	0x3d7c7575	0.061635453
128	0xbd2980d2	-0.04138262
129	0xbd2c34e5	-0.04204263
130	0xbd60b426	-0.054859303
131	0xbd0dc551	-0.034612004
132	0x3d918ab9	0.07106537
133	0xbc64fcab	-0.013976256
134	0x3d890094	0.066895634
135	0xbd9cbab4	-0.07652798
136	0x3c76fb56	0.015074572
137	0x3c9dfa3d	0.019284362
138	0xbd2cabef	-0.042156156
139	0xbd86de71	-0.06585396
140	0xbd02523c	-0.031816706
141	0x3c240c69	0.010012724
142	0xbc136a3b	-0.008997495
143	0x3d8533b2	0.06504001
144	0xbd0873c0	-0.033313513
145	0xbd02a3fd	-0.031894673
146	0x3c28b00a	0.010295877
147	0x3d99cfed	0.07510362
148	0xbd5d4c85	-0.054028053
149	0x3d70497a	0.058663823
150	0x3d2854c8	0.04109648
151	0x3d0d3197	0.03447112
152	0x3d661ba3	0.0561787
153	0x3dc1cc5c	0.094628066
154	0xbd29f032	-0.041488834
155	0xbd5a3146	-0.053269647
156	0x3cfcbb2a	0.030850966
157	0x3d9bce75	0.07607738
158	0x3d046943	0.032326948
159	0xbc158eb5	-0.009128262
160	0xbd8d2722	-0.068922296
161	0x3d350233	0.04419155
162	0x3da77beb	0.08177932
163	0x3d3e1d89	0.046414886
164	0x3d9d8f07	0.07693296
165	0x3da238c1	0.07920981
166	0xbd89a8c4	-0.067216426
167	0x3cdf97a7	0.027293993
168	0xbaec58c7	-0.0018031829
169	0xbc940804	-0.018070228
170	0x3d5347d4	0.051582173
171	0xbcd0ec39	-0.025503265
172	0x3d501c87	0.050808456
173	0xbd36018c	-0.04443507
174	0x3d6ce53e	0.05783581
175	0xbcb70523	-0.022341317
176	0xbd723e3b	-0.05914138
177	0xbd3269b1	-0.043557826
178	0x3d150eb0	0.03639096
179	0x3c76b8e9	0.015058734
180	0xbd772a3c	-0.060343012
181	0x3d223a09	0.039606128
182	0x3d1e8879	0.03870437
183	0x3baa4833	0.005196595
184	0x3d54e98f	0.05198055
185	0xbd91d678	-0.07120985
186	0x3d1b5ac6	0.037928365
187	0x3d51d41f	0.051227685
188	0x3c565874	0.013082612
189	0x3d0afeaf	0.03393429
190	0x3d3348fd	0.04377078
191	0x3b73b1b7	0.0037184784
192	0xbd18ba87	-0.03728726
193	0x3bcfc1f8	0.0063402615
194	0xbc74cb39	-0.01494103
195	0xbc216b49	-0.009852239
196	0xbda3f442	-0.08005573
197	0xbb2bd7af	-0.0026221087
198	0x3cb28612	0.021792445
199	0x3d380b3c	0.04493259
200	0x3d2e2d9d	0.04252397
201	0xbd9f870c	-0.0778943
202	0xbd9c6433	-0.07636299
203	0x3c4bb307	0.01243282
204	0xbd385ecd	-0.045012284
205	0x3c338c2e	0.010958714
206	0xbc07036d	-0.008240563
207	0xbcdf4d60	-0.027258575
208	0xbdb51de1	-0.088435896
209	0xbc1737e1	-0.009229631
210	0x3d500273	0.050783586
211	0xbd22056a	-0.039555945
212	0x3d1c1168	0.038102537
213	0x3d817ea4	0.06322983
214	0x3d14c35d	0.036319125
215	0x3c95a58b	0.018267414
216	0xbd3e003b	-0.04638694
217	0x3d3da9f7	0.04630467
218	0xbdaefe05	-0.08544544
219	0xbd18f0d2	-0.03733904
220	0x3da59d26	0.08086614
221	0xbc431eb2	-0.011909174
222	0x3d81ebab	0.06343778
223	0x3bc51f59	0.0060157
224	0xbd1c0e2e	-0.03809946
225	0x3c4f9d65	0.012671803
226	0x3d6e61ff	0.058198925
227	0x3d6a0c1e	0.057140462
228	0xbb764dab	-0.0037582915
229	0xbcca2565	-0.024676034
230	0xbc788d9b	-0.01517048
231	0x3da998f3	0.08281126
232	0x3be73cdc	0.0070568155
233	0xbc82e950	-0.015980393
234	0xbbde22d2	-0.0067790532
235	0x3db344a5	0.08753327
236	0xbd85e40e	-0.065376386
237	0x3da3be92	0.07995333
238	0x3bc6b4a5	0.006064015
239	0x3cb52c06	0.022115719
240	0xbd2d23b7	-0.04227039
241	0xbbfebf5c	-0.0077742767
242	0x3d3f43d3	0.04669554
243	0x3d97b018	0.07406634
244	0x3d42a35d	0.047519077
245	0xbc136f71	-0.008998738
246	0xbd80c65c	-0.06287834
247	0x3c22805d	0.0099182995
248	0xbc5b7efa	-0.013396973
249	0x3bb675db	0.0055682487
250	0xbd8ddac6	-0.06926493
251	0xbd63dc78	-0.055630177
252	0xbce9d223	-0.028542584
253	0xbd2084d3	-0.03918917
254	0xbe01f5c8	-0.12691414
255	0xbd924df4	-0.07143775

localization.3.bias f4 [16]
0	0xbce01aee	-0.027356591
1	0x3d795bcb	0.060878556
2	0x3d48f85f	0.04906499
3	0xbca977e0	-0.020687044
4	0x3ad52354	0.0016261139
5	0xbcca1f5c	-0.024673156
6	0x3bad282b	0.0052843294
7	0xbde15eff	-0.11004447
8	0xbbe902b4	-0.007110918
9	0x3cd3b419	0.025842713
10	0x3d133ed8	0.035948604
11	0x3d0155e7	0.031576063
12	0xbd230adb	-0.039805274
13	0x3d8b42bc	0.06799838
14	0x3cd3af6e	0.025840487
15	0xbd0c87fd	-0.034309376

colorization.0.weight f4 [6, 3, 5, 5]
0	0xbdfaebe0	-0.12252021
1	0x3d696717	0.05698308
2	0xbd32b587	-0.04363015
3	0xba418fef	-0.00073838135
4	0xbdc4b44f	-0.09604704
5	0xbce30b7a	-0.027715433
6	0x3d45bf92	0.0482784
7	0x3d4ade89	0.049528632
8	0xbd608e0d	-0.05482297
9	0x3d20cce8	0.039257914
10	0x3dc6dc8e	0.09710036
11	0xbd825532	-0.06363906
12	0x3d9a1abd	0.07524631
13	0xbc586666	-0.013208007
14	0x3da5d9c3	0.080981754
15	0x3ce1523a	0.027505029
16	0x3d08633e	0.03329777
17	0x3d7d0769	0.061774645
18	0x3d155057	0.03645357
19	0x3e1e1d31	0.15440823
20	0x3e21db39	0.15806283
21	0x3e411735	0.18856509
22	0x3d52a042	0.051422365
23	0x3d2cbf19	0.042174432
24	0x3d9e21d2	0.077212945
25	0x3d481d97	0.048856344
26	0xbe0e2c1f	-0.13884018
27	0xbd4cf1f9	-0.05003545
28	0x3d200eb9	0.03907654
29	0xbdd9d128	-0.106355965
30	0xbcafeae8	-0.021474317
31	0xbe1aa054	-0.15100223
32	0x3a9b2c6a	0.0011838798
33	0x3d2fd334	0.04292603
34	0xbbb69a1a	-0.0055725696
35	0x3a31b99b	0.00067796715
36	0xbd0a00f7	-0.033692326
37	0xbb4e7146	-0.0031500622
38	0xbd971d37	-0.07378619
39	0x3d545d80	0.05184698
40	0xbdb9be7f	-0.09069537
41	0xbda6793b	-0.081285916
42	0xbdb51edf	-0.08843779
43	0xbddb8344	-0.10718396
44	0x3d5391dd	0.051652778
45	0x3d248e6e	0.040174894
46	0xbd49407d	-0.049133766
47	0xbd9ab702	-0.07554437
48	0xbc6e6bd8	-0.014552079
49	0xbd0b5844	-0.034019724
50	0xba376bd9	-0.00069969665
51	0xbdeb3174	-0.11484042
52	0x3cca5dfd	0.02470302
53	0xbe28d38b	-0.16486947
54	0x3c482a93	0.012217182
55	0x3d27ec90	0.040997088
56	0xbcc19e0f	-0.023634939
57	0xbe2476a6	-0.16060886
58	0x3cb39978	0.021923766
59	0x3c32618b	0.010887514
60	0x3d0ced0f	0.034405764
61	0x3b6db061	0.003626846
62	0xbc8db87f	-0.017299889
63	0x3d813c10	0.06310284
64	0xbda45ff5	-0.08026115
65	0xbc888756	-0.016666096
66	0xbaa5be8c	-0.0012645288
67	0xbde0ea98	-0.10982245
68	0xbdacd041	-0.08438159
69	0xbddd5457	-0.10807102
70	0x3d2a9dc8	0.04165438
71	0x3d07b207	0.033128764
72	0xbd0d3907	-0.034478214
73	0x3d953a76	0.07286541
74	0x3d1d5f08	0.038420707
75	0x3d85165a	0.06498404
76	0xbddcd151	-0.107821114
77	0xbe041c84	-0.12901503
78	0xbd887a3d	-0.0666394
79	0x3c20898d	0.00979842
80	0x3b715e97	0.0036830062
81	0x3d2461a3	0.040132176
82	0xbd1b9ec1	-0.037993196
83	0x3d8a6302	0.067571655
84	0xbddb41cb	-0.107059084
85	0xbd932d8a	-0.0718642
86	0x3d30b8f0	0.04314512
87	0xbde29c4e	-0.11064969
88	0x3d74cedf	0.0597676
89	0x3b182c22	0.0023219665
90	0xbda4ac10	-0.08040631
91	0x3dc42352	0.09577049
92	0xbde2d3d1	-0.11075557
93	0xbda16061	-0.07879711
94	0x3d84afc3	0.064788364
95	0x3defc9d4	0.117084175
96	0xbdaceed9	-0.08443994
97	0x3c59029e	0.013245253
98	0x3b307971	0.0026927853
99	0xbd31296d	-0.043252397
100	0x3dbb1e2d	0.09136615
101	0x3dbdf836	0.09275858
102	0xbdbd764b	-0.09251078
103	0xbc894909	-0.016758459
104	0xbd4ae0c2	-0.049530752
105	0x3decb7bb	0.11558481
106	0x3c06321b	0.008190657
107	0x3cb576e9	0.022151427
108	0xbdbcaecb	-0.092130266
109	0x3d6c318f	0.05766445
110	0xbdd69e16	-0.10479371
111	0xbda3ad8f	-0.07992088
112	0xbdc9b7cd	-0.0984951
113	0x3d44caeb	0.04804508
114	0x3d1a949e	0.03773939
115	0x3ddf42eb	0.109014355
116	0xbd51cd69	-0.051221285
117	0x3c910dcf	0.01770678
118	0xbc97c34c	-0.018525742
119	0x3c0d00d3	0.008606154
120	0x3d9c4913	0.07631125
121	0xbd424f1a	-0.04743872
122	0x3dd27bb6	0.10277502
123	0xbd93b089	-0.07211406
124	0xbd541237	-0.051775184
125	0xbdddf0d5	-0.10836951
126	0xbd2f544b	-0.042804997
127	0x3ddf5090	0.10904038
128	0xbd8d72b8	-0.069066465
129	0xbdd97614	-0.10618225
130	0x3c677073	0.014125931
131	0x3bd47303	0.006483437
132	0xbc802236	-0.015641313
133	0x3ad7d7f2	0.0016467555
134	0x3d158e21	0.036512498
135	0x3da35dbd	0.079768635
136	0x3cf3e739	0.029773341
137	0x3ce540c1	0.027984979
138	0x3dc8b4fe	0.098001465
139	0xbb05ba0e	-0.0020405087
140	0x3dad6416	0.084663555
141	0xbd95fccf	-0.0732361
142	0xbca137ac	-0.019679867
143	0x3d46a4b7	0.048496928
144	0xbd808964	-0.06276205
145	0xbd0ac222	-0.033876546
146	0x3d151056	0.036392532
147	0x3dc80ffb	0.09768673
148	0xbcef02c6	-0.029176127
149	0xbcd97942	-0.026547078
150	0xbd741f4d	-0.059600163
151	0x3cdaacc4	0.02669371
152	0xbda2e0d0	-0.07953036
153	0x3d0b67f6	0.03403469
154	0xbc8af079	-0.01696037
155	0xbd806313	-0.06268897
156	0xbde7dd69	-0.113215275
157	0xbcbb85df	-0.022890983
158	0xbdf64fb5	-0.12026922
159	0x3dde9682	0.10868551
160	0xbdc59771	-0.09648026
161	0x3dc8027b	0.09766098
162	0xbe0388f6	-0.12845215
163	0x3af7ccef	0.001890568
164	0x3dab4e12	0.083645
165	0xba51622c	-0.0007987346
166	0xbd43445c	-0.047672614
167	0xbc41c39e	-0.011826424
168	0xbd9e8f70	-0.07742202
169	0xbdba87c8	-0.091079295
170	0xbdc1478e	-0.09437476
171	0x3d34d256	0.044145904
172	0x3cc53e8b	0.024077674
173	0xbdb926d0	-0.09040606
174	0xbd4e46ff	-0.050360676
175	0x3dc8007f	0.097657196
176	0xbdd8fa1e	-0.10594581
177	0xbd334508	-0.043767005
178	0x3d279543	0.04091383
179	0xbda3f6d9	-0.08006067
180	0x3dca1219	0.09866733
181	0x3d0aa0b3	0.03384466
182	0x3cdb34e5	0.02675862
183	0xbda52ba3	-0.08064964
184	0x3b32842c	0.0027239425
185	0x3d0489ec	0.032358095
186	0x3dd27aba	0.102773145
187	0x3dce1a34	0.100635916
188	0xbcc52284	-0.02406431
189	0xbc7bbdc3	-0.015365067
190	0x3cddcfdb	0.027076652
191	0x3d57a186	0.052644275
192	0xbdb56224	-0.088566095
193	0xba779a01	-0.00094452506
194	0x3bbe16ee	0.0058010733
195	0x3afd820d	0.0019341126
196	0x3d401a42	0.04690004
197	0x3cdb8a25	0.02679927
198	0xbd8f005b	-0.0698249
199	0x3bebe523	0.007198946
200	0xbd39eae6	-0.045390032
201	0x3d518e5f	0.051161166
202	0xbdacbdd8	-0.08434647
203	0xbaad03bd	-0.0013199967
204	0x3d9d2d5b	0.076746665
205	0xbc13af1a	-0.009013915
206	0xbd01a978	-0.03165576
207	0xbd137759	-0.03600249
208	0xbd8425c1	-0.064525135
209	0xbb705dd8	-0.003667703
210	0xbdcbbe44	-0.099484
211	0x3d523b5c	0.05132614
212	0x3dd42345	0.1035829
213	0xbcdf4bf5	-0.027257899
214	0xbd9d959e	-0.07694553
215	0x3d5f0983	0.05445243
216	0xbd645b45	-0.055751104
217	0x3d05c221	0.03265584
218	0xbdae8633	-0.0852169
219	0xbd305b54	-0.043055847
220	0x3dd1a088	0.10235697
221	0xbd8eb463	-0.06968
222	0xbd82ea51	-0.063923486
223	0xbc256081	-0.010093809
224	0xbd791462	-0.060810454
225	0x39c153ff	0.0003687441
226	0x3da4b76e	0.08042799
227	0x3d11a7d3	0.03556044
228	0xbd388d4a	-0.04505662
229	0x3dfbcdc4	0.12295106
230	0x3dd583e9	0.104255505
231	0x3d070b3e	0.032969706
232	0xbcfa74b2	-0.030573223
233	0x3cc218e3	0.023693508
234	0xbdccd773	-0.10002031
235	0xbde17c9d	-0.11010096
236	0xbd7a47dd	-0.06110369
237	0xbd9155d9	-0.07096452
238	0xbda89566	-0.082316205
239	0xbe2577e3	-0.16159014
240	0xbbc819fb	-0.0061066127
241	0x3d8e91da	0.06961413
242	0xbe1aa66a	-0.15102544
243	0xbd7c75d1	-0.061635796
244	0xbdb3167c	-0.08744523
245	0x3d9aa1a8	0.07550365
246	0xbde6a873	-0.11262598
247	0xbe241900	-0.16025162
248	0xbe2b4573	-0.16725712
249	0x3d15eae8	0.036600977
250	0xbd304f1f	-0.043044206
251	0x3d802d28	0.06258613
252	0xbd837a12	-0.064197674
253	0x3dd038b2	0.10167064
254	0x3cf3ee64	0.02977676
255	0xbcd97dc9	-0.026549237

colorization.0.bias f4 [6]
0	0xbe03c730	-0.12868953
1	0x3c65c100	0.014023066
2	0x3c0732da	0.00825187
3	0x3dd2d8d9	0.10295267
4	0x3f1562ab	0.5835368
5	0x3d1bde16	0.038053595

colorization.3.weight f4 [16, 6, 5, 5]
0	0x3d5b0ccc	0.053479
1	0x3d26544b	0.04060773
2	0xbd1b9da1	-0.037992124
3	0xbd818f83	-0.06326201
4	0x3ce34bcb	0.027746102
5	0xbc29b920	-0.010359079
6	0xbd3f4a62	-0.046701796
7	0xbbe297ca	-0.0069150673
8	0xbcfaf154	-0.030632652
9	0xbbca61ee	-0.006176225
10	0x3c921908	0.017834201
11	0x3a58f69f	0.00082764955
12	0x3d4ec1c9	0.050477777
13	0x3bcf8cc0	0.0063339174
14	0xbd17e01b	-0.037078958
15	0xbc3866c2	-0.011254968
16	0x3d262d47	0.040570524
17	0x3ccf084c	0.025272511
18	0x3cc7e8c6	0.024402987
19	0xbd847472	-0.06467523
20	0xbd846df4	-0.064662844
21	0xbd1c8b6c	-0.0382189
22	0xbd4733bc	-0.048633322
23	0xbd93ec76	-0.07222836
24	0xbacddcba	-0.001570604
25	0xbd9cca5c	-0.076557845
26	0x3d913412	0.0709001
27	0x3c780505	0.0151379155
28	0xbbb89659	-0.005633157
29	0xbd34b6ec	-0.04411976
30	0xbda7e587	-0.08198076
31	0x3d21ac21	0.039470796
32	0xbc9e16a1	-0.0192979
33	0x3d055a76	0.032556973
34	0x3c5387a1	0.012910754
35	0xbbd262a5	-0.0064204508
36	0x3d7bd265	0.061479945
37	0xbd99d4eb	-0.07511314
38	0x3c382218	0.011238597
39	0xbd870f48	-0.065947115
40	0xbc1ce895	-0.009576936
41	0x3c9b8c5f	0.018987833
42	0x3cf2d7ff	0.02964401
43	0xbd535a02	-0.05159951
44	0x3d935537	0.07193988
45	0x3d5dfd06	0.05419638
46	0xbdb3e3b5	-0.08783666
47	0x3d84d4be	0.0648589
48	0x3d4bdf0f	0.049773272
49	0xbd99c97f	-0.075091355
50	0xbd1f43ea	-0.038883127
51	0x3d2b7c2e	0.041866474
52	0xbd168f3e	-0.0367577
53	0x3d57efe5	0.052719016
54	0xbd4a7f8d	-0.04943805
55	0xbd8b3cb5	-0.06798688
56	0x3d0a29ab	0.033731144
57	0x3d89a78c	0.0672141
58	0x3d24b736	0.040213786
59	0x3cdff629	0.027339058
60	0x3d6732a9	0.056444798
61	0x3d334feb	0.043777388
62	0xbd96901a	-0.07351704
63	0xbd95460f	-0.07288753
64	0x3d94994b	0.07255801
65	0xbce5af91	-0.028037818
66	0xbd0238d9	-0.031792495
67	0xbda856ab	-0.082196556
68	0xbd4d1791	-0.050071303
69	0x3d6d1276	0.057878934
70	0x3a169d5b	0.00057454937
71	0x3cd93956	0.026516598
72	0x3d7c5dd4	0.06161292
73	0xbd986f43	-0.074430965
74	0xbdad554d	-0.084635355
75	0x3c9e40de	0.01931804
76	0xbcaa7a37	-0.02081023
77	0x3d42b6df	0.04753768
78	0xbbc84351	-0.0061115404
79	0xbdab00d2	-0.08349766
80	0xbd5073f6	-0.05089184
81	0xbc85e7f6	-0.01634596
82	0xbc986694	-0.0186036
83	0xbcbebf16	-0.023284476
84	0xbdb7011b	-0.08935758
85	0xbc837c17	-0.016050382
86	0x3cae944c	0.021310948
87	0xbdd6dc07	-0.10491186
88	0xbdcb3b43	-0.09923413
89	0xbd13c107	-0.036072757
90	0xbd4c989f	-0.04995024
91	0x3d28e80d	0.041236926
92	0x3bed18ee	0.007235638
93	0xbcb3e822	-0.021961275
94	0xbc2e0b4b	-0.01062281
95	0x3b590dca	0.0033119791
96	0xbda54ec2	-0.080716625
97	0xbd80cba9	-0.06288845
98	0xbc3100a5	-0.010803376
99	0xbd714e7a	-0.05891273
100	0x3d5fa3c9	0.054599557
101	0x3a43b795	0.00074660155
102	0x3c01f851	0.007932738
103	0x3ce37762	0.027766887
104	0xbada9ef9	-0.0016679458
105	0x3da2a803	0.07942202
106	0x3db24295	0.08704106
107	0xbb1a454b	-0.0023539837
108	0x3bf8b9c4	0.0075905044
109	0x3a190b20	0.00058381446
110	0x3d894f4e	0.06704579
111	0x3c0c0ba0	0.0085476935
112	0x3d2cd48e	0.042194895
113	0xbd35583c	-0.0442736
114	0xbcf1dad6	-0.029523294
115	0x3d99a38a	0.07501896
116	0x3d7fc3b6	0.062442504
117	0xbb9ba310	-0.004749663
118	0x3d7b0446	0.061283372
119	0xbcc2bb5e	-0.023770984
120	0x3c94c8b5	0.01816211
121	0xbd68969a	-0.05678425
122	0x3be39bfd	0.0069460855
123	0x3cda2ebf	0.026633618
124	0x3de707de	0.112807974
125	0xbbf56d68	-0.007489849
126	0x3bdfc2d8	0.006828647
127	0xbc41b487	-0.011822826
128	0xbc8058d0	-0.01566735
129	0xbd67ace0	-0.05656135
130	0xbd70f260	-0.058824897
131	0x3c90c94f	0.017674116
132	0xbdaa1892	-0.08305468
133	0x3b997b69	0.004683901
134	0xbcb0de1b	-0.021590283
135	0xbdb28f56	-0.087187454
136	0xbd6207ac	-0.055183098
137	0x3c648e26	0.013949906
138	0x3cf18e47	0.029486788
139	0xbda47939	-0.08030934
140	0x3d5ca845	0.05387141
141	0xbd636e77	-0.05552527
142	0x3c86fbf5	0.016477564
143	0xbd945485	-0.07242683
144	0x3d8e2c14	0.06942001
145	0x3ce6463b	0.02810966
146	0x3d3e8394	0.0465122
147	0x3c2e868e	0.0106521975
148	0x3d97c50f	0.07410633
149	0x3c55acfb	0.01304173
150	0xbd463d51	-0.04839832
151	0xbc967406	-0.018365871
152	0x3d607df0	0.054807603
153	0xbcfe0d5a	-0.031012226
154	0xbcfa90a0	-0.03058654
155	0xbd726f6d	-0.059188295
156	0x3d4ad084	0.049515262
157	0xbd2eee93	-0.04270799
158	0xbd9179f9	-0.071033426
159	0x3caece51	0.021338614
160	0xbd498ee8	-0.04920855
161	0xbc8b6248	-0.017014638
162	0x3c51a4ba	0.0127956215
163	0x3d126e31	0.035749618
164	0x3c528203	0.01284838
165	0x3d1d5485	0.038410682
166	0xbc4dad99	-0.012553596
167	0x3ba6cbf8	0.005090233
168	0x3d1859b2	0.037194915
169	0x3d6416d6	0.05568584
170	0xbdc49790	-0.09599221
171	0x3d7215f0	0.059102952
172	0xbd8e19a8	-0.06938487
173	0x3ccdf7db	0.0251426
174	0xbd77985f	-0.060448047
175	0x3d9de4a3	0.077096246
176	0x3d32bb74	0.0436358
177	0xbd8c9c8c	-0.068657964
178	0x3c1cf538	0.009579949
179	0xbd4f4972	-0.050607152
180	0xbd567517	-0.05235776
181	0xbd70e33b	-0.058810454
182	0xb8dea7be	-0.00010617029
183	0x3d6218e8	0.055199534
184	0x3d99ea41	0.075153835
185	0x3cec855f	0.02887219
186	0x3d99bf64	0.07507208
187	0xbce88338	-0.028382882
188	0x3c8f3dc4	0.017485507
189	0xbd48457f	-0.0488944
190	0xbd756c53	-0.05991776
191	0xbd9ebb4d	-0.077505685
192	0x3c645ee1	0.0139386365
193	0x3d8f3679	0.06992812
194	0x3c1a0590	0.00940074
195	0xbd41edf4	-0.04734607
196	0x3d6b98e6	0.057518862
197	0xbd41535d	-0.047198642
198	0xbc47a80a	-0.01218606
199	0xbd6ffa3d	-0.058588255
200	0xbd2a7240	-0.041612864
201	0xbd5235fa	-0.051321007
202	0x3b840322	0.004028694
203	0xbd80a9ce	-0.06282388
204	0x397b34a6	0.00023956838
205	0x3d0ed814	0.034874037
206	0xbd80b74c	-0.06284961
207	0x3d5cd190	0.053910792
208	0xbbf0ce60	-0.0073488206
209	0x3c245228	0.010029353
210	0xbd14b91c	-0.036309347
211	0xbad2fcf6	-0.0016097117
212	0x3d558791	0.05213124
213	0xbcf9e453	-0.030504381
214	0x3cd51f1e	0.026015814
215	0x3d107a64	0.03527297
216	0xbc698474	-0.014252771
217	0xbd8677cb	-0.065658174
218	0x3be28fe4	0.0069141258
219	0x3c20389a	0.00977912
220	0xbd6fe830	-0.05857104
221	0xbd075af7	-0.033045735
222	0x3d53c6c4	0.05170323
223	0x3d9fcc61	0.07802654
224	0x3d2c84a4	0.042118683
225	0x3d81c30e	0.06336032
226	0xbd699a9c	-0.057032213
227	0x3d8a66ea	0.067579105
228	0x3d207ccb	0.03918151
229	0x3d84fa7c	0.064930886
230	0xbcf7dcc6	-0.03025664
231	0xbd5f0b16	-0.05445393
232	0x3ca30c1a	0.019903231
233	0x3cd3360a	0.025782604
234	0xbd5bc0e4	-0.05365075
235	0xbb0a71c2	-0.0021124934
236	0x3c8da2a0	0.01728946
237	0xbd176c68	-0.03696862
238	0x3d22155a	0.039571144
239	0x3d84d779	0.06486411
240	0xbda4886b	-0.08033832
241	0xbcc1c8fd	-0.023655409
242	0x3cab1985	0.020886192
243	0xbca36239	-0.019944297
244	0x3c1f95f5	0.009740342
245	0xbd12e04c	-0.035858437
246	0xbd96ee89	-0.07369716
247	0xbb52a243	-0.0032140173
248	0xbd94e642	-0.07270481
249	0x3d461108	0.048356086
250	0xbd4c2d89	-0.049848113
251	0x3c9a73e3	0.018854087
252	0xbcf60836	-0.030033212
253	0x3cce25ab	0.025164446
254	0xbc31298f	-0.010813131
255	0x3c7d3e83	0.0154567985

colorization.3.bias f4 [16]
0	0x3e4489c3	0.19193177
1	0xbd93f1f4	-0.07223883
2	0x3ec2f44a	0.38077003
3	0x3e51b564	0.20479351
4	0xbd1647f7	-0.036689725
5	0x3c08c819	0.008348488
6	0x3e21b487	0.15791522
7	0xbc2f4586	-0.010697728
8	0xbd5249c5	-0.051339883
9	0x3ddc6969	0.10762293
10	0x3df0c2bb	0.11755892
11	0x3d3dd6b5	0.04634734
12	0x3e3f1532	0.18660429
13	0x3e204cdc	0.1565432
14	0xbd7d9f89	-0.061919723
15	0x3e1142e8	0.14185679
