temp_transformer.pt (torch_old, 201089 bytes, 18 tensors)

fc1.weight f4 [50, 320]
000000 08 26 a8 bb d0 ac db 3b 0a 57 40 bd f8 f9 ae 3b
       -0.005131487 0.0067039505 -0.046958007 0.005339857
000010 c8 bd 0d 3d 20 e7 f3 ba c8 f9 16 3c 70 59 ea 3b
       0.034604818 -0.0018608309 0.009214826 0.007151775
000020 02 ac 42 bd 2a 24 b4 bc 2c 08 f9 3c d0 a7 3e 3c
       -0.04752732 -0.0219899 0.030399404 0.011636689
000030 f7 82 f6 bc 30 f6 d7 3c 62 33 2f 3d 5c 17 ec 3c
       -0.030091746 0.026362509 0.04277361 0.028819732
000040 d4 df b1 3c 18 8f 3b bd e3 01 4f bd 48 61 ef 3c
       0.021713175 -0.04579076 -0.05053891 0.029221192
000050 7e aa 4d 3d cc 80 11 bd dc 86 0b 3d 10 5b bc 3c
       0.050211422 -0.03552322 0.03406416 0.02299264
000060 4c 79 33 bd 9b 3f 53 bd 47 db 60 bd 44 33 20 bd
       -0.04381685 -0.05157433 -0.05489662 -0.03911139
000070 2c 50 da 3c b4 29 9c 3c 1e 72 52 bd 00 04 e4 3c
       0.026649557 0.019062854 -0.051378362 0.027833939
000080 b9 cb 40 bd a2 be 4e 3d d4 77 c1 3c 64 45 4b 3d
       -0.047069285 0.05047477 0.023616709 0.049626723
000090 48 25 ca 3c 78 21 b7 3b f8 97 89 3c 00 21 40 39
       0.02467598 0.0055887066 0.016796097 0.0001832284
0000a0 14 17 dd 3c 72 6a 33 bd d2 7e 31 bd 15 59 26 bd
       0.026988544 -0.043802686 -0.043333836 -0.0406123
0000b0 8e 2f 25 bd 9c f3 57 3d 80 c4 23 bb e0 f1 c3 3c
       -0.040328555 0.05272256 -0.002498895 0.023919046
0000c0 54 8c 83 3c 98 7f dc 3c 00 61 b4 ba fc c9 a8 bc
       0.016058125 0.02691631 -0.0013761818 -0.020604126
0000d0 60 b0 cb bb 08 32 85 3b f6 03 44 3d a0 c1 52 3d
       -0.006216094 0.004064802 0.04785534 0.051454186
0000e0 3f 60 5c bd 0e 6a ea bc f0 cc 60 3c 10 ef 53 3b
       -0.053802725 -0.028615024 0.013720736 0.0032338537
0000f0 36 61 59 3d 8c 09 e9 3c 0a d9 25 bd 80 b0 28 3d
       0.053071223 0.028446935 -0.040490188 0.04118395
000100 3c 86 9e 3c 4a 0a 5c 3d 84 96 c7 3c d8 22 1b 3d
       0.019351117 0.05372075 0.024363764 0.037875026
000110 58 f7 ad bc ba a4 30 3d 48 ab 12 3c 3a c4 58 bd
       -0.021236107 0.043125845 0.008951969 -0.05292151
000120 80 77 34 bb 30 23 2b bd f0 43 19 3b 58 7f a1 3c
       -0.0027537048 -0.041781604 0.0023386441 0.019714043
000130 60 55 36 bb 20 5b 68 3c 94 67 2c 3d 40 f9 96 3b
       -0.0027821884 0.014181882 0.042090967 0.0046073496
000140 4c d5 2b 3d 3a 7d 2d 3d 8a 59 23 bd f2 04 04 bd
       0.041951463 0.042355753 -0.039880313 -0.03223128
000150 50 b3 4a 3b 72 f7 3d 3d 10 b8 1c 3c 10 45 b5 bc
       0.0030929632 0.04637856 0.009565368 -0.022127658
000160 a8 9a 0d bd 00 d8 eb bb 80 a1 28 ba c0 f8 ef 3b
       -0.03457132 -0.00719738 -0.0006432757 0.0073233545
000170 b0 25 17 bb 08 d5 b2 bb ac 02 1a 3d 00 60 88 b8
       -0.0023063235 -0.005457524 0.037600204 -6.502867e-05
000180 fa 67 54 3d 7f 8d 38 bd 3d 88 01 bd e8 00 5d 3d
       0.051856972 -0.045056816 -0.031624068 0.053955942
000190 8c 26 f3 3c bc 51 ce 3c 7b 73 e5 bc 10 e5 bf 3b
       0.029681467 0.025185458 -0.028009167 0.005856164
0001a0 f8 1f 9b 3c 34 48 c6 3c 04 3e 37 3d 92 52 2b bd
       0.018936142 0.024204351 0.044736877 -0.041826792
0001b0 b4 2c e6 3c 36 a8 de bc d4 3f 1e bd 44 27 0a bd
       0.028097488 -0.027179819 -0.03863509 -0.033728853
0001c0 fc e7 4e bd c4 ce 33 3d 00 48 54 3c a7 7a 41 bd
       -0.050514206 0.04389836 0.012956619 -0.04723611
0001d0 e0 06 21 3c 6e 84 02 3d 80 a3 59 3c 60 12 8e 3c
       0.009828299 0.031864576 0.01328361 0.017342746
0001e0 46 09 24 3d 5c 82 05 bc 18 71 cc 3c 24 be 63 bc
       0.040047906 -0.008148756 0.024956271 -0.0139003135
0001f0 1e 9c 42 bd 32 31 31 3d dc 04 04 bc 36 46 88 bc
       -0.047512166 0.043259807 -0.008057799 -0.016635042
000200 1a a7 4e bd 28 05 e5 bb 42 4e 00 3d 2a 56 9a bc
       -0.05045233 -0.00698914 0.031324632 -0.018839914
000210 4b 17 fa bc 58 98 11 3d 68 7f 32 bd 68 ee 94 bb
       -0.030528685 0.035545677 -0.043578535 -0.004545022
000220 d0 c3 13 bb 84 c9 44 bd d8 52 97 3c 60 43 80 3c
       -0.0022547133 -0.048043743 0.01847212 0.015657127
000230 18 2a 04 3d 70 d0 8d 3c a1 73 2d bd 22 10 aa bc
       0.032266706 0.017311305 -0.0423466 -0.020759646
000240 40 cd 05 bd ca 36 2f 3d d5 6e d2 bc f6 20 46 3d
       -0.032666445 0.04277686 -0.025687614 0.048371278
000250 3b f8 52 bd 8c b5 f4 3c 5c 29 cd 3c 70 9a 8a 3c
       -0.051506262 0.029871725 0.025044136 0.016919345
000260 12 3f 3d 3d a8 af 02 bc 6f 70 ee bc 56 46 14 bd
       0.046202727 -0.00797645 -0.029106347 -0.03619989
000270 00 84 84 38 4c e4 e6 3c 7a 3b 1d 3d f2 6d 55 3d
       6.3188374e-05 0.028185032 0.0383868 0.052106805
000280 ee 26 4f 3d 46 2a 16 bd 99 c0 df bc 64 bb 51 3d
       0.050574236 -0.03666141 -0.027313517 0.0512041
000290 76 63 20 3d cc ee 91 3c ac a9 ac 3c b0 d2 25 bd
       0.039157353 0.017814063 0.021077 -0.04048413
0002a0 dc 82 5f 3d 70 1a 20 3b dd 25 22 bd 62 8b 21 bd
       0.054568157 0.002442982 -0.03958689 -0.039439566
0002b0 a7 f0 16 bd 90 92 54 3c ee 4a 3e 3d e9 22 dd bc
       -0.036850598 0.012974396 0.046458177 -0.026994186
0002c0 0a e5 24 3d b4 75 10 bd cc be 1b bc 25 79 32 bd
       0.04025749 -0.0352685 -0.009505939 -0.043572564
0002d0 e5 17 50 bd 78 d4 b4 3c fe 4f 21 3d 72 28 5d bd
       -0.050804038 0.02207397 0.039382927 -0.05399365
0002e0 7b 63 4c bd 40 34 47 3a 86 9a 16 3d e3 be fa bc
       -0.04989956 0.00075990334 0.03676846 -0.0306086
0002f0 14 e4 44 bc 44 2e 88 3c be 9c 07 3d 44 88 14 3d
       -0.012017269 0.016623624 0.033108465 0.036262766
000300 80 c2 b7 b9 4c e1 e4 bc 46 8f 3d 3d 9d 68 46 bd
       -0.00035049394 -0.027939461 0.046279214 -0.04843961
000310 0c 31 e0 3c d0 d0 7d bc 60 22 3f 3d b4 fb c8 bc
       0.027367137 -0.015491679 0.046663642 -0.024534084
000320 91 ed 27 bd 6a 2a 28 3d e0 e8 8f 3c a4 1c 5c bd
       -0.040998045 0.041056074 0.017567098 -0.05373825
000330 38 91 5e 3c ea d2 e4 bc 40 b0 e1 ba f8 6a 51 3c
       0.013584428 -0.027932603 -0.0017218664 0.012781851
000340 c0 6e 88 ba ea af 4f 3d c0 3c 3a bd f0 4c 19 3c
       -0.0010408983 0.050704874 -0.045468092 0.009356722
000350 be 68 96 bc 20 1b ba bb 66 6d 2d 3d a0 77 fc 3c
       -0.018360492 -0.005679503 0.04234066 0.03081876
000360 f4 6d 86 bc 19 61 64 bd 1a 02 3d bd 50 3c 75 bc
       -0.016409852 -0.055756662 -0.046144582 -0.014967993
000370 db 9c 0b bd 5c 47 3c bd cc 85 05 bd 9a 4b 14 3d
       -0.034085136 -0.04596649 -0.0325983 0.03620491
000380 14 ee a0 3c 40 ba ee 3b 10 e8 4e 3c 40 76 12 3c
       0.019644774 0.0072853863 0.01262857 0.008939326
000390 44 b4 a4 3c 10 b0 93 bb 82 8f 60 3d 80 01 ec bb
       0.020105489 -0.0045070723 0.05482436 -0.0072023273
0003a0 44 09 a0 bc 83 b1 1a bd a0 ea f2 ba cc b5 62 3d
       -0.019535668 -0.037766945 -0.0018533058 0.055349156
0003b0 c0 0e b8 3c de ef 21 3d e4 d9 64 3d 40 bc 1a bc
       0.02246797 0.039535396 0.05587186 -0.009444296
0003c0 b0 f1 46 3b d4 83 b5 3c a6 9f 9b bc 88 bf ce 3c
       0.003035646 0.022157587 -0.018997025 0.025237814
0003d0 80 4d 83 ba a8 0c 25 3c 4a 99 3c bd 7c 55 ab 3c
       -0.0010017604 0.010073818 -0.046044625 0.020914786
0003e0 a4 d6 0b bc fe c5 3d bd 50 66 d9 3c c0 d1 77 bb
       -0.008535061 -0.0463314 0.026538044 -0.003781423
0003f0 62 02 4a 3d 3c 1a e2 3c e0 3f 22 bd b4 de 93 bc
       0.04931868 0.0276004 -0.039611697 -0.018050529

fc1.bias f4 [50]
000000 e5 aa 2a bd 96 91 40 bd 32 8a 22 3d 70 6e 7b 3b
       -0.041666884 -0.04701384 0.039682575 0.0038365386
000010 9c f0 03 bd 54 54 2b bc b4 62 25 3d c0 f8 be ba
       -0.032211885 -0.010457117 0.040377334 -0.0014569983
000020 58 c2 30 bd ec 1f ac 3c ac 12 75 bc 2c 25 fa 3c
       -0.04315409 0.021011315 -0.014958065 0.030535303
000030 d8 8e a8 bb 78 36 1a 3c bc 1d f0 3c 12 fe 57 bd
       -0.0051439814 0.0094124 0.029311053 -0.052732535
000040 2c 1e 90 bc 44 d1 fb 3c 38 11 37 bd 10 3f 93 bc
       -0.017592512 0.030739434 -0.044694155 -0.017974406
000050 80 5e dd bc 72 a4 1f bd 5c 07 60 3d 5c 11 43 bd
       -0.0270226 -0.038975187 0.05469452 -0.047623977
000060 f0 fa 01 3c a0 3f c8 3c 8c d1 5e 3d 08 37 02 3d
       0.007933363 0.024444401 0.05439906 0.031790763
000070 32 43 33 3d 8c ab 52 bd 8c 28 1e 3d 10 bd 37 3d
       0.043765254 -0.05143313 0.038612887 0.04485804
000080 e0 cf 49 bd 7c 57 ac 3c 18 bb aa bc 20 6e 61 3b
       -0.04927051 0.02103781 -0.020841166 0.0034397915
000090 d8 04 32 3d 86 e0 4c 3d 80 5a e9 bb ff c9 5a bd
       0.04346165 0.05001881 -0.007121384 -0.053415295
0000a0 68 4f ff 3c c8 36 9e 3c 00 46 f2 3c da 94 4a 3d
       0.031165794 0.019313231 0.029574394 0.049458362
0000b0 fc 13 ed 3c 68 ae 85 bb 76 fd 9b bc 3c ea 85 bc
       0.028940193 -0.0040796287 -0.019041758 -0.016347043
0000c0 44 7e f8 3c 60 8f 5f bd
       0.030333646 -0.054580092

fc2.weight f4 [10, 50]
000000 97 9b e3 bd 8e d3 06 be 02 f2 99 3d 4c e7 a1 bd
       -0.11113661 -0.13166639 0.075168625 -0.079054445
000010 64 93 64 3d 3a cb fb 3d c3 af d7 bd d0 0b 42 3d
       0.055804625 0.12294622 -0.10531571 0.047374547
000020 d6 4b e1 3d 00 79 93 bc 00 7b af bb 20 d7 f1 bb
       0.11000793 -0.018002033 -0.005355239 -0.007380381
000030 66 10 d8 3d 96 7c e9 3d ee bd 37 bd db 4a 0b 3e
       0.10550003 0.11400716 -0.044858865 0.13602774
000040 00 3a 13 ba 98 f9 5c 3d 24 73 70 3d 24 84 6c 3d
       -0.00056162477 0.05394897 0.058703557 0.057743207
000050 c4 2d 3b 3d 35 12 b9 bd 0c 7f 29 bd 00 19 1f bd
       0.045697942 -0.09036676 -0.041380927 -0.0388422
000060 bc 0b e0 bd ac d7 cf bc 03 ce a7 bd 7e 7f 12 bd
       -0.10939738 -0.025371395 -0.081935905 -0.035766117
000070 0a b7 c4 3d 16 ba 59 bd 6a 53 27 bd 25 d6 90 bd
       0.096052244 -0.05315598 -0.040851034 -0.07072095
000080 82 93 28 bd e0 a5 9a bd 9b 8d db bd 0c ef c4 bd
       -0.0411563 -0.075511694 -0.107203685 -0.09615907
000090 20 ee 15 bc 43 42 fe bd b5 3f 07 3e 8a 9d ff 3d
       -0.009151012 -0.12414982 0.13207896 0.1248122
0000a0 20 36 01 3c d2 16 56 bd 90 38 0b be 0e 84 91 3d
       0.00788644 -0.052267857 -0.13595796 0.071052656
0000b0 b6 86 a4 3d dc 58 a3 3d c4 b0 33 bd 00 48 7f b9
       0.080335066 0.07975933 -0.04386975 -0.00024345517
0000c0 ac 2c d6 3d c2 a3 0d be d8 a4 90 3d 12 e0 e3 3d
       0.10457739 -0.13832 0.070626915 0.111267224
0000d0 68 ac ce 3d 3e de ab 3d 40 f8 1a 3b d1 86 0c 3e
       0.10091478 0.08391999 0.0023646504 0.13723303
0000e0 54 4d 97 bc 80 a3 74 3b bb 81 07 3e 80 14 d8 bc
       -0.01846949 0.00373289 0.13233082 -0.026376963
0000f0 de 69 dc bd 48 bd b7 3c 93 42 0a 3e 4b 68 07 be
       -0.1076238 0.022429124 0.13501959 -0.13223378
000100 a3 76 09 be 66 26 b2 bd 0a 18 70 bd 06 0a ef bd
       -0.13424163 -0.0869873 -0.058616675 -0.11671834
000110 a0 a2 cd bd 3a 81 b0 3d a6 41 b3 bd f6 18 16 bd
       -0.10040784 0.08618398 -0.08752756 -0.0366449
000120 a0 b4 d0 3d 29 33 ab bd 69 0b f0 bd 05 bf 06 3e
       0.101907015 -0.083593674 -0.11720926 0.13158806
000130 40 8f b5 bb 01 de 02 3e e2 1c 23 bd 4e 22 da 3d
       -0.0055407584 0.1278 -0.039822467 0.10651074
000140 40 02 e4 bc 7c e3 c5 3d 8c 73 5b 3d 20 15 52 bc
       -0.027833104 0.0966253 0.05357699 -0.012822419
000150 e6 b8 f2 3d 14 9f f3 bd 64 72 15 3d 08 7b c1 3c
       0.11851673 -0.11895576 0.036486045 0.023618236
000160 8e 8f f7 3d 50 84 19 3d 90 92 2b bc 50 5e 88 3d
       0.12087928 0.0374797 -0.010471955 0.06658614
000170 7c 66 12 bd 69 ae f5 bd 16 29 00 bd 71 ba d3 bd
       -0.035742268 -0.11996157 -0.031289183 -0.10338295
000180 a6 e5 98 bd 67 c1 0d be 60 f9 2f 3d 56 8d c9 3d
       -0.07465677 -0.13843308 0.042962432 0.09841411
000190 5c d9 ab 3d 0a ec ed 3d ec 5a 8f 3d 8c 0c a8 bd
       0.083910674 0.116172865 0.06999764 -0.08205518
0001a0 10 02 08 3c 3c 92 bf 3d 1e 76 dc bd 36 0a de bd
       0.008301273 0.09354064 -0.107647166 -0.10841791
0001b0 f4 bd c1 3d 00 62 21 3b 0b fb 0a be 80 c3 bc bc
       0.09460059 0.0024625063 -0.13572328 -0.02304244
0001c0 00 0f 10 bd ee d4 a2 bd 7a 02 68 bd fc 89 7f bd
       -0.035170555 -0.07950769 -0.056642987 -0.06238745
0001d0 4a 91 a6 3d 5c 59 16 bd 06 a4 01 bd c0 a7 62 bb
       0.081331804 -0.036706313 -0.031650566 -0.003458485
0001e0 50 a2 53 3c 9c 90 23 3d 9c ec 03 bd 80 5c 72 3c
       0.012917116 0.039932832 -0.03220807 0.0147925615
0001f0 24 86 44 3d 1a 61 f4 3d 84 db 26 3d 92 b0 bf bd
       0.04797949 0.11932583 0.04073669 -0.0935985
000200 8d 45 03 be 00 70 00 3b 80 46 94 3b f0 fb 65 bd
       -0.128195 0.0019598007 0.004525006 -0.05614847
000210 cc e5 54 bd 2c 7a 2e 3d 38 33 6f bd 80 2b e3 ba
       -0.051976964 0.04259698 -0.058398455 -0.001733169
000220 72 af 03 be 30 13 45 bd 62 62 f1 3d a0 d3 e6 bd
       -0.12859896 -0.048114 0.11786343 -0.11270833
000230 80 3a 5d bd 98 3d 92 3d 9a b0 fc 3d 4f f6 00 be
       -0.054010868 0.07140654 0.123383716 -0.1259396
000240 34 61 ab bd 00 2a 37 bc e4 df 14 3d 29 db 04 3e
       -0.083681494 -0.011179447 0.03634633 0.12974228
000250 c8 f9 5a bd ce e9 f0 bd 28 20 7c 3d 7c 3a 7a bd
       -0.053460866 -0.11763345 0.061554104 -0.06109093
000260 86 0b 0d bd f0 0d 2d 3c a0 69 c5 bd cc 21 ad 3d
       -0.034434818 0.010562405 -0.09639287 0.08453712
000270 88 44 d8 3c 60 43 6f 3d 6c 50 ae bd 66 50 98 bd
       0.026399866 0.058413863 -0.08511433 -0.0743721
000280 00 05 13 bd 4b 17 04 be 8f d5 93 bd ae 3f fe 3d
       -0.03589344 -0.1289951 -0.072184674 0.1241449
000290 9a 5e 41 bd 90 eb 08 3c 80 c5 41 bc 84 70 65 3d
       -0.04720936 0.008356944 -0.011826873 0.056015506
0002a0 20 d4 17 bd c8 05 fd 3c e8 0b 26 bd 7c 27 a3 bd
       -0.037067533 0.030886546 -0.0405387 -0.079665154
0002b0 e3 f2 d3 bd 42 2d 88 3d 7c 71 f4 bd 7c 32 8d bc
       -0.10349061 0.06649257 -0.11935708 -0.017235987
0002c0 0a ab eb 3d 9c e6 fe bd 50 fe ee bd 22 5c a7 bd
       0.115072325 -0.12446329 -0.116696 -0.0817187
0002d0 88 da 9a bc d9 5f e4 bd 34 11 9c bc 42 62 8f 3d
       -0.018903032 -0.11151094 -0.019051172 0.07001163
0002e0 d6 74 f0 3d e6 41 b2 3d de 95 fc 3d 95 fa 8d bd
       0.11741035 0.087039754 0.123332724 -0.0693256
0002f0 30 21 73 bd 30 55 98 bd c8 f7 19 3d 0c 4c 30 3d
       -0.059357822 -0.07438123 0.03758982 0.043041274
000300 d0 bc b7 bc 88 75 87 3d 41 18 a3 bd 3c b1 cd bd
       -0.0224289 0.06614214 -0.079636104 -0.100435704
000310 64 ea 5f bd 6d 55 10 be 68 f4 ac bd ec 8a 4a 3d
       -0.05466689 -0.14095087 -0.08445054 0.049448892
000320 30 ab c4 bd 10 fd 6b bc 44 14 49 bd c0 78 46 bc
       -0.09602964 -0.0144035965 -0.049091592 -0.01211375
000330 02 ce 84 3d 7e df ca 3d 50 71 39 3c c9 f1 08 3e
       0.06484605 0.09905909 0.01131852 0.13373484
000340 80 e2 bb bd 62 af e4 3d f8 a9 d9 3d 97 10 07 3e
       -0.09174061 0.11166264 0.10628122 0.13189922
000350 5c 03 4b bd 86 bf 02 bd 70 25 fd bd b4 4a 04 be
       -0.04956375 -0.031920932 -0.12360656 -0.12919122
000360 78 1d c4 bc b4 a7 c8 bd 7b 43 05 be 89 a8 0e 3e
       -0.023939833 -0.09797612 -0.13014023 0.13931479
000370 dc e9 9c 3d 3f 0e 0d be 78 a5 40 bd c0 d9 b6 3c
       0.07661793 -0.13774966 -0.047032803 0.022320628
000380 00 34 cc 3a 78 24 15 3d 12 aa f5 3d 2b 84 97 bd
       0.0015579462 0.036411732 0.11995329 -0.07398256
000390 98 ae 43 3d db b3 d4 bd 90 4e 9f bc a0 10 c2 3c
       0.047773927 -0.10385867 -0.019446641 0.023689568
0003a0 25 08 07 3e 42 a5 01 be 92 e5 36 bd 66 4b f4 3d
       0.131867 -0.12660697 -0.04465253 0.119284436
0003b0 d6 9c bb 3d 30 7d 22 3c dc 55 c5 3d 28 77 e7 3c
       0.091607735 0.009917542 0.09635517 0.02825506
0003c0 10 d8 c7 bc 6a 69 e9 bd 47 60 b1 bd 39 94 01 3e
       -0.024395019 -0.11397059 -0.086609416 0.12654199
0003d0 48 78 a8 bc 82 e7 eb bd 7e 60 a0 3d 5e 26 af bd
       -0.020565167 -0.11518766 0.078309044 -0.0855224
0003e0 64 34 43 bd c0 48 ae bc 28 84 dc bd a8 79 2e bd
       -0.047657385 -0.021274924 -0.10767394 -0.04259649
0003f0 00 a0 c0 3c c8 8b 6a bd b8 eb 8b 3d ec ed b3 3d
       0.023513794 -0.057262212 0.06832069 0.08785614

fc2.bias f4 [10]
000000 d8 70 f0 bd 54 c8 79 3d 28 75 ba bd 78 88 97 3d
       -0.11740273 0.060982063 -0.09104377 0.07399076
000010 0c 43 81 3d b2 69 8a 3d 1a 77 64 bd 36 09 af 3d
       0.06311616 0.06758441 -0.055777647 0.08546679
000020 60 b5 33 3c 33 c0 f9 bd
       0.010968536 -0.12194862

localization.0.weight f4 [6, 3, 5, 5]
000000 e0 1a c5 3d 1c ca d6 bc f6 92 c5 3d 00 25 be 3d
       0.096242666 -0.02621942 0.09647171 0.09284401
000010 08 31 74 bd b4 82 af 3d 00 39 64 ba 00 68 44 bc
       -0.059617072 0.085698515 -0.00087060034 -0.011987686
000020 43 0b a6 bd 6e 28 d8 3d 92 47 b7 3d 40 08 01 3b
       -0.08107617 0.10554586 0.08949198 0.0019688755
000030 3a 9b 8b 3d 08 02 39 3d 10 c6 59 3d 78 88 9c 3c
       0.068167165 0.045167953 0.053167403 0.019108042
000040 ae d7 8a 3d 54 fa e8 bc 10 07 7c 3c 50 f0 49 3d
       0.06779419 -0.028439678 0.015382543 0.049301445
000050 7e 5f 08 bd 8c bd ef bc 50 3f 9a 3d a8 3b 97 bd
       -0.033294193 -0.029265188 0.07531607 -0.073844254
000060 65 1c 73 bd 9a f9 86 3d 34 92 01 bd d8 be ac 3c
       -0.05935325 0.065905765 -0.03163357 0.021087095
000070 58 f8 05 3c f2 a8 b2 bd 90 2d 85 bb 90 a7 ed bb
       0.008176886 -0.0872363 -0.0040642694 -0.007252641
000080 90 87 6a 3c 00 24 1c 39 b0 41 01 3c 38 a6 ba 3c
       0.014314547 0.0001489073 0.007889196 0.022784337
000090 40 c1 09 bb af 47 b9 bd 8e 63 90 3d f8 3d c3 3c
       -0.0021019727 -0.09046876 0.070502385 0.02383326
0000a0 ba 89 aa bd 80 00 83 3c 70 e6 87 3c b8 4b 3d bd
       -0.083270505 0.01599145 0.016589373 -0.04621479
0000b0 94 b0 ac 3d a4 1d 07 3d 26 e1 c2 3d c8 3d 8a bc
       0.08432117 0.032987252 0.095156 -0.016875163
0000c0 c0 c8 c6 3c 8f 63 67 bd f6 da 9b bd 9c 2e 51 bd
       0.024265647 -0.05649143 -0.07610123 -0.05106984
0000d0 18 5b a0 3d 48 8d 95 3c 10 5e 25 3d 7c ec dd 3d
       0.07829875 0.018255845 0.040372908 0.108361214
0000e0 36 b1 cd 3d b8 56 ea 3c 8e 12 da 3d b8 5e 00 bd
       0.10043566 0.028605804 0.1064807 -0.03134033
0000f0 f8 cc b5 3d b5 41 80 bd ae da d3 bd 48 7e 07 bc
       0.08876985 -0.062625326 -0.10344444 -0.008269854
000100 76 47 97 3d 20 05 0c bb 14 9e 06 bd 88 68 c4 3d
       0.07386677 -0.002136536 -0.0328656 0.0959025
000110 42 fe a1 3d ba b7 97 3d 08 b6 9c 3d f2 80 bd bd
       0.07909824 0.0740809 0.07651907 -0.0925311
000120 40 28 e0 3b f0 e7 8b bd f2 58 0b bd 30 33 db 3b
       0.0068407357 -0.06831348 -0.03402037 0.0066894516
000130 de 7f 92 3d 22 df d4 bd c6 cc 8f 3d c0 c4 17 3d
       0.07153295 -0.10394122 0.07021479 0.03705287
000140 38 3e 96 3d a0 9a be 3d 91 74 96 bd c0 de be 3c
       0.07336086 0.09306836 -0.07346452 0.023299575
000150 fc 58 df 3d 30 f4 b6 3c 80 5c ae bc c4 74 8f bc
       0.10905644 0.022333235 -0.021284342 -0.017511733
000160 18 37 08 bc 16 cc 93 bd 0c 2a 26 3d 40 7f 8e ba
       -0.008313917 -0.07216661 0.040567443 -0.0010871664
000170 6c fb e3 3d a2 48 4b bd 00 fa 45 3d 80 23 a0 bc
       0.11131939 -0.049629815 0.04833412 -0.019548178
000180 dc d5 05 3d 30 09 09 bc d8 5d 66 3d 10 e8 af 3b
       0.032674655 -0.008364007 0.05624184 0.00536824
000190 64 f1 b4 bd ee 95 94 3d 93 62 a5 bd 8b 20 db bd
       -0.08835104 0.07255159 -0.08075442 -0.106995665
0001a0 68 fe f2 3c 08 ee bf bc 64 5e 3c 3d 98 06 81 3d
       0.029662326 -0.023428932 0.045988455 0.06300086
0001b0 6e f0 e0 bd f0 72 b9 3d 20 e4 2c 3b d2 30 d3 3d
       -0.10983358 0.09055126 0.002638109 0.10312046
0001c0 73 61 c0 bd 00 11 08 ba 8f 65 a6 bd 88 d9 1e 3d
       -0.09393587 -0.00051905215 -0.081248395 0.038781673
0001d0 78 92 2c 3d 54 24 90 3d fa fb e3 3d 9c cd aa bd
       0.04213187 0.07038179 0.11132045 -0.08339998
0001e0 22 30 d6 3d c9 76 c2 bd ae ce a5 3d 9e cd 9e 3d
       0.10458399 -0.09495313 0.08096062 0.07754062
0001f0 20 5b 14 3d 68 2e 4a 3d 25 1f d5 bd ae 43 20 bd
       0.036219716 0.049360663 -0.10406331 -0.039127044
000200 68 e4 15 3d 62 10 d8 3d 36 46 45 bd 60 d0 97 3c
       0.03659478 0.1055 -0.04816266 0.018531978
000210 52 73 4d bd 02 01 80 3d 1c b0 da 3d 6c f0 54 3d
       -0.050158806 0.06250192 0.106781214 0.051987097
000220 80 c1 00 3a 06 92 a6 bd ec a6 b2 3d 48 05 a1 3c
       0.0004911646 -0.081333205 0.08723244 0.019655839
000230 32 6c c0 3d 44 d6 53 3d 08 8a 4d bd 80 93 5f 3d
       0.093956366 0.05171801 -0.050180465 0.054584026
000240 7c 34 e1 3d ff af a8 bd 00 3b ff ba 56 fc ea 3d
       0.10996339 -0.082366936 -0.001947254 0.114739105
000250 20 d9 9a bb 24 4b b7 bd 68 26 af bd 48 aa dc bc
       -0.0047255903 -0.08949879 -0.08552247 -0.026936665
000260 ce c0 d7 bd 8d aa cc bd 50 7d 17 bc 38 77 f9 3c
       -0.105348215 -0.099934675 -0.009246185 0.030452356
000270 20 be 85 bb 20 e6 d2 bd ae dc 92 bd 54 93 b2 3d
       -0.0040815026 -0.10297799 -0.071709976 0.08719507
000280 c6 8d de 3d 64 96 dd bc c4 ea 38 bd 4c d7 bb 3d
       0.10866885 -0.02704925 -0.045145765 0.09171924
000290 b0 7c d4 3d 4c 05 e2 3d 88 c6 e0 bd 40 df 69 3d
       0.10375345 0.110361665 -0.10975367 0.057097673
0002a0 c4 e3 a4 bd 30 8a 7e 3c d0 95 9b bd ba 2c 83 bd
       -0.08051255 0.015535876 -0.07596934 -0.06405015
0002b0 5c 2c a8 bd dc 85 22 3d f0 48 01 bc 0d 12 ae bd
       -0.08211586 0.03967844 -0.007890925 -0.08499537
0002c0 0c a3 41 3d 98 97 af 3d 3f d6 59 bd 58 23 95 bd
       0.047274634 0.08573836 -0.053182837 -0.07282132
0002d0 00 b6 32 ba 7a 3e 77 bd 80 bb fe bb 7e 7e 98 3d
       -0.0006817281 -0.060362317 -0.0077738166 0.074460015
0002e0 e0 4d 12 bb bf b2 87 bd 96 1d b7 3d 10 2d 5b 3c
       -0.002232425 -0.0662589 0.0894119 0.013377443
0002f0 3e d9 7a bd 88 e4 b8 bd 0c 9e 83 bd f0 8b 10 bd
       -0.061242335 -0.09027964 -0.064266294 -0.035289705
000300 08 cc c0 3c 00 f6 fe bb ca 23 68 bd 7c fe da bd
       0.02353479 -0.0077807903 -0.056674756 -0.1069307
000310 80 5b e8 bc 98 be 9f 3d f0 2e 84 bc 61 a5 61 bd
       -0.028363943 0.07800025 -0.016135663 -0.05508936
000320 80 f9 e2 3d c0 86 cc 3d 0e dd a9 bd 00 8f dd 3c
       0.110827446 0.09986639 -0.08294116 0.027045727
000330 9c bb b2 3d be 9d bf 3d 0f c7 e5 bd 36 84 b6 3d
       0.0872719 0.09356259 -0.11219608 0.08911936
000340 27 a7 ae bd a0 00 95 3d 00 d5 47 3c d0 8c 7f bc
       -0.085279755 0.0727551 0.012196779 -0.015597537
000350 e0 0a 42 bc e0 59 bf 3c b8 5f d6 3c 84 2f bd bc
       -0.011843413 0.023358285 0.02616869 -0.023093946
000360 64 cb 84 bc f0 2b 85 3c 37 fd 8d bd 4a 6e 2e bd
       -0.016210265 0.016256303 -0.069330625 -0.04258565
000370 20 07 aa 3d 28 5c bb bc b8 d8 b3 3c 00 c0 b1 3a
       0.0830214 -0.022871092 0.021953925 0.0013561249
000380 ed 58 7a bd 38 63 cd 3c 84 7b ab bc 64 8d 03 3d
       -0.061119962 0.025071725 -0.02093292 0.032117262
000390 9e 47 92 3d cb 20 9d bd 2c c2 2e 3d f2 77 28 bd
       0.07142566 -0.076722704 0.042665645 -0.041130014
0003a0 4c a5 43 bd c4 12 a3 3d 78 b1 58 3d 42 45 aa bd
       -0.04776506 0.07962564 0.052903622 -0.08313991
0003b0 e4 7c 31 3d 1a c9 d8 bd d0 c0 e8 3c 3c 23 72 3d
       0.043331996 -0.10585232 0.028412253 0.059115633
0003c0 3b 42 63 bd 04 14 88 bc 5c 3d c3 3d 40 4f e7 ba
       -0.055483084 -0.016611107 0.09533188 -0.001764752
0003d0 60 2a e7 bc ff 6d ad bd 30 17 c9 3d 90 59 81 3c
       -0.028218448 -0.08468246 0.09818876 0.015789777
0003e0 42 d8 30 bd 64 4b f5 bc 14 51 ab 3d 30 3f df 3c
       -0.04317499 -0.029943176 0.08365074 0.02725181
0003f0 ac ce 75 3d 66 73 ae bd 4c 1d 72 3d 30 f4 ac bb
       0.06001155 -0.08518104 0.05910997 -0.005278133

localization.0.bias f4 [6]
000000 d0 6e 23 3d 90 8a 48 bd 06 ae cc 3d 0a 42 86 3d
       0.0399006 -0.04896027 0.0999413 0.06555565
000010 84 81 99 3d f0 64 f4 3c
       0.07495406 0.029833287

localization.3.weight f4 [16, 6, 5, 5]
000000 f8 ec 48 bc 28 75 23 bd 74 18 fd 3c 8b df 10 bd
       -0.012263529 -0.03990665 0.03089545 -0.035369437
000010 e4 6e c6 3c fb 18 1d bd 50 be 4e 3d 60 5d eb 3b
       0.024222799 -0.0383539 0.050474465 0.007182762
000020 48 64 00 bc 08 93 68 3d e0 e7 11 3c 95 0b 95 bd
       -0.007836409 0.056780845 0.008905381 -0.072776
000030 19 a8 9b bd 04 3f 98 bd b4 b4 76 3d 90 80 95 3c
       -0.076004215 -0.07433894 0.060230926 0.01824978
000040 34 30 9d 3d 4c 18 bf 3c 60 69 04 3d fc f6 29 3d
       0.0767521 0.023327015 0.032327056 0.04149531
000050 c0 70 a5 ba 54 d3 a2 3d 4c 43 94 3d 9e 0b 9a 3d
       -0.0012622103 0.07950464 0.07239398 0.07521747
000060 e4 62 94 3d 34 6d a4 3d b2 f3 93 bd 00 09 6f 3b
       0.072454244 0.08028641 -0.072242156 0.003647387
000070 b0 3c e8 bc 32 80 38 bd 75 0e 5b bd f6 f5 74 bd
       -0.02834925 -0.04504413 -0.053480584 -0.05980488
000080 d0 08 6a 3d 38 ff 35 bc 86 78 8a bd 64 af b1 3c
       0.05713731 -0.011108212 -0.06761269 0.021690078
000090 30 06 80 3b a4 28 63 3d 87 0b a4 bd 34 55 9e 3d
       0.0039069876 0.05545868 -0.08010011 0.07731095
0000a0 20 0d 9a bd c1 d0 87 bd 2a fb 9a 3d 80 db e3 3a
       -0.07522035 -0.066316135 0.07567437 0.0017384142
0000b0 58 84 e9 3c dc de a4 3d 76 4a 04 bd 80 dc eb 3b
       0.02850549 0.080503196 -0.032297574 0.0071979165
0000c0 b7 e3 5b bd f8 ce 5a 3c ad 9e 9d bd 0e 18 d3 bc
       -0.053683963 0.013355009 -0.07696281 -0.025768306
0000d0 9c 04 94 3d c8 70 eb 3c 5c 38 85 bd 8b a5 2c bd
       0.07227442 0.028740302 -0.0650489 -0.04215006
0000e0 2c 50 40 bd 24 e9 66 bd 3c f4 56 3d c2 e2 8f bd
       -0.046951458 -0.056374684 0.052479014 -0.070256725
0000f0 d0 bb 9a 3b 0a 8b 0d 3d f4 55 e1 bc e0 e0 68 bd
       0.004722096 0.034556426 -0.027506806 -0.056855083
000100 00 f0 31 3d 0c 93 0c bd ea 89 a5 3d df e5 a4 bd
       0.043441772 -0.034319922 0.08082946 -0.08051657
000110 e8 30 42 bd 58 b5 89 3c 1b b8 87 bd 20 4f 33 3b
       -0.047409922 0.016810104 -0.06626912 0.0027360395
000120 80 c1 bb bc 88 18 5b 3d ac b3 83 3d 8a b9 91 3d
       -0.022919416 0.05349019 0.06430754 0.07115467
000130 76 e7 9e 3d 15 04 1a bd 19 fd 3c bd a0 62 66 bd
       0.077589914 -0.03760155 -0.04613981 -0.0562464
000140 20 20 d9 3b cc 89 20 bd 94 66 18 3d c2 cb 06 bd
       0.006626144 -0.039193913 0.0372072 -0.032909162
000150 8c 00 4b 3d 42 12 04 bd 30 6d a3 3b 7e 63 9e bd
       0.04956107 -0.032243975 0.0049873814 -0.077338204
000160 20 22 20 3c c3 aa 0a bd 45 62 44 bd d0 53 a9 bb
       0.009773761 -0.033854257 -0.04794528 -0.005167462
000170 a4 ea 7a 3d 44 3c 2f 3d 5f b9 07 bd e3 ef 3f bd
       0.061258927 0.042782083 -0.033135768 -0.046859633
000180 3e d0 1d bd 00 e6 48 3d 4b 46 0f bd 5c 8d 8e bc
       -0.038528673 0.04904747 -0.034979146 -0.01740139
000190 36 84 a1 3d a7 2c 3f bd a4 b3 a4 bc 54 c7 8b bd
       0.07886545 -0.046673443 -0.02010519 -0.06825128
0001a0 90 88 a3 3b 58 18 5c bc a0 0b df bc 1a 06 9b 3d
       0.0049906448 -0.013433538 -0.027227223 0.07569523
0001b0 5c 22 6d bd ef 00 44 bd 68 74 10 bc a0 51 2c bb
       -0.057894096 -0.047852453 -0.008816816 -0.002629377
0001c0 54 cd f0 3c a8 fc 81 bd 50 47 1b 3d fb 1e 98 bd
       0.029394783 -0.063470185 0.037909806 -0.07427784
0001d0 c3 39 2a bd c2 2f 49 bd 2d ec 56 bd a7 e6 2d bd
       -0.041558992 -0.04911781 -0.05247133 -0.042456295
0001e0 0a cd 7b bd 60 0c 4c 3d 64 ea c8 3c 00 9d 0b bb
       -0.061474837 0.04981649 0.024525829 -0.0021303296
0001f0 80 99 00 bc fe b0 21 3d b8 d5 3e 3c 0c 06 cc bc
       -0.007849097 0.039475434 0.011647634 -0.024905227
000200 42 91 e3 bc 1d c1 a2 bd 0f 6e 14 bd 8d fc 80 bd
       -0.027779225 -0.0794699 -0.036237773 -0.0629817
000210 80 b0 bb 3c 88 56 ce bc 21 a2 75 bd 84 8a a8 3c
       0.02291131 -0.025187746 -0.05996907 0.020573862
000220 92 a4 a2 bd 78 d9 72 bc fc b4 d3 bc 1a 14 88 bd
       -0.079415455 -0.014822356 -0.025843136 -0.06644459
000230 e5 54 3a bd 04 a8 67 3d 88 05 c9 3c 1c fa 99 3c
       -0.045491118 0.056556717 0.02453877 0.01879602
000240 9a a9 19 bd db c1 6a bd 80 a1 96 ba 29 38 10 bd
       -0.03751526 -0.05731378 -0.0011492223 -0.03520981
000250 d0 f4 a2 3d 5c 80 71 3d 76 55 40 bd 22 d6 8d bd
       0.079568505 0.058960304 -0.046956502 -0.06925608
000260 28 bf 6e 3d fc cc 44 bd ae e6 1e 3d 08 5f 02 3c
       0.05828777 -0.04804705 0.038794212 0.0079572275
000270 98 f4 3a bc f2 14 a4 3d b0 21 4f 3d 20 7e 5d 3c
       -0.011410855 0.080118075 0.050569236 0.01351884
000280 10 a6 3f bc 0c 0c 24 3d d0 f3 a6 3b 2e 5d 04 bd
       -0.011697307 0.04005055 0.0050949827 -0.032315426
000290 8a d1 0c 3d bc 40 2e 3d 61 d4 82 bd 00 10 6d bd
       0.03437952 0.042542204 -0.06388164 -0.057876587
0002a0 24 b4 e1 bc 20 ad 02 3c b0 91 84 bd 90 1e a7 3c
       -0.027551718 0.0079758465 -0.064731 0.020400316
0002b0 e0 d4 ea 3b 7e e4 8a 3d f0 e0 94 bb 55 6d 20 bd
       0.00716649 0.06781863 -0.004543416 -0.039166767
0002c0 33 da 90 bd ea c9 8f bd 04 27 a0 3c a8 12 6a bc
       -0.07072868 -0.07020934 0.019549854 -0.014286675
0002d0 f0 a0 a5 bb e4 b4 96 3c d2 6a 91 bd 80 96 b0 ba
       -0.0050545856 0.018396802 -0.071004525 -0.0013472587
0002e0 24 7d 8a 3c 4e 9d d6 bc 88 68 f2 3c e2 29 1d 3d
       0.016905375 -0.026198056 0.02959086 0.03837002
0002f0 d4 73 1e bd 58 0a 22 bc 34 6f a3 3c f6 12 76 bd
       -0.03868468 -0.009890161 0.019950487 -0.060076676
000300 d8 51 a6 3c 60 51 21 bc ff 91 11 bd c0 86 16 3d
       0.020302698 -0.0098460615 -0.035539623 0.0367496
000310 3b f7 0b bd 90 0b 91 3d 60 42 c8 3c 97 27 89 bd
       -0.034171324 0.070822835 0.024445713 -0.06697004
000320 4e 73 a4 bd 0d eb 55 bd b1 fc 64 bd 9e 9c 2a bd
       -0.08029805 -0.052226115 -0.055905048 -0.041653268
000330 e3 5d 42 bd e0 fa 3f 3b c2 d9 a6 bd f5 3e 4a bd
       -0.04745282 0.002929382 -0.08147003 -0.049376447
000340 9c 66 84 bd 5e 86 0e bd a0 24 54 3c 60 53 80 3d
       -0.06464884 -0.03479611 0.012948185 0.062659025
000350 a0 44 7b 3b 8c c5 80 3c 48 63 c2 bc 1c ad 94 3c
       0.0038340464 0.015719198 -0.023728982 0.018148951
000360 b2 72 1f 3d 70 d3 e7 3b 1e 35 9d bd 00 35 7d bd
       0.03892774 0.007074766 -0.07676147 -0.061818123
000370 0a 8d 61 bd e2 98 86 3d f0 eb c3 bc a0 32 18 bb
       -0.055066146 0.06572129 -0.023916215 -0.0023223534
000380 ec 51 27 bd c0 76 82 bc 1c ff 61 3d 30 c8 61 3d
       -0.04084961 -0.015925765 0.055174932 0.055122554
000390 48 f0 79 3c 71 65 4c bd ca 5e 14 bd d0 c2 5c bd
       0.015255041 -0.04990143 -0.03622321 -0.053896725
0003a0 34 31 32 3d e0 b9 0a 3b 34 2c dd bc 04 6a 8e 3c
       0.043503955 0.002116792 -0.026998617 0.017384537
0003b0 e0 47 69 bb e8 40 6a 3c 70 b6 fa bb d4 23 a3 bd
       -0.003559582 0.014297701 -0.007651143 -0.07965818
0003c0 96 52 00 bd ac a1 6b 3d ee d6 a6 3d e6 c1 d1 bc
       -0.03132876 0.05752723 0.08146463 -0.025605153
0003d0 26 28 bd bc 88 d2 a6 3c 58 83 8c bc 9e 33 9f bd
       -0.023090433 0.020364061 -0.017152473 -0.07773517
0003e0 3e a0 94 3d 0c c1 f7 3c 70 0d 8b 3b 50 a6 4b 3d
       0.07257126 0.03024342 0.0042435452 0.049719155
0003f0 10 32 a5 bb 14 52 8c 3c 34 ea 91 3d 64 c5 a2 bd
       -0.0050413683 0.017128982 0.07124749 -0.079478055

localization.3.bias f4 [16]
000000 b0 54 f7 bb 35 05 7d bd 86 31 67 bd 60 e3 94 bb
       -0.0075479373 -0.061772544 -0.056443714 -0.004543707
000010 c6 37 86 3d 40 23 7b bb 80 bc 62 ba 65 30 22 bd
       0.06553607 -0.0038320571 -0.00086493045 -0.039596934
000020 77 00 76 bd 10 41 a7 3b d4 9c 75 3d 38 d4 24 3d
       -0.060059037 0.0051041916 0.059964016 0.04024145
000030 f8 98 98 bc 60 d8 62 3d 93 65 a0 bd a9 41 79 bd
       -0.018627629 0.055382133 -0.07831874 -0.060853634

colorization.0.weight f4 [6, 3, 5, 5]
000000 02 37 bb bd 89 54 bf bd 86 81 c4 bd 1c ec 50 bc
       -0.09141351 -0.09342296 -0.09595017 -0.012751605
000010 62 cb 55 3d e0 72 05 b8 16 3b 2f be 1d 19 10 3d
       0.052195914 -3.1816657e-05 -0.17112383 0.0351802
000020 1b fa 0f be 2a 63 2d 3d 20 7a 74 b9 e7 5d 25 be
       -0.14060251 0.0423309 -0.00023315148 -0.16149102
000030 10 54 b5 bd 1d 30 82 bc f3 4e bd 3c 14 5b a2 bd
       -0.08853924 -0.015892083 0.023108935 -0.07927528
000040 a1 86 ff bd 4b bd b2 bc a2 8e 09 bd ec 7f 66 3d
       -0.1247685 -0.021818778 -0.03358329 0.05627434
000050 90 16 58 bc f0 8a 35 be 77 5b 25 be bb db 14 be
       -0.013188973 -0.17728782 -0.16148172 -0.14536946
000060 58 5b 8f bd ad fd 03 3d c0 86 a5 bc 8f f2 af bd
       -0.06999844 0.032224346 -0.020205855 -0.08591186
000070 a6 8a 7a 3b 9c c5 a1 3b de fb e6 bd 3c 11 a1 bd
       0.0038229614 0.004936887 -0.112785086 -0.07864615
000080 5c fa 32 be 10 be 02 be d5 1e 16 bd 44 62 2b bd
       -0.17478317 -0.12767816 -0.036650497 -0.04184176
000090 db dd 7d bd ac aa 9f bc 00 bd 9a 3c e2 16 86 3c
       -0.061979156 -0.019490562 0.01888895 0.016368333
0000a0 b8 3e 82 bd c7 a1 f6 bd ce 37 12 be 09 68 c5 3c
       -0.06359619 -0.12042575 -0.142791 0.02409746
0000b0 20 40 d1 3c 33 49 95 bc 52 f5 fb bd 9e b8 19 bd
       0.025543272 -0.01822338 -0.123026505 -0.03752958
0000c0 ea eb 82 bc 4a cc bc bd 97 82 0c 3d b5 28 5b bd
       -0.015981633 -0.092186525 0.034304228 -0.053505618
0000d0 ca 2f 8d bd 3a c3 24 be 8e 21 7b bd 23 5a af bd
       -0.06893881 -0.16090098 -0.061311297 -0.08562114
0000e0 13 8e fc bd 58 f9 1b bd 28 fb c1 bd 8e 72 16 be
       -0.12331786 -0.03807959 -0.094717324 -0.14692137
0000f0 7c 4b 10 be 37 78 e6 bd 47 6f c0 bc 5c 64 5d bc
       -0.14091295 -0.11253398 -0.023490561 -0.013512697
000100 ee 00 d6 bd 30 d5 e7 bd 0a fe af 3c 22 0f df bd
       -0.10449396 -0.11319959 0.02148344 -0.10891558
000110 ae 95 a8 bd 36 d0 df bd 36 15 f9 bd 67 7b 19 bd
       -0.08231674 -0.10928385 -0.12162249 -0.0374712
000120 68 84 37 3d 95 bb 78 bd f2 f4 39 ba 4a 45 01 bd
       0.044804007 -0.060725767 -0.00070936896 -0.03156022
000130 22 a9 3d 3d 9e d7 b2 3b 92 f5 18 be 6c ca 8a 3d
       0.046303876 0.0054578325 -0.14937428 0.0677689
000140 0f 77 fa 3a 23 74 c0 bd 84 97 5d 3b 8e e6 3a 3d
       0.0019108969 -0.09397151 0.0033812234 0.04563003
000150 1a ba 1c bd 52 6c 21 3d 83 ad fa bc e0 2d cc bd
       -0.038263418 0.039409943 -0.030600315 -0.099696875
000160 10 c8 04 be c5 86 ef bd 0e d6 f0 bd 1b 33 90 3d
       -0.12966943 -0.11695627 -0.11759578 0.070409976
000170 59 fe 9a 3d ff a2 91 bd a0 7d 8e bb a5 88 03 be
       0.07568044 -0.07111167 -0.0043484718 -0.12845095
000180 44 8d 90 3d 66 d9 87 3d 5c 0e 16 bd ef 76 39 bd
       0.07058194 0.06633262 -0.036634788 -0.04527944
000190 9e 71 02 be 47 af a7 3b 1a 4b d3 bd 05 1e 15 be
       -0.12738654 0.0051173302 -0.10317059 -0.14562233
0001a0 a7 d3 e4 3c 46 de eb 3b c6 f3 58 3c 11 d1 0e be
       0.027932955 0.007198128 0.013241714 -0.1394694
0001b0 96 33 d6 bc d8 7a b7 bd f5 44 e1 bd af 64 ef bb
       -0.026147645 -0.089589775 -0.10999481 -0.0073057036
0001c0 73 68 e3 bc 71 52 84 bd 24 a7 86 bd 6a c7 ae bc
       -0.027759766 -0.06461037 -0.06574848 -0.021335322
0001d0 a5 dd bb bd 7b 10 4c 3d 70 fd 38 3d 69 1c 05 be
       -0.09173135 0.049820404 0.04516357 -0.12999119
0001e0 e0 a8 13 3d a3 05 d0 bd 20 c2 bb bd b9 70 73 bb
       0.036049724 -0.10157325 -0.09167886 -0.0037146045
0001f0 a8 46 a4 bd 5f 92 6e 3d 62 9a 25 bd 0d e5 a3 bd
       -0.08021289 0.05824506 -0.040430434 -0.08002672
000200 3e 9a 9b 3d 9c 23 e9 bc 3d 02 16 be 3d 50 cf bd
       0.07597779 -0.028459363 -0.14649291 -0.10122726
000210 4a c8 01 be 15 6b 53 3d b7 ea 08 bc c9 80 17 bc
       -0.1267406 0.051615793 -0.008356742 -0.009247013
000220 0d 43 c3 bc ff 78 bf bd 30 1b 97 bd 18 ee d2 bd
       -0.023835683 -0.0934925 -0.073782325 -0.10299319
000230 d7 c8 8e bd ea 69 7d 3c 43 51 30 3d c2 91 d8 ba
       -0.06971901 0.015467146 0.043046247 -0.0016522931
000240 24 39 8d 3d d6 04 cf bd 3d 0f 62 bd 3f 8e f7 bd
       0.06895664 -0.10108344 -0.055190314 -0.12087678
000250 6a 52 78 3d d6 74 d9 3c 91 cc ad bd 82 8e 8c bd
       0.06062547 0.02654497 -0.084862836 -0.06863119
000260 28 c3 b9 3c 3a 18 35 bc 35 07 c6 bd f4 80 95 bd
       0.022676066 -0.011053139 -0.096693434 -0.072999865
000270 14 13 0f be fd 02 c2 bd b0 df f3 bd 22 15 ea bd
       -0.13972121 -0.09473226 -0.119078994 -0.11429812
000280 70 f7 8b bd bc 40 10 3d ea ab 0f 3d ad 43 9e 3d
       -0.06834304 0.035217986 0.03507606 0.07727752
000290 7f 3e a0 bd 31 15 76 3d fa 6c 7d bd ef 29 03 bd
       -0.0782442 0.060078803 -0.061871506 -0.032022413
0002a0 c9 16 d1 bc 6f e8 89 3d 9b a5 47 bd 36 0e dd bc
       -0.02552356 0.06733786 -0.048741918 -0.026984315
0002b0 ac 30 f2 bd d3 ab 11 bd e1 ec f3 bd ca 89 31 3d
       -0.1182569 -0.035564255 -0.119104154 0.043344297
0002c0 69 47 47 bd d5 84 ee bd bc db 7a 3c 2d b4 0f be
       -0.048652086 -0.116464294 0.015311178 -0.14033575
0002d0 31 05 cc bc 7d 87 83 3d da 00 bf bd d2 81 f1 3b
       -0.02490482 0.06422327 -0.09326334 0.007370212
0002e0 7b e6 17 bc 28 de 04 be 33 7b ca 3a 48 56 1c bd
       -0.009271259 -0.12975371 0.0015448093 -0.03816822
0002f0 7d 6a ea bd 91 9d b8 bd 4f dd 01 3d 30 aa 33 bd
       -0.11446092 -0.090144284 0.031705197 -0.043863475
000300 a4 30 e9 bb ea 33 17 be 5a 8e 0d 3d 5f 20 ec bc
       -0.007116394 -0.14765897 0.034559585 -0.02882403
000310 2d 82 0a bc 4a ae c0 3c f6 7f 8e 3c 0f 51 92 3d
       -0.008453888 0.023520608 0.017395 0.07144367
000320 56 8c a2 bd 15 d8 ba bd 4c 5c 91 3d 0e e6 ce bd
       -0.07936923 -0.091232456 0.07097682 -0.10102473
000330 af f8 69 bd 0a d4 8c bd fe ba f9 bd 9f f5 b9 bd
       -0.05712193 -0.06876381 -0.12193869 -0.09080052
000340 4b 5b 69 bd ce 71 2d 3d 1c dc 99 3b 12 45 5e bd
       -0.05697183 0.04234486 0.0046954285 -0.05426509
000350 24 be 8b bd ab c4 c0 bd fd e2 99 3d 33 4d 70 3d
       -0.06823376 -0.094125114 0.07513998 0.058667373
000360 9e cc f2 3c 77 ba 34 bd dd 4a 19 bd 29 60 e0 bd
       0.029638585 -0.04412314 -0.03742491 -0.10955841
000370 c7 cb e4 bd 7b a1 5c 3d 3f 57 05 be 3f 76 91 3b
       -0.1117168 0.053864937 -0.13021563 0.004439145
000380 43 59 18 be e6 ee d2 3c da 35 dd bd 8c 64 7c bc
       -0.148778 0.025748681 -0.10801287 -0.015404832
000390 93 47 c4 bd 1c c7 64 bd ef 6a 8b 3d cb 19 7e 3d
       -0.09583964 -0.055853948 0.06807505 0.062036317
0003a0 8e 77 7a 3d 2b f0 0c 3d e7 a5 d9 bd ee f5 44 bc
       0.061149172 0.03440873 -0.106273465 -0.012021525
0003b0 c8 88 79 3d d8 ca e2 bc 77 70 9e 3d 88 26 2e bc
       0.06092146 -0.027684614 0.07736295 -0.010629304
0003c0 99 1c 33 bc df c2 97 bd cd d7 a3 bd 8d fa a3 bd
       -0.010932111 -0.074102156 -0.08000145 -0.08006773
0003d0 54 32 05 3d 7c f2 43 3d 9c e5 89 3d 5e 4c ba bd
       0.0325187 0.047838673 0.06733248 -0.09096597
0003e0 80 7c 87 3d 12 83 a5 bd 78 9e a0 3b 6b fd 5d 3c
       0.06615543 -0.0808164 0.0049017034 0.013549189
0003f0 b4 86 03 be b7 b9 87 3d 06 be f2 bc 0d 12 0d be
       -0.12844354 0.06627219 -0.029631626 -0.13776417

colorization.0.bias f4 [6]
000000 11 0b a0 3c 54 63 00 be db fb f6 3c eb 47 ea bd
       0.019536527 -0.1253789 0.03014939 -0.114394985
000010 29 2e 01 be f2 1f ff bd
       -0.12615265 -0.12457265

colorization.3.weight f4 [16, 6, 5, 5]
000000 6f 68 06 bc 2d 6d 83 bd 64 0f 45 bd 30 75 d3 bd
       -0.00820361 -0.06417308 -0.04811038 -0.10325086
000010 24 ca 77 bb 19 47 a0 bd 1d 72 80 bd ff 2f 97 3b
       -0.0037809694 -0.07826061 -0.062717654 0.004613876
000020 6d a1 9b bc a0 d5 7c bd 4d d6 16 bd 69 fa d7 bd
       -0.018997872 -0.061727166 -0.036825467 -0.10545809
000030 0b 46 12 3d 8f 8a a9 bd 1a 6b 9b 3c 76 60 3c bc
       0.03571133 -0.08278381 0.018971968 -0.011497607
000040 3e cf b5 3c 8d 1e bc bd 1d 11 69 bc 73 cf a8 3c
       0.022193547 -0.091855146 -0.0142252715 0.020606732
000050 d6 10 56 bd 22 c9 9a bd 40 9f 8e b9 c1 21 38 3d
       -0.05226215 -0.07557894 -0.00027203 0.044954065
000060 f6 12 12 3b 07 2f 87 bd 67 76 0c bd 26 ea 8d bc
       0.0022289134 -0.06600767 -0.034292605 -0.017323565
000070 96 bd 01 3d ac 74 bd bd 34 8e 56 3c 2f 20 e0 bd
       0.031674944 -0.09250769 0.013095427 -0.109436385
000080 4e 6d 75 bd 32 51 cb bc f2 b6 b3 bd 24 40 b2 bc
       -0.059918694 -0.02481899 -0.087751284 -0.0217591
000090 28 4d 8b 3c 79 aa cf bd da 96 14 3d dc 98 dd bc
       0.017004564 -0.10139937 0.036276676 -0.027050428
0000a0 a6 da df bd 60 09 58 38 87 d0 b4 bd 0e d9 ff 3a
       -0.10930376 5.1507144e-05 -0.08828836 0.0019519643
0000b0 bf 53 a0 bd 8f f4 16 3d d1 45 72 bd f0 43 30 bd
       -0.07828473 0.036854323 -0.059148613 -0.04303354
0000c0 1f 1b 2e bd 44 01 52 bd 1a 0e eb bd 2b 12 06 bd
       -0.042506333 -0.05127074 -0.11477299 -0.03273217
0000d0 90 4d 03 bc 3f c6 95 bd 44 ae ff 3b cf a1 d0 3a
       -0.008014098 -0.07313203 0.0078027565 0.0015917363
0000e0 1a 41 d8 bd 93 64 26 3c b2 f9 ba 3c e3 86 c4 3b
       -0.10559292 0.010155815 0.022824142 0.005997525
0000f0 2f 62 9c bc a9 e9 bb 3c da 7d b4 3c 71 f6 83 3c
       -0.019089786 0.022938566 0.022032667 0.016108723
000100 a4 1e 0c 3c aa bf eb bd 5c 45 37 ba f9 77 6a 3c
       0.008552227 -0.115111664 -0.00069912313 0.01431083
000110 55 70 b5 bd 03 9f 03 3d 1f 43 e3 bd c7 52 1f bd
       -0.08859316 0.032134067 -0.11096787 -0.038897302
000120 2f 98 ac 3c 15 81 b8 3a 25 5c 5d bd a4 98 bb 3c
       0.02106866 0.0014076555 -0.054042954 0.022899933
000130 0d 80 94 bd 24 96 2e bd 84 6c 69 bd b4 81 17 3d
       -0.07250986 -0.042623654 -0.056988254 0.03698893
000140 20 3a 8b bc 12 34 c0 3c a7 da 74 bc 1b fd d5 bd
       -0.01699549 0.023462329 -0.014944709 -0.10448667
000150 4e 51 18 3d 28 92 92 bd 7f 74 8e 3c bc 71 d4 bd
       0.037186913 -0.07156783 0.017389534 -0.103732556
000160 9e c3 91 bd ae 13 b8 bd 0b fc b4 bd f2 ef 1d bd
       -0.07117389 -0.089881286 -0.08837136 -0.038558908
000170 d8 60 c5 bd 29 09 0f 3d 84 bb e4 bd f3 07 bf bc
       -0.09637612 0.034920845 -0.11168578 -0.02331922
000180 ad ab 8e bd 30 e7 83 bd d4 f2 98 bc 98 9c c9 bd
       -0.06966338 -0.0644058 -0.018670477 -0.09844321
000190 b1 d8 c6 bd 88 0f 19 3d c4 7e ea 3c 62 49 c2 bd
       -0.09709299 0.037368327 0.0286249 -0.09486653
0001a0 e6 8c f9 bc 43 d4 6f bd 92 5b 53 bd 8e b6 61 3c
       -0.030462693 -0.058552038 -0.051601 0.013776435
0001b0 d0 81 8d bd 11 5f 07 be 22 28 07 bd b7 77 e3 3c
       -0.069095254 -0.13219859 -0.032997258 0.027767045
0001c0 24 11 05 be fa ec 5d bd 5c ea ef bc 4e 57 3c bc
       -0.1299482 -0.054181077 -0.029286556 -0.011495424
0001d0 78 ec 16 3c 3b a9 ea bd 28 ba 87 bd 99 ea 4b 3b
       0.009211652 -0.114580594 -0.06627303 0.0031115173
0001e0 bf d6 01 3d c5 f0 fd bc a7 b0 0b 3d 1e 30 21 bb
       0.03169894 -0.030998597 0.034104016 -0.002459533
0001f0 2a cd a0 bc 2e 02 57 3c a7 c2 d9 bc 26 4a bb bd
       -0.01962908 0.013123078 -0.026582075 -0.09145002
000200 cb ae 93 3c 80 ac 57 bc 43 23 fc bc 6e ec e1 3b
       0.018027684 -0.013163686 -0.030778533 0.0068946397
000210 fd b8 19 bd 57 3a f2 bd 22 eb f8 bd a6 82 75 bc
       -0.037529934 -0.11827534 -0.12154223 -0.014984762
000220 1c 87 51 bd ce 66 bf bd 40 30 9e bd c5 ab 34 3d
       -0.05115424 -0.0934578 -0.07724047 0.044109125
000230 78 0a a4 bd 2d d5 97 3c 7d ca 61 bb 73 08 be bc
       -0.08009809 0.018534267 -0.0034452968 -0.023197388
000240 b0 88 01 be 88 0e 1e 3d 48 4b 4b bd be d0 2c 3d
       -0.12649798 0.038588077 -0.04963234 0.04219126
000250 d4 96 18 bd 02 19 db bd 74 df af bd 34 aa b3 bd
       -0.037253216 -0.10698129 -0.08587542 -0.08772698
000260 65 3b bc 3c 6b ec be bd fb 4c 06 bd 9a a9 93 bc
       0.02297754 -0.09322437 -0.032788258 -0.018025208
000270 47 cd 3a bd aa c1 95 bb 2a a6 d1 3c a1 b0 a5 bd
       -0.045605924 -0.0045702057 0.025591929 -0.0809033
000280 46 33 c6 bb 3e 60 ab bd 9c 3c 23 3d f7 89 9b bd
       -0.0060485927 -0.08367966 0.039852723 -0.07594674
000290 e0 ab b6 3c 94 f6 c6 bd e4 5a 82 bd e0 97 6b 3d
       0.022298753 -0.09715 -0.06364992 0.057517886
0002a0 0f 41 c1 bd 61 96 28 bc 05 ae 99 bd ef ca c3 bd
       -0.09436237 -0.010289759 -0.07503895 -0.09560191
0002b0 4b 02 4a bd 00 2b 30 bd 42 02 f0 3c 7e 2b 80 bd
       -0.049318593 -0.043009758 0.029297952 -0.062582955
0002c0 39 3e 11 bd 10 59 9f 3c 81 81 16 bd f3 d8 7e 3c
       -0.03545973 0.019451648 -0.0367446 0.015554654
0002d0 ec 7b 3d bd 42 24 6a bd 3d 79 a3 bd 89 73 5a bd
       -0.04626076 -0.057163484 -0.07982109 -0.05333284
0002e0 c5 b7 6e bc 54 1e a9 3c 05 ed 79 3c a8 ae f4 bd
       -0.014570181 0.020644344 0.015254264 -0.119473755
0002f0 02 19 25 3c b2 3d e1 bc 58 92 4b bb 56 30 bd bd
       0.010076763 -0.027495239 -0.003106257 -0.09237735
000300 ca 9f 4a bd 66 d0 c4 bb 04 a7 80 bd c3 c0 b5 bd
       -0.049468793 -0.0060062883 -0.06281856 -0.08874657
000310 4f 7c d6 3c 14 3e 8c bd 7d 9d a0 3c 5d 8e 7d 3c
       0.026182322 -0.06847778 0.019606346 0.015475837
000320 b5 99 8b 3c c4 df 96 3b 8d 74 9f 3a ed f0 d0 bd
       0.017041067 0.0046043117 0.0012165472 -0.10202203
000330 c4 bb dd bd 62 fd 9a bd b1 d0 67 bd 00 10 30 3c
       -0.10826829 -0.0756786 -0.056595508 0.010746002
000340 e0 42 71 38 a2 73 98 bd b3 05 8a ba e8 bb 7f bd
       5.752116e-05 -0.0744393 -0.0010530263 -0.06243506
000350 e3 43 40 3c 70 33 0a 3d 54 42 b3 bd 4a a1 09 bd
       0.011734935 0.03374046 -0.087528855 -0.033601083
000360 bb 7e ea bd a3 74 11 bd 5f 5d 93 bc 85 64 6c bc
       -0.11449953 -0.035511624 -0.017988859 -0.014428263
000370 aa ac dd bc 0d 31 59 3c 06 e2 eb bd 45 47 99 bd
       -0.027059872 0.0132563235 -0.1151772 -0.07484297
000380 7a 68 cf bd bd 8b 7e bd ac fd 9c bd 42 32 b7 bd
       -0.10127349 -0.062144984 -0.076655716 -0.08945133
000390 84 3f fd 3c fd b8 a8 bc 54 88 37 ba 71 54 e2 bd
       0.030914076 -0.020596022 -0.00070012105 -0.11051262
0003a0 ae 6f 2e 3b bd 4a 22 bd 50 7c 09 bd b8 aa c2 bd
       0.002661686 -0.039622057 -0.03356582 -0.09505218
0003b0 33 22 ae bc 08 6c 2a bd 48 88 2f 3b 47 e4 e0 bc
       -0.021256542 -0.041606933 0.002678411 -0.027452601
0003c0 72 1c 24 3d 34 ea ed bd 13 8f 52 bd 69 ac 9d bd
       0.04006619 -0.11616936 -0.051405977 -0.076989
0003d0 13 97 e7 bd f2 98 89 3b 7b d5 14 3d be d9 b0 3c
       -0.11308112 0.0041991407 0.036336403 0.021588203
0003e0 88 df 22 3d bf 76 c4 3c 9c b0 fd bc 0e db d4 3c
       0.039763957 0.023982404 -0.030968003 0.02598336
0003f0 eb fb b9 bd 16 46 60 bd 07 77 74 bc d3 92 05 3c
       -0.09081253 -0.05475434 -0.014920956 0.008152681

colorization.3.bias f4 [16]
000000 47 00 5e 3d e8 54 aa bd 74 a2 27 bd 54 f6 4f bd
       0.054199483 -0.08316976 -0.04092641 -0.050772026
000010 22 e1 b6 bd 16 4e e3 3c e1 bc 93 bd 2a 25 3b bc
       -0.089296594 0.027747195 -0.0721376 -0.011422435
000020 d0 56 32 bd 06 31 c1 bc 48 8e 72 3d cc df 05 3d
       -0.043539822 -0.023582947 0.05921772 0.032684132
000030 3c bc 1d bd ac 4e 96 bd b4 b9 33 3d a5 ba e1 bd
       -0.038509592 -0.07339224 0.043878272 -0.11021928
