temp_transformer.pt (torch_old, 201089 bytes, 18 tensors)

fc1.weight f4 [50, 320]
000000 46 ae 40 3d 23 81 26 bd 2c 43 3e bd 9e 0f 05 3d
       0.0470412 -0.040650498 -0.04645078 0.032485597
000010 c7 f7 33 bd 62 0f 49 3d ae d0 20 bd 83 d7 45 bd
       -0.04393747 0.049086936 -0.039261512 -0.04830123
000020 ce 44 22 3d 6c 24 5f bd bc 1d 08 bc 54 10 8b bc
       0.0396164 -0.054478094 -0.0083078705 -0.01697556
000030 90 1b 28 3b 74 c5 1b bc 88 fc 4d 3d 02 ce 60 3d
       0.0025651194 -0.009507526 0.05028966 0.054883964
000040 e0 b8 4f bd 27 c4 f8 bc ec d9 9e 3c 99 8d 05 bd
       -0.05071342 -0.03036697 0.019391023 -0.03260574
000050 81 94 4b bd 42 07 ba bc 10 ee d1 3c 7b 75 2e bd
       -0.04970217 -0.022708539 0.025626212 -0.042592507
000060 d0 d0 0b 3c 58 a4 51 bc 80 f4 43 3c 73 02 f6 bc
       0.0085336715 -0.01279553 0.011960149 -0.030030465
000070 d6 86 09 3d 24 1b 43 bd 30 a9 ef 3b 5c 73 38 3d
       0.033575855 -0.047633305 0.00731387 0.04503189
000080 18 c1 3f 3d 52 aa 5b bd 14 fa 43 3d 8a 7d b7 bc
       0.046815008 -0.053629227 0.047845915 -0.022398729
000090 e4 a3 2a 3d df 72 28 bd 8a cb 51 3d 66 cb 00 3d
       0.041660205 -0.041125175 0.0512195 0.031443976
0000a0 00 42 8f 3c 28 c0 84 3c b8 6d 12 3c 5c de c2 3c
       0.017487526 0.016204908 0.008937292 0.02378767
0000b0 48 47 45 3d 48 a7 97 3c 1f dd df bc ce 49 2e 3d
       0.048163682 0.018512383 -0.027327118 0.042550854
0000c0 20 fb f1 ba 5c 9a 36 3d 18 d3 17 3c 30 19 39 bc
       -0.0018461682 0.044580802 0.009266637 -0.011297509
0000d0 64 37 1d bd d0 94 fe bc 5d d8 53 bd 64 46 52 3d
       -0.038382903 -0.031076819 -0.051720012 0.05133666
0000e0 22 e4 02 bd 0c 26 30 bd ca f8 91 bc 14 d0 38 3d
       -0.031955846 -0.043005034 -0.017818827 0.045120314
0000f0 58 bf 0b 3c 7a 8a c9 bc 50 34 1b 3d 78 16 3a 3c
       0.008529507 -0.024602164 0.037891686 0.011357896
000100 80 60 1f 3c 32 a5 3a bd 96 2f 24 bd a4 e7 bf 3c
       0.009727597 -0.0455677 -0.040084444 0.023425885
000110 90 37 93 3c 62 b8 12 3d 90 57 25 bc 6d 50 36 bd
       0.01797083 0.035820372 -0.010091677 -0.044510294
000120 2c 42 f4 bc 44 ef 02 3d 28 2b 5a 3c d0 e7 0e 3c
       -0.02981671 0.031966463 0.013315953 0.008722261
000130 a0 eb be bc 5d 5e 2c bd f0 4c 1f 3c d0 8f 46 bc
       -0.023305714 -0.04208218 0.009722933 -0.0121192485
000140 e0 25 da 3b 78 78 54 bc 30 46 0a bd de fb 01 3d
       0.006657347 -0.012968175 -0.033758342 0.03173434
000150 20 55 5f 3c ad ed 5f bd 4f ed d2 bc c1 fc 52 bd
       0.013631135 -0.054670025 -0.025747923 -0.051510576
000160 7e 60 17 bd 85 15 14 bd 28 bf 12 3d b0 12 2f bc
       -0.036957256 -0.036153335 0.035826832 -0.010685608
000170 78 8b 37 bd 90 cc 0b bd 58 9c 99 bb 78 ad 97 3c
       -0.044810742 -0.034130633 -0.004687827 0.018515334
000180 36 4b 1a 3d 80 af 22 3d f0 71 12 bd a4 61 38 3d
       0.037669383 0.03971815 -0.03575319 0.045014992
000190 65 12 d0 bc 5a e0 18 3d d6 df 52 3d 38 f0 fd 3c
       -0.025399396 0.037323333 0.051482998 0.030998334
0001a0 74 1a 5b 3d 28 fa 80 bb 64 95 15 bc 02 68 49 bd
       0.053492025 -0.003936071 -0.009129856 -0.049171455
0001b0 58 11 f8 3c f4 ee 0c bc ce 97 35 bd 78 85 4b 3c
       0.030281708 -0.008601893 -0.044334225 0.012421958
0001c0 e2 92 38 bd 2a ba b6 bc dd c4 45 bd 0e 70 ce bc
       -0.045061953 -0.022305567 -0.048283447 -0.025199916
0001d0 80 00 90 b9 e0 f3 18 bd 98 99 39 3d 70 3c 44 3c
       -0.00027466193 -0.037341952 0.045312494 0.0119773
0001e0 60 14 e4 3b 5a 74 b3 bc 20 4a 4a bb 40 25 53 bb
       0.0069604367 -0.021906067 -0.0030866936 -0.0032218248
0001f0 ee eb 43 3d f7 53 1d bd 04 83 f3 bc ee bd ba bc
       0.047832422 -0.038410153 -0.029725559 -0.022795644
000200 42 41 4b 3d d0 68 2e 3d 7e 63 41 3d 5e 77 d8 bc
       0.04962278 0.042580426 0.047214024 -0.026424106
000210 70 fd ae bc 9c 77 9a 3c 5e d8 97 bc 1e ac 8d bc
       -0.021361083 0.018855862 -0.01853579 -0.017293986
000220 4a 48 3d 3d d0 56 81 bb c4 ae 51 bd 98 e1 44 3d
       0.04621152 -0.0039471164 -0.05119206 0.048066705
000230 b2 bd 3a 3d bc 33 f7 3c d0 8e f1 3b c0 b8 1a ba
       0.045591064 0.030176036 0.007371761 -0.00059021637
000240 20 d9 97 3a 86 60 31 3d 64 e8 19 bd 44 ba bb 3c
       0.0011585094 0.043304943 -0.03757514 0.022915967
000250 f4 e2 73 bc cb 23 3c bd 58 72 9f bc 96 d8 5c 3d
       -0.014885653 -0.045932572 -0.019463703 0.05391749
000260 70 b9 07 bd f3 0a 20 bd 5c bc ae 3c 78 a0 f5 bb
       -0.03313583 -0.039072942 0.021330051 -0.007495936
000270 88 ff 0c 3d 1a 13 03 bd 60 97 ad ba c4 e2 45 3d
       0.03442338 -0.03200064 -0.0013243966 0.048311964
000280 00 8f 04 3b 8d a4 41 bd 54 af 16 3d 10 32 59 3b
       0.0020226836 -0.04727607 0.0367883 0.0033141412
000290 92 d8 da bc 73 d8 49 bd 80 9a 52 3d 00 0a 9c bc
       -0.026714597 -0.049278688 0.051416874 -0.019047737
0002a0 20 a7 0a bb c6 db 52 3d a4 0b 54 3d 00 0d eb 3c
       -0.0021156743 0.051479124 0.051768914 0.028692722
0002b0 4c 7e 8f 3c 4b d8 4b bd 00 5c 3c 3d 17 b0 46 bd
       0.017516278 -0.04976682 0.045986176 -0.048507776
0002c0 a0 4a d8 3c b5 73 60 bd b4 c7 0f 3d f5 13 d7 bc
       0.026402771 -0.054797847 0.03510256 -0.026254633
0002d0 24 fe 36 bd 18 d7 ea 3c b9 83 41 bd 90 bc fb 3b
       -0.04467596 0.028667018 -0.04724476 0.0076823905
0002e0 0a f4 5d 3d 80 0c 85 39 d0 4e aa 3c e4 b5 07 bd
       0.054187812 0.0002537705 0.020789534 -0.03313245
0002f0 d8 04 0e 3c b8 ff 41 bd c2 2e 52 3d 90 08 f8 3b
       0.008668147 -0.047363013 0.051314123 0.00756938
000300 50 ef c7 bb 28 69 1b bd b0 da 39 3b 5e 46 2e 3d
       -0.0061015263 -0.03794208 0.0028359108 0.042547576
000310 84 d7 84 bc 5b f3 d0 bc d7 a3 55 bd 3c 24 eb bc
       -0.016216047 -0.025506666 -0.052158203 -0.028703801
000320 d2 3c 2b bd 60 3e 6d bb d0 7c 4d bd a0 37 1b bb
       -0.04180605 -0.0036200508 -0.05016786 -0.0023684278
000330 e8 51 3c 3d 70 57 9c 3b 2c 45 92 3c c8 94 a8 bb
       0.04597655 0.0047711655 0.01785525 -0.005144689
000340 f2 38 62 3d a8 c7 ef 3c 98 2d 8c bc c0 1f 30 bb
       0.05523009 0.029270008 -0.017111585 -0.0026874393
000350 74 38 52 bc 60 16 fc 3b e0 1a 50 bc ec 42 52 bd
       -0.012830842 0.007693097 -0.01270172 -0.051333353
000360 9a 71 1c 3d 3c aa 51 3d 44 b3 40 bd 50 41 33 bd
       0.038194276 0.05118774 -0.04704596 -0.04376346
000370 4c eb ac bc a8 ba 1c bc 34 73 1a bd 94 2b 18 bc
       -0.021108292 -0.009565987 -0.037707523 -0.009287734
000380 28 3c ac 3c 6c 7f 8b 3c 3e 38 2b bd 30 f4 5d 3c
       0.021024778 0.017028533 -0.041801684 0.013546988
000390 c2 2c 2a 3d b6 6c 49 bd f4 f0 9f 3c 6a 54 2e 3d
       0.04154659 -0.04917594 0.019524075 0.042560972
0003a0 cf 55 2b bd 86 85 54 3d 30 e1 16 bd c8 6b 0e 3d
       -0.04182988 0.05188515 -0.03683585 0.034770757
0003b0 c2 72 aa bc 68 85 4f 3d 5c f4 42 bc c8 24 38 3d
       -0.020806674 0.050664335 -0.01189908 0.044956952
0003c0 a8 b2 50 3d 00 d0 62 39 18 48 2d bd 30 9d 15 bc
       0.05095163 0.00021630526 -0.042305082 -0.009131715
0003d0 30 f4 6b bc 70 0d e2 bb a6 b8 0d 3d ff 62 29 bd
       -0.014401481 -0.0068985745 0.034599923 -0.041354176
0003e0 50 12 ce bb e8 b4 8c bc e0 24 c2 3a c0 6a 3b 3d
       -0.006288804 -0.017176107 0.0014812015 0.0457561
0003f0 0b f7 ed bc b0 e0 5d 3c 2f c2 cc bc 96 ff 01 bd
       -0.029048463 0.013542339 -0.024994938 -0.031737886

fc1.bias f4 [50]
000000 b4 d2 57 bd 92 fe 56 bd 0a 5a 36 3d a4 32 7f bc
       -0.052691177 -0.05248887 0.04451946 -0.0155760385
000010 c8 df fa 3c cc 8c 87 bc 48 a8 c3 3c 5c e5 4b 3d
       0.030624285 -0.01654663 0.023883954 0.04977928
000020 40 0a 20 3c 22 16 4b 3d f8 a8 85 3c a0 ec 40 3c
       0.009768069 0.049581654 0.016315922 0.011775166
000030 98 3f 61 3d c2 56 0a 3d b6 f4 62 3d 04 ed d6 3c
       0.05499229 0.033774145 0.055409156 0.026236065
000040 60 b8 51 bd 54 1d 29 bd e4 28 5a bd ec 6b 20 bd
       -0.051201224 -0.041287735 -0.053261653 -0.039165422
000050 44 ee 8b 3c f8 93 30 3d 0a a9 1c bd 7e 35 48 3d
       0.017081387 0.043109864 -0.038247146 0.04887914
000060 90 c0 1c 3d 40 ac 06 3d 40 9a 1b 3d ac fa f1 bc
       0.03826958 0.032879114 0.0379889 -0.029538475
000070 25 0c d6 bc b0 45 d3 3b b0 d2 de 3c ca 66 10 bd
       -0.026128838 0.0064475164 0.027200073 -0.035254277
000080 e0 38 1b 3c 50 53 e9 bb b8 ca 19 3d 5a d3 4d 3d
       0.009474009 -0.0071205273 0.037546843 0.05025039
000090 00 52 f1 3c 48 f0 1f 3d 00 ee 7b 3b b0 59 28 3c
       0.029458046 0.03904751 0.003844142 0.010275289
0000a0 2b bd f2 bc 60 98 e9 3c 40 9e ac 3b cc 0c 35 bd
       -0.029631218 0.02851504 0.0052678883 -0.044201657
0000b0 c0 26 07 3d 14 96 8d 3c 3a 41 54 3d d1 db 3d bd
       0.03299594 0.017283477 0.051820017 -0.04635221
0000c0 38 c4 0f bc 80 d5 3e bd
       -0.00877481 -0.04659033

fc2.weight f4 [10, 50]
000000 00 b5 f7 3a 2c aa cd 3d c6 3e a5 3d e0 88 f0 3c
       0.0018898547 0.10042223 0.08068614 0.029362142
000010 b4 11 3b 3d dc 0e b6 3d cf 27 07 3e 02 e2 25 bd
       0.04567118 0.08889553 0.1319878 -0.04049874
000020 9c 2a a8 bc 83 b2 95 bd 58 0c 08 be bc 8e c7 bd
       -0.02052813 -0.07309439 -0.13285959 -0.09744021
000030 58 1f 0f bd 80 83 2c 3d 4e a2 b5 3d a0 49 9c bd
       -0.034942 0.042117596 0.08868848 -0.0763123
000040 d7 23 e4 bd 30 f4 61 bc 1e 22 5e bd 00 64 27 3b
       -0.111396484 -0.013791129 -0.054231755 0.0025541782
000050 c0 15 b5 bc 5c 2c 22 3d 53 08 bb bd 70 4c 75 3d
       -0.022105098 0.039593086 -0.09132447 0.05988735
000060 90 bc 51 3d c8 b1 18 3d 0c bf 24 3d 60 49 93 3b
       0.051205218 0.03727892 0.04022126 0.004494831
000070 92 c9 95 bd 8b 30 00 be c8 cc 09 bd 78 c5 64 bd
       -0.07313837 -0.12518518 -0.03364256 -0.055852383
000080 a7 4d 0d 3e 00 29 8f bc 0a 95 d7 bd a4 76 f6 bc
       0.13799153 -0.017475605 -0.10526474 -0.03008587
000090 1c 3d 44 3d b8 8f 6e bd 66 e4 be bd 80 5b 17 bb
       0.04790984 -0.05824253 -0.09320907 -0.002309531
0000a0 f0 8a 82 3c 80 60 17 3b 7c bb 7d bd 88 0b fb 3c
       0.015935391 0.002309829 -0.061946377 0.030645147
0000b0 fe 24 d4 3d c8 f6 4d 3d b0 8d c8 bc 12 09 c7 3d
       0.10358618 0.050284177 -0.024481624 0.09718527
0000c0 90 20 f4 3c 8e f4 ef 3d b0 77 d8 bd 1a fd 93 3d
       0.029800683 0.11716567 -0.105697036 0.0722601
0000d0 78 86 ab 3d 6c 1b d3 3d 57 1e 01 3e 08 15 21 3d
       0.08375257 0.10307965 0.1260923 0.039326698
0000e0 aa ba f0 3d 60 f6 e8 bc 53 b2 a2 bd ca b9 dd 3d
       0.11754353 -0.028437793 -0.07944169 0.10826452
0000f0 1b e8 07 3e 98 ca 74 3d 58 61 d0 3c d2 db e0 3d
       0.13272135 0.05976352 0.025437042 0.109794274
000100 da 56 c2 bd 20 f8 8c 3c 20 49 ae bc ea d8 d9 3d
       -0.09489222 0.017208159 -0.021275103 0.10637076
000110 da f3 d4 bd 2a 20 c3 3d ba 37 be 3d a0 43 fb 3c
       -0.103980735 0.09527619 0.09287973 0.030671895
000120 f8 16 c1 3c 79 76 db bd 89 f0 e8 bd 38 95 d5 bd
       0.023570523 -0.10715956 -0.113740034 -0.10428852
000130 f0 5a d1 bd ad 28 07 3e 14 c4 ae bd 90 c2 07 be
       -0.10222423 0.1319911 -0.08533493 -0.13257813
000140 5a ec ff 3d 2f bd 07 3e 3e 05 d7 3d 2e 5e 89 bd
       0.12496252 0.13255762 0.10499047 -0.067074165
000150 96 2a 0f bd ae b6 a7 bd f9 ab 9c bd 40 c8 ef bd
       -0.034952722 -0.0818914 -0.07649989 -0.117081165
000160 80 e4 d5 3a ac 05 bb 3d d6 af e8 3d 2c 7a 00 3d
       0.0016318709 0.09131941 0.11361663 0.031366512
000170 40 4a 0a 3d 8e 4c 0e bd dc dc 48 3d b0 e4 75 3d
       0.033762217 -0.034740977 0.049038753 0.060032547
000180 e0 64 88 3d 6c 83 55 3d 14 72 bb bc f8 77 03 be
       0.066598654 0.052127287 -0.022881545 -0.12838733
000190 f8 e9 16 bd 50 03 88 3d 8c b7 b3 bc a6 c8 ef 3d
       -0.036844224 0.06641257 -0.021938108 0.117081925
0001a0 90 72 26 3c 9c 62 1d bd 44 29 63 3d 50 2f c8 3c
       0.01015915 -0.03842412 0.055459276 0.024436623
0001b0 f6 96 f2 3d 38 79 73 3d 6e 6e 21 bd 64 ee ca bc
       0.118452 0.059441775 -0.039411955 -0.024771877
0001c0 a8 4f 8d 3d 75 e7 07 3e a0 d7 ad 3d 7c ee 37 3d
       0.06899959 0.13271888 0.08488393 0.04490517
0001d0 10 23 5f 3d 40 a2 1c 3b e9 e0 09 be d6 8d 31 bd
       0.054476798 0.002390042 -0.13464703 -0.043348156
0001e0 d6 79 f8 3d 24 59 7c bd c4 70 bc bc 18 ca cc bc
       0.12132613 -0.06160845 -0.02300299 -0.02499871
0001f0 d9 2c 02 be b6 3c b2 bd b4 34 75 bd 50 9c e3 3c
       -0.1271242 -0.08702986 -0.059864715 0.027784497
000200 ac 92 51 bd 2a 15 73 bd 70 bf 2a bc d1 2a 0d 3e
       -0.051165268 -0.059346355 -0.010421619 0.13785864
000210 92 19 cd 3d 47 fd 02 3e d4 63 42 bd 48 6d e7 bd
       0.10014643 0.1279193 -0.047458485 -0.113001406
000220 92 1e d5 bd e1 1f 00 be d4 4e 31 3d 29 b0 10 be
       -0.104062214 -0.12512161 0.043288067 -0.141297
000230 e4 48 bf 3d 7e 44 bb 3d 7d ac 02 3e 14 dc 00 3d
       0.09340075 0.09143923 0.12761112 0.031459883
000240 62 11 e2 3d 9a f6 97 3d 28 a6 af 3c 64 7e cc bd
       0.11038472 0.074200824 0.021441534 -0.099850446
000250 94 0f 8e 3d d8 eb b4 bc d2 15 98 3d 5c db 7f bd
       0.06936565 -0.022085115 0.07426037 -0.062465057
000260 98 17 69 bd 24 3c 11 3d 74 28 05 3d 3e 9e 4a bd
       -0.056907266 0.035457745 0.032509282 -0.049467318
000270 54 ff 9a 3d a0 36 68 bc 68 b8 44 3d e8 3c d8 3d
       0.07568231 -0.01417318 0.048027426 0.10558492
000280 c8 2a f3 3c 10 c5 20 bd 2c a7 c9 bd 8d 36 0c be
       0.029683486 -0.039250433 -0.09846339 -0.13692684
000290 9e e5 54 bd 38 ae 00 bd 5a e5 f1 3d 54 a1 a1 bd
       -0.051976793 -0.031416148 0.118113235 -0.07892099
0002a0 d5 73 05 3e 60 8f 83 bb b6 7d 38 bd d2 a5 e5 3d
       0.13032468 -0.0040148944 -0.045041762 0.11213268
0002b0 68 05 da bd 56 40 8b 3d bc 7d 53 3d d8 3e ae 3c
       -0.106455624 0.067993805 0.05163358 0.0212702
0002c0 98 6d cd 3d 3a df c3 bd 4a 3f c8 3d 8c 96 7c bd
       0.10030669 -0.095640615 0.097776964 -0.06166701
0002d0 0b bf 01 3e d2 08 4f bd c0 bc 5d 3d 00 c6 85 3d
       0.12670533 -0.05054552 0.054135084 0.06531906
0002e0 4f 59 0d be dc cb 4d bd 68 93 50 bd 6b d6 bc bd
       -0.138036 -0.050243244 -0.050921828 -0.092205845
0002f0 50 d6 55 3c 06 bc b8 3d 00 1d 35 3c 80 18 84 3d
       0.013051584 0.090202376 0.011054277 0.064499855
000300 ae 2e 6b bd 8e 4d d1 3d 78 af b0 bc 40 a1 a2 bd
       -0.057417564 0.102198705 -0.021568045 -0.07940912
000310 ab a7 89 bd e0 9d c1 3c d8 6d 92 3c 0a c3 e3 3d
       -0.06721433 0.023634851 0.017874643 0.11121185
000320 1e 9d ad 3d b0 b8 59 3c b8 51 e5 3c d8 64 02 3d
       0.08477233 0.013288662 0.027993068 0.031834453
000330 5e 6f ea 3d b8 e3 84 3d 11 82 08 3e d0 b9 12 bd
       0.11447023 0.064887464 0.13330866 -0.035821736
000340 dc 09 26 3d e2 b7 2e bd 92 ec f2 3d 04 a8 7c 3d
       0.040536746 -0.042655833 0.118615285 0.06168367
000350 38 e6 3d 3d 46 7c ab bd b0 13 34 3d 18 8d 33 3d
       0.04636213 -0.08373313 0.043964088 0.04383573
000360 a0 d5 6a bc a0 af 16 3d 14 5f 17 3d e6 0f 07 be
       -0.014333159 0.036788583 0.036955908 -0.13189659
000370 b3 91 10 be 00 8c cc 3b ca 8b 9f 3d d6 a7 fb 3d
       -0.1411808 0.0062422752 0.077903345 0.122878715
000380 f0 e3 b9 bc b6 5f cc 3d 28 b2 47 3d be 09 cf 3d
       -0.022691697 0.09979193 0.048753887 0.1010928
000390 29 a6 08 be b0 b9 6e bc 6f 1d ac bd 7c 23 6a 3d
       -0.13344635 -0.014570639 -0.084040515 0.057162747
0003a0 80 94 3f 3c 94 a8 24 bd aa 5e b4 3d 7c 31 96 3d
       0.01169312 -0.04019983 0.08807118 0.07333657
0003b0 40 b2 4b bc fd 59 8e bd a0 e9 3f 3d 20 5e 9a 3b
       -0.012432635 -0.06950758 0.04685366 0.0047109276
0003c0 3c f0 74 3d e8 34 81 bc 59 fd 0b 3e 0f aa ae bd
       0.059799418 -0.015772298 0.13670863 -0.0852853
0003d0 dc 16 3e bd 00 87 81 3a 65 ca eb bd c8 3a c0 3d
       -0.04640852 0.0009882152 -0.11513213 0.09386212
0003e0 20 a6 26 3d 76 4e f2 bd a8 31 a6 bc 18 83 81 bc
       0.040685773 -0.118313715 -0.02028735 -0.01580958
0003f0 62 63 c2 3d ee 8e 10 bd 60 e4 5d bc 2c 45 f7 bd
       0.09491612 -0.03529256 -0.013543218 -0.1207374

fc2.bias f4 [10]
000000 5f 2c 09 3e e2 34 e4 bd 83 25 0e be 00 2e 85 39
       0.13395832 -0.11142899 -0.13881497 0.0002540201
000010 68 64 c4 bd f6 37 b1 3d 20 bf c4 bb 4a c1 c9 bd
       -0.095894635 0.08653252 -0.006004229 -0.0985132
000020 58 32 e6 3c ae e1 52 bd
       0.028100178 -0.051484756

localization.0.weight f4 [6, 3, 5, 5]
000000 ca 56 f7 3c 50 d5 95 bd aa 91 fb bd 53 55 18 be
       0.030192751 -0.07316077 -0.122836426 -0.14876299
000010 d0 11 17 be c8 d3 d3 bd 22 d8 56 3d 49 67 a8 bd
       -0.14752889 -0.103431284 0.052452214 -0.08222825
000020 f1 ad a3 3c 20 87 09 be 5f c7 89 bd ff ad 74 3c
       0.019980403 -0.13430452 -0.0672748 0.014934062
000030 4a 88 5e bd 80 35 60 bc 3f 89 2a be f2 9e de bd
       -0.054329194 -0.01368463 -0.16653918 -0.1087016
000040 90 33 85 bd 6a e5 27 be 50 40 a7 bd f7 9d 30 3d
       -0.065039754 -0.16396108 -0.081665635 0.043119397
000050 12 cd a9 bc dc be f3 3c 0d a1 17 bd 81 60 b0 bc
       -0.020727668 0.029754095 -0.037018824 -0.021530392
000060 c8 28 d5 bd 99 db 12 bd db ff 15 be 1f f5 52 bd
       -0.10408169 -0.035853956 -0.14648382 -0.051503297
000070 13 4c 25 3d 71 73 c8 bd 39 ef 8c bd f2 d5 d2 bd
       0.040355753 -0.09787644 -0.068815656 -0.10294713
000080 ff e7 12 be ae 9e 15 be 4c 13 18 be 0e 89 2b be
       -0.14346312 -0.14611313 -0.14851111 -0.16751501
000090 3f 16 01 bd 70 60 c1 b9 f5 b4 f1 bd 13 48 e7 bd
       -0.031515356 -0.0003688368 -0.11802093 -0.11293044
0000a0 6d 1b 39 3d 80 9d 16 be 39 b4 40 bb f3 b6 0e 3d
       0.04519217 -0.14708519 -0.0029404296 0.034842443
0000b0 92 e0 2a bc 54 05 d3 3c fb ae b1 bd 56 7a 34 bc
       -0.010429518 0.025759377 -0.08675953 -0.011015495
0000c0 37 6d e0 bb 6b 4f 76 bd e1 f6 94 bd b9 25 28 be
       -0.006848957 -0.060134333 -0.07273651 -0.1642064
0000d0 b1 ce 28 3d 50 0f f9 bd 29 87 8d bd 5b a3 3c 3d
       0.04121274 -0.12161124 -0.069105454 0.046054225
0000e0 f5 f9 3e 3b 49 13 db 3c 5d e2 16 be 20 50 a1 3c
       0.0029140685 0.026742594 -0.14734788 0.019691527
0000f0 9b f9 01 be 6a 34 b3 bd 59 21 3b bd cb 24 42 3d
       -0.12692873 -0.087502316 -0.0456861 0.04739837
000100 63 18 18 bd e2 01 3a 3d 31 34 e4 bd 16 ed 55 3d
       -0.037132632 0.04541195 -0.11142767 0.052228056
000110 12 8d e9 bd b2 75 d6 bd 25 c6 0c 3c 80 39 cb bc
       -0.1140386 -0.10471667 0.008592163 -0.024807692
000120 8d 98 f1 bd 72 be c5 bd 12 82 2c be 93 70 30 3d
       -0.11796675 -0.09655465 -0.16846493 0.04307611
000130 10 c4 ca bd 33 97 46 bd cc 44 03 be 48 0f 27 be
       -0.09900677 -0.04848404 -0.12819213 -0.16314423
000140 cc 70 5f bd 69 c4 ee bd b9 22 80 bd 12 66 60 3d
       -0.05455093 -0.11658556 -0.06256623 0.05478484
000150 49 37 69 3d 5a eb 1f bd ab 4c 72 bd 8e 66 77 bd
       0.05693749 -0.039042808 -0.059155148 -0.06040054
000160 d7 5a 47 3d ce 43 14 be 29 16 75 3d 8f 5a 08 3d
       0.048670616 -0.1447899 0.059835587 0.03328949
000170 7a 91 e7 bd 8b 6e 05 3d d0 14 b7 bd a1 f2 1f bd
       -0.11307044 0.032576125 -0.089395165 -0.03904975
000180 af cf 9f bd 9c c2 a7 bd 85 1a 8a bc 06 c3 84 bd
       -0.078032844 -0.08191416 -0.016858349 -0.0648251
000190 a0 ae a2 bd 32 da 62 bd 61 cc c5 bd 99 a1 08 be
       -0.07943463 -0.05538387 -0.09658123 -0.13342895
0001a0 dc 18 43 3d 70 a9 12 3d 1d 92 04 3d 46 d4 c4 bd
       0.04763113 0.03580612 0.032365907 -0.096108004
0001b0 a8 92 dc bd 90 e7 1d 3d 3a 26 a7 bd 9d 22 fc 3c
       -0.1077016 0.038550913 -0.08161588 0.030778224
0001c0 75 ae d5 bd 9d 7f 9a bd 91 b0 e8 bd 52 67 6a bd
       -0.10433666 -0.075438716 -0.11361802 -0.05722744
0001d0 98 b9 19 be 9a 54 05 3d da 63 dc bb f2 5a 62 3d
       -0.15012205 0.032551385 -0.0067257704 0.055262513
0001e0 ab d3 8b bd a6 5c 53 3d 70 19 d2 bd f2 9b 24 be
       -0.06827482 0.05160203 -0.10258758 -0.16075113
0001f0 95 da 02 3c 13 2e ba bd e4 83 18 3d f5 5c 3b 3d
       0.007986684 -0.09090819 0.037235156 0.045742948
000200 3f 71 ed bd 2d ff c3 bd 20 60 f4 bd 6a 7e 75 bc
       -0.115938656 -0.09570155 -0.11932397 -0.014983753
000210 47 99 22 be cc 13 7a bd 81 87 c3 bd 2d cf 5d 3d
       -0.15878783 -0.061054036 -0.0954733 0.054152656
000220 a8 f6 5a 3d 57 9c e5 bd 0b 0f 6c bc 0d e6 91 bb
       0.053457886 -0.1121146 -0.014407883 -0.004452473
000230 ee 4d 5e 3d 7e 45 db bd 03 a6 d0 bc ee e1 43 3c
       0.05427354 -0.10706614 -0.025469786 0.011955721
000240 13 6e 22 bd 6d 7a 81 3c 10 8d 38 3c a1 36 ba bd
       -0.039655756 0.015805447 0.011264101 -0.09092451
000250 1a 91 23 be 90 e8 c8 bd b4 92 ab bd 71 c8 61 bd
       -0.1597332 -0.09809983 -0.08377591 -0.055122796
000260 e9 50 f6 3c 6b 9d d4 bd 5c 6d 9d 3c 15 63 20 3d
       0.030067878 -0.103815876 0.019217186 0.039156992
000270 52 fa 35 be e2 7e a3 bc 57 7d c2 bd 26 b1 02 bd
       -0.17771271 -0.019957963 -0.09496563 -0.031907223
000280 b0 70 07 be 13 8f 1b 3d f0 a5 5d bd 9e a5 de bd
       -0.1322658 0.037978243 -0.05411333 -0.10871433
000290 66 29 83 bd 19 dc cd 3b d7 3f 1b be 52 01 e3 bc
       -0.064043805 0.006282341 -0.15161072 -0.02771059
0002a0 bf 53 10 be 18 ad 2f 3d 9a 63 04 3c e8 0b ec bd
       -0.14094447 0.042889684 0.0080803875 -0.115257084
0002b0 0a 8c f0 bd c0 5a 8f bd ee e6 47 bc 10 bf 67 bd
       -0.1174546 -0.06999731 -0.012201054 -0.056578696
0002c0 4e 97 eb bd 01 f8 ed bd a2 70 95 bd 21 cc 1c be
       -0.115034685 -0.116195686 -0.07296874 -0.15312244
0002d0 52 45 7a bd af 7d f5 bd 3a 3a 34 be 14 37 38 3d
       -0.061101265 -0.11986863 -0.17600337 0.0449744
0002e0 c1 ec c3 bd fa 10 10 3d 11 41 7e bd 69 ef 33 bb
       -0.095666416 0.03517244 -0.06207377 -0.0027455932
0002f0 d5 8c 8d bd bb a6 34 be ba 56 21 be a3 a2 fb bd
       -0.06911627 -0.17641728 -0.1575574 -0.1228688
000300 6a 11 39 3c cf e9 17 3d 3a 0d 1b be 26 24 bc 3b
       0.011295656 0.03708821 -0.15141764 0.005741614
000310 b3 69 ff bd f2 0e 22 be 78 fd 1b bd 48 65 03 be
       -0.124713324 -0.15826014 -0.038083524 -0.12831604
000320 1c a6 81 bd 7b 81 d2 bc 4e 64 21 bd 2b 16 68 3d
       -0.06330511 -0.025696507 -0.0394023 0.056661766
000330 7e 83 27 be 77 0e 96 bc 67 66 e6 bc a6 f9 0e be
       -0.16358754 -0.018317444 -0.028125001 -0.13962421
000340 50 9f 2d bb 88 34 30 3d b8 ba 85 bd 9e 6b 4b 3c
       -0.0026492663 0.043018848 -0.065297544 0.012415795
000350 57 49 27 be 8d 8f 08 3d 97 1e b4 bd dc 5c 3c bc
       -0.1633657 0.033340026 -0.08794897 -0.011496749
000360 f8 bc b3 bd 39 d0 cb bd 9a 12 06 be 54 2c 1b 3d
       -0.08776277 -0.09951825 -0.13093033 0.03788407
000370 88 ee 32 3c b7 36 1c 3d bd 8e 08 be 98 41 90 bc
       0.010921128 0.038138118 -0.133357 -0.017609403
000380 76 b1 97 3c 91 c2 fa bd d3 6e e6 bd a2 d4 33 be
       0.018517237 -0.12244142 -0.11251607 -0.17561582
000390 b5 17 2f bd 07 43 a4 bd a0 fb b1 3c 4a 90 a5 bc
       -0.04274722 -0.08020597 0.02172643 -0.020210404
0003a0 d5 2a e0 bd fa 22 34 bc 8b 61 11 bd 48 7f 45 3a
       -0.109456696 -0.010994667 -0.035493415 0.000753392
0003b0 50 22 08 be f7 ed 29 bd 9e 89 cf bd 43 79 95 3c
       -0.13294339 -0.041486707 -0.1013367 0.018246299
0003c0 46 72 f5 bd 57 df 6a bc d4 c2 16 3c 31 a8 2b be
       -0.119846866 -0.014335475 0.009201724 -0.16763379
0003d0 13 b1 08 bd 0f 80 0b be 91 a7 95 bd 72 18 a4 bc
       -0.033371996 -0.13623069 -0.073073514 -0.020031188
0003e0 e3 d7 f1 bd e7 c0 41 ba 8d 1c 12 be 8d 7e 30 bd
       -0.11808755 -0.00073911104 -0.14268704 -0.04308944
0003f0 cf 17 20 be 5f 9e 24 3d 6f e6 92 bc 03 ff a0 bd
       -0.15634082 0.040190097 -0.017932145 -0.078611396

localization.0.bias f4 [6]
000000 88 a4 d4 bd 5b cf 0d be c2 40 e1 bc 23 77 79 bd
       -0.10382944 -0.13848631 -0.0274967 -0.060904633
000010 0e ba 56 bd 66 47 d0 bd
       -0.05242353 -0.10169868

localization.3.weight f4 [16, 6, 5, 5]
000000 8e c3 06 bc b4 6f 00 3e 15 6c 5a bd 1f 05 f4 3b
       -0.008225335 0.12542611 -0.05332573 0.0074468995
000010 27 5a 2f 3d 18 25 be 3d 55 51 f4 b9 1a a7 ab bc
       0.042810585 0.09284419 -0.00046599904 -0.020953704
000020 33 eb 94 3d 51 e1 45 bd 90 a2 7d 3d ef d2 0c 3d
       0.07271423 -0.04831058 0.06192261 0.03438085
000030 1a f7 79 bc 6e 3d 8c 3d 57 bf 4b 3d 85 e3 90 bc
       -0.0152566675 0.06847654 0.049743023 -0.017686615
000040 c8 92 fb 36 71 8e a9 bc e9 78 2a 3d 72 b8 b9 3c
       7.4974705e-06 -0.020697804 0.041619215 0.022670958
000050 ab fd 1a bb 7a 79 c8 3c 55 c6 0a 3e 99 d8 36 bc
       -0.0023649733 0.024471987 0.1355222 -0.011160039
000060 11 77 fe bb cd 78 28 3d 79 18 90 bd 57 a2 9b bd
       -0.0077656587 0.04113083 -0.07035918 -0.07599323
000070 66 23 dc 3c c0 44 17 3c 50 12 48 bd 6a b5 6f 3d
       0.026872348 0.0092327 -0.04884559 0.05852262
000080 a0 33 36 bd 05 a5 07 be a9 fc bc bd ca 2d 93 3d
       -0.044482827 -0.13246544 -0.092278786 0.07186468
000090 af 98 54 3d 06 57 e8 bb ee bc 9a bd cb da ac bd
       0.051903423 -0.007090452 -0.07555567 -0.08440169
0000a0 3e 62 6a bc d9 1d 2d bd d2 3a e2 bd 72 20 c9 bc
       -0.014305649 -0.042264793 -0.11046375 -0.024551604
0000b0 d3 38 cc bd bb 47 8d bc 61 0a bf bc a0 93 e5 3c
       -0.09971776 -0.017246118 -0.023320379 0.028024495
0000c0 f6 be c2 3c df c9 dd bd 6c 3d 49 bd 14 32 92 bd
       0.023772698 -0.108295195 -0.049130842 -0.07138458
0000d0 be a2 99 bd 4d 1a e2 3b 79 48 8e bd 35 43 5e 3d
       -0.07501744 0.006900108 -0.06947417 0.054263312
0000e0 ad 62 8c bc ba 7d 58 bd fc 8b f9 bc 91 b3 46 bd
       -0.017136896 -0.052854277 -0.030462258 -0.04851109
0000f0 c9 da 1c bd f3 a3 a7 bd c8 d9 54 bd 13 94 df bd
       -0.038294587 -0.08185568 -0.051965505 -0.10916915
000100 5a c9 f4 3c 21 da bc bd 11 c6 0b 3d 7f 27 91 bc
       0.029881168 -0.09221292 0.034124438 -0.017719029
000110 96 00 2a bd 3c a9 57 bc d1 82 bc 3c 2d a3 2c bd
       -0.041504465 -0.013162907 0.023011597 -0.042147804
000120 ff 42 9b 3c 44 63 ee bc 04 b2 aa ba fd ae f5 3a
       0.018952845 -0.029100068 -0.0013023023 0.0018744167
000130 4d 18 c3 3c 14 ce 57 bc 53 79 24 bd 82 c4 12 3d
       0.023815298 -0.013171691 -0.040154766 0.035831936
000140 10 7f ce bc 65 a0 b1 3d a3 6e ca 3c 8b eb 02 3d
       -0.025207072 0.08673171 0.024710959 0.031962913
000150 4d 84 f4 3d 34 96 00 bc b6 47 cc 3c 52 9f c5 bd
       0.11939297 -0.007848311 0.024936538 -0.096495286
000160 38 63 dc ba 24 27 60 3c fe 78 e2 3d 7d 38 0a 3e
       -0.0016814237 0.013681207 0.11058234 0.13498111
000170 3e 50 a8 3d 56 c3 a6 bd 26 fe c7 3d 8f c8 9f 3d
       0.0821843 -0.08142726 0.09765272 0.078019254
000180 64 c6 d4 bc 7b 80 75 3c 58 fc 0f bd 62 77 85 3d
       -0.025973506 0.014984245 -0.035152763 0.06516911
000190 c4 90 7a bc 30 6d f3 3d c9 e7 a6 3d b5 83 07 3e
       -0.015293304 0.1188606 0.08149678 0.13233836
0001a0 8f a2 d6 3d d9 40 c5 bc c8 73 6c bc de 70 07 3c
       0.10480224 -0.024078773 -0.014431901 0.008266656
0001b0 41 08 ee 3d 9e 24 b6 3d eb b8 e2 bd a2 90 00 3d
       0.11622668 0.08893703 -0.110704266 0.031387933
0001c0 30 1e c3 3d 1a 03 a3 3d 21 d5 38 3d 1e 50 a6 bd
       0.09527242 0.07959576 0.04512513 -0.0812075
0001d0 54 96 7e bd b8 17 f0 3b 2f ed cd 3d 2a b9 b7 3d
       -0.062155083 0.0073270462 0.10055005 0.08970864
0001e0 6d 71 87 3d 51 ce 4a 3d 78 e7 36 3d 3e 07 7c 3d
       0.06613431 0.049513165 0.04465434 0.061530344
0001f0 88 40 a4 3d 6e f5 57 bb 32 2c a4 bd c0 aa cd 3c
       0.08020121 -0.0032952684 -0.08016242 0.025105834
000200 4e 94 b6 ba 67 fe 45 3d 8a f7 83 bc 53 b4 6f bd
       -0.0013929696 0.04833832 -0.016109247 -0.05852158
000210 8f 91 6e bd d1 aa 33 bd c7 b7 c7 3c 37 38 6b 3c
       -0.058244284 -0.043864075 0.024379624 0.014356664
000220 94 61 99 bd 44 e5 8a 3c 00 18 5d 3d b5 18 a0 bd
       -0.07489315 0.016955025 0.053977966 -0.078172125
000230 64 80 c1 bc 3a e7 6c bd 88 3a 57 3d ea 33 8f 3d
       -0.023620792 -0.057837702 0.052546054 0.06992324
000240 c9 28 9d bd e8 b4 89 bd f3 71 b6 bd 88 e8 15 bd
       -0.07673795 -0.06723958 -0.08908453 -0.036598712
000250 4f 26 ab bd 4e 04 e1 bd f0 6d 82 3c 8c 65 87 bd
       -0.08356916 -0.10987149 0.015921563 -0.066111654
000260 df b1 b9 3c a2 f2 cb bd 4b c4 66 bd 41 ea 21 bd
       0.022667823 -0.09958388 -0.056339543 -0.039530043
000270 5e fe 54 3c fe 0f c2 bc 8f 27 5d bd 65 34 c0 bc
       0.013000099 -0.023689266 -0.053992804 -0.023462484
000280 a3 47 3c bd 2e bd 92 bd 6c 2e 04 be 13 58 e2 3c
       -0.045966756 -0.071649894 -0.12908334 0.027629888
000290 65 98 cf bd 8a 03 14 bd fd fe 00 be 1b d1 8a bd
       -0.10136489 -0.036136188 -0.1259727 -0.06778165
0002a0 dd 5f 51 3c 61 55 19 bd fb 3d b7 3c b7 39 50 bd
       0.012779203 -0.03743494 0.022368422 -0.05083629
0002b0 2f 47 b1 3c cb e4 8f 3c 1d e4 7d 3c 47 db 55 bd
       0.021640388 0.017565152 0.015496281 -0.052211072
0002c0 a0 9e d4 bd d7 ba fc bd a5 73 08 be 0f 9a 2d bd
       -0.10381818 -0.12340324 -0.13325365 -0.04238325
0002d0 0c 22 2d bc dd ed d6 bd 03 15 fe bd 92 c9 dc bd
       -0.010567199 -0.104945876 -0.124063514 -0.10780634
0002e0 d1 11 0c bd 85 75 f6 bc be 56 82 bd 07 9e eb bd
       -0.03419668 -0.030085335 -0.06364201 -0.11504751
0002f0 10 b2 00 be 01 5f 36 bd 57 c9 e5 bd a3 df 9d bc
       -0.12567925 -0.044524197 -0.11220043 -0.019271677
000300 9f 31 ea 3b 15 3d b6 bd 66 72 68 3c 5a 2e 35 bd
       0.0071470286 -0.08898369 0.014187431 -0.044233657
000310 0a 7d 88 bd 2d 5b 08 be 59 d0 0a bc f2 31 80 3c
       -0.06664474 -0.13316031 -0.0084725255 0.015648816
000320 4a ff 81 bd 43 0b 02 3c 29 93 52 bd 35 f4 46 bd
       -0.06347521 0.007937255 -0.051409874 -0.048572738
000330 b2 a9 10 bd 1e 6d d3 bc 59 0e 8f bd 0d a9 61 bd
       -0.035318084 -0.025808867 -0.069851585 -0.05509286
000340 08 6c 62 3b f9 5d 04 bc 0c 60 10 be 7a 2c dc bb
       0.0034549255 -0.008079045 -0.14099139 -0.006719169
000350 ae 40 e7 bd 59 15 8a bd 4b ee ad bc 4c 36 0a be
       -0.112916335 -0.06742353 -0.021231791 -0.13497275
000360 29 fc 59 bc ae 45 f3 bd f2 ee fe bd 43 e2 11 be
       -0.013304749 -0.11878525 -0.12447919 -0.14246468
000370 ca 9e 25 b9 8c e2 e9 bd 5c 26 60 bb 09 d6 84 bd
       -0.0001579478 -0.114201635 -0.0034202551 -0.064861365
000380 f4 36 c4 bc f3 ad ec bc a0 1e bd bd f7 bd 2d bd
       -0.023951985 -0.02889154 -0.09234357 -0.042417493
000390 09 db 69 bd 70 97 9d bc 64 82 d9 3b 21 48 9f bd
       -0.057093654 -0.01923725 0.006637858 -0.07777429
0003a0 a0 d2 d6 bd ec df 89 3c de 3b 09 be 4f 8c c7 bd
       -0.10489392 0.016830407 -0.13401744 -0.097435586
0003b0 e4 b5 9a bd 0f 1c 05 be c4 5e 3a bd 67 6a b0 ba
       -0.07554224 -0.12998985 -0.04550053 -0.0013459445
0003c0 ed f7 03 be cc dd fc bd 78 8e ec bd 75 b8 6a bd
       -0.12887545 -0.12346992 -0.11550611 -0.05730482
0003d0 ef b0 87 bd 99 21 4a bd c3 21 52 bd eb 81 dd 3d
       -0.06625544 -0.049348447 -0.05130173 0.108157955
0003e0 14 9c 62 bd 0f 02 c5 bc 10 2c c1 bd 80 64 dd bd
       -0.05532463 -0.024048833 -0.094322324 -0.108101845
0003f0 8c 26 68 bb 4a 80 b6 bd 6e 99 5e bc 33 f3 75 bd
       -0.0035423366 -0.08911188 -0.013586385 -0.060046386

localization.3.bias f4 [16]
000000 dd 07 6b bd c2 59 b1 bc f2 72 9c bd 72 e1 78 bd
       -0.057380546 -0.021649245 -0.076391116 -0.060761876
000010 93 5a 51 bd fe c1 88 bd 32 61 aa bc ec b3 62 bc
       -0.05111177 -0.06677626 -0.0207983 -0.013836842
000020 04 ae 3d bd 2b 3e d1 bd 4e f5 67 bd 58 a1 50 bd
       -0.046308532 -0.10216936 -0.056630425 -0.05093512
000030 64 e0 fb bd df 04 47 bd e0 06 63 bd 18 0a 84 bd
       -0.122986585 -0.04858863 -0.05542648 -0.06447238

colorization.0.weight f4 [6, 3, 5, 5]
000000 6e 89 08 be 86 65 9e 3d c9 22 b9 bd 16 66 47 3d
       -0.13333675 0.07734208 -0.09039838 0.04868134
000010 d1 09 4b 3d a5 eb ca bd 92 4f 82 3d 11 a2 c7 bb
       0.04956991 -0.09908227 0.06362833 -0.006092318
000020 1b 89 e0 bd b1 f9 0c be 03 b4 97 bd 10 01 1d 3d
       -0.10963651 -0.13767125 -0.074073814 0.03833109
000030 d2 62 d2 bd 35 4d 14 be 06 df 9d bd 57 f3 19 be
       -0.10272755 -0.14482577 -0.07708554 -0.15034233
000040 c6 0d e4 bd 29 3b 06 be f0 91 82 3d a0 d6 95 bd
       -0.111354396 -0.13108505 0.063754916 -0.07316327
000050 a9 e3 85 3d fc 99 ce bd 85 c2 02 be 1b d1 e2 bd
       0.06537563 -0.10087964 -0.12769516 -0.1107504
000060 0b 9b dd bc 36 18 00 be be b6 83 3d 3d b1 49 3d
       -0.02705147 -0.12509236 0.0643134 0.049241293
000070 3c e9 c0 bd f5 03 97 bc 84 68 05 bd d6 6e 96 bd
       -0.09419486 -0.018434504 -0.032570377 -0.07345359
000080 37 54 05 be 94 70 43 bd a1 21 aa 3c 65 09 b1 bd
       -0.13020407 -0.047714785 0.020767989 -0.0864437
000090 61 bd d9 bd c4 25 c3 bd 03 cf 67 bd c3 66 96 bd
       -0.10631824 -0.095286876 -0.056593906 -0.07343819
0000a0 fa 8b c0 bd 22 01 92 bd b4 88 ac bd fb d7 94 bd
       -0.094016984 -0.07129122 -0.084245116 -0.072677575
0000b0 fb 5a 11 be a7 1a 89 3d 8b 58 e4 3c 41 47 fc bd
       -0.14194863 0.06694537 0.027874252 -0.12318278
0000c0 32 cf 24 3d fb d2 96 3d 13 cb 4e bd 1a aa d6 3c
       0.04023666 0.0736446 -0.050486635 0.026204158
0000d0 78 85 04 be df 1c a6 3c 93 65 58 bc 70 03 c2 bd
       -0.1294154 0.020277439 -0.013207811 -0.09473312
0000e0 a6 e5 61 3c 82 ae 77 3d 2a 80 f0 3c ca 11 f7 bd
       0.013787663 0.060469158 0.029357988 -0.1206394
0000f0 29 38 ee bd 0f 0f d6 bd 7a 64 c6 bd 60 f3 79 3b
       -0.116318054 -0.10452091 -0.09687133 0.0038139448
000100 a0 70 ed bd b1 36 bb bd 27 70 3f 3c 77 b9 5f bd
       -0.11593747 -0.09141291 0.011684454 -0.054620232
000110 96 a6 74 bd 84 2c bc 3c 00 08 b4 bc 68 1d a3 bd
       -0.05972918 0.022970445 -0.021976471 -0.07964593
000120 df cc 15 ba 3d d0 0b bb 48 4c d4 bb 77 84 7a 3d
       -0.0005714427 -0.0021333836 -0.00647882 0.061161485
000130 38 d9 ad bc e2 ec 5d 3d 12 27 f9 bd d6 fc 8f bc
       -0.021221742 0.054180987 -0.12165655 -0.017576616
000140 a9 2c 01 be d6 1b 0b 3d 3b 41 5c 3d 45 bf b4 bd
       -0.12614693 0.033962093 0.053773146 -0.08825544
000150 81 d5 b8 bd d1 d0 3e 3d 39 de 14 3c b7 9e 8c bd
       -0.09025098 0.04658586 0.009086185 -0.0686621
000160 13 cc b8 3c d9 20 71 3d a9 7e 36 bd 49 d0 30 bd
       0.022558248 0.058869217 -0.044554386 -0.043167386
000170 c5 c7 26 bc 71 6e fe bc 7d 50 ba bc 6f 4f cd bd
       -0.010179465 -0.031058522 -0.022743458 -0.100249164
000180 1c 76 84 3d ef e0 9b bd 5d 5e c8 bd fb 2d bb ba
       0.0646784 -0.07611262 -0.09783623 -0.0014280671
000190 14 1b 6e 3b f6 4d 01 bc 2e 2c 06 be 77 e2 f1 bd
       0.0036332058 -0.0078921225 -0.1310279 -0.11810773
0001a0 e8 55 14 be fb 2c 36 bd 08 61 cb 3b b1 ea 91 bd
       -0.14485896 -0.04447649 0.0062066354 -0.07124842
0001b0 0a f1 eb bc 81 b7 07 be 9d 02 c0 bd 0c 94 fa bd
       -0.02880146 -0.13253595 -0.093754984 -0.12235269
0001c0 ff 95 15 be b0 3f 1a 3d 34 c3 78 bd 56 63 02 be
       -0.14608 0.037658393 -0.060733035 -0.12733206
0001d0 63 6a 90 3d 59 17 05 3b 61 12 51 bc 6e 32 77 bc
       0.07051542 0.0020308106 -0.0127607295 -0.015087707
0001e0 fb c6 af 3c 15 49 1a be bf 21 27 bb f3 cb 90 bd
       0.021457186 -0.15066941 -0.0025502292 -0.0707015
0001f0 5f 1c 29 bd 4c 8c 35 3d 7d 4b 0e 3d 21 66 e6 bd
       -0.041286822 0.04432325 0.03473996 -0.11249948
000200 c7 a3 4f 3d 69 c0 93 3d a1 2f 52 bc 85 8f 7b 3d
       0.0506933 0.07214434 -0.012828738 0.061416168
000210 a3 f7 53 bd e2 44 07 be 0c 5a 9b 3b fa f4 bf bc
       -0.051749837 -0.1320987 0.004740959 -0.023432244
000220 56 44 12 3b 8b 51 c9 bd 8d d9 13 be ce 60 05 be
       0.0022318563 -0.09830006 -0.14438458 -0.1302521
000230 4c 9d 1d bd e1 36 4c 3d ad ae 0d be 8d 82 f9 bc
       -0.038480088 0.049857024 -0.13836165 -0.03045776
000240 7b 23 d8 bd 2f c5 ac 3c e5 73 08 be 17 43 31 3d
       -0.10553642 0.021090118 -0.1332546 0.043276872
000250 e8 1b 90 3b 9b 1e b7 bd cd 4a 26 3d 47 13 ce bd
       0.004397858 -0.089413844 0.04059868 -0.100622706
000260 f3 78 b0 bd 88 ad 0c bd e5 d4 d1 bc 1b 74 01 be
       -0.08616819 -0.03434518 -0.025614211 -0.12641947
000270 eb e7 14 3d b5 5d 23 be 92 94 f8 39 56 66 43 bb
       0.036353987 -0.15953715 0.0004741294 -0.0029815636
000280 3f 01 2d be e3 ec 25 bd 39 6b 42 3d a2 c7 29 be
       -0.16895007 -0.040509116 0.047465537 -0.1658006
000290 7c ab a3 3c bc 73 b3 bc 0d de 34 be 29 57 35 bd
       0.019979231 -0.021905772 -0.1766283 -0.044272576
0002a0 d0 15 f8 bd 3e 0b 27 3d 75 b6 cf 3c 63 45 85 bd
       -0.121135354 0.040782206 0.025355557 -0.06507375
0002b0 ed 77 03 be 6f eb 96 bd f7 a7 30 be e6 1a 72 bc
       -0.12838717 -0.07369124 -0.17251574 -0.014776921
0002c0 95 73 2c be c5 1c 83 bd dc 58 ad bd 5a e6 da bc
       -0.16840966 -0.06401972 -0.08464214 -0.026721168
0002d0 bf 62 00 3d 43 20 21 be 6a 60 ea bd 3f 6f 2d be
       0.03134417 -0.15734963 -0.11444171 -0.16936968
0002e0 07 67 d6 bd 22 41 c0 bc 40 a4 43 bb b4 cf 10 be
       -0.1046887 -0.023468558 -0.002985254 -0.14141732
0002f0 50 98 67 bd 8f e6 c7 3c 64 2f ee 3a 0b 0d 28 bd
       -0.05654174 0.024401931 0.0018172082 -0.041028064
000300 24 bc 63 3c 79 9a f8 bd a8 a0 c8 bd 30 a3 cf 3d
       0.013899837 -0.12138838 -0.09796268 0.101385474
000310 2a f9 1e ba c0 5d cf bc d1 ce 58 bd 49 3c 06 bc
       -0.000606435 -0.025313258 -0.05293161 -0.008193084
000320 61 5c 19 be 14 62 1a be 28 fd 83 bd 58 74 5f bd
       -0.14976646 -0.15076476 -0.0644477 -0.054554313
000330 92 35 6b bd 3b 65 83 bd de 46 1c 3d 5c 03 d1 bc
       -0.057424136 -0.064157926 0.03815352 -0.025514297
000340 42 cb 18 be 1d 64 fd bc 16 48 2d be 27 e6 53 bd
       -0.14921287 -0.030931527 -0.1692203 -0.051733162
000350 e9 e1 35 bd e0 20 3a bd 4e bd 2c be a8 5c d8 bc
       -0.044404898 -0.04544151 -0.16869089 -0.02641137
000360 b8 9e 1e bd dc 62 0a be 69 a2 91 bd cb be ab bd
       -0.038725585 -0.13514274 -0.071110554 -0.08386
000370 c1 8c 29 be 91 13 12 3d 6b 43 f7 3c ac 14 e9 bd
       -0.165576 0.03566319 0.030183515 -0.11380896
000380 85 ba d4 3c a3 46 95 bd 75 d6 1b be 7e 66 11 3d
       0.025967846 -0.072888635 -0.15218528 0.035498135
000390 b6 6c a5 3c e1 5c 9f bd de dc 9a bd 08 f1 b8 bd
       0.020193439 -0.07781387 -0.07561658 -0.09030348
0003a0 98 d4 5f bd d6 9c 5f bc 2c 15 06 be 8d fe f1 bd
       -0.054646105 -0.013648232 -0.13094014 -0.1181613
0003b0 ca 03 a2 bd dc f0 a7 bc 09 90 cc 3c 3a 44 90 bd
       -0.07910879 -0.020500593 0.024971025 -0.07044263
0003c0 6c 1e 1b be 9c 62 78 bd 0c e0 16 bc 1a db 89 bc
       -0.15148324 -0.060640916 -0.00920869 -0.016828109
0003d0 c5 97 0f 3b 19 fe ea bc 42 62 a5 3c 51 4b cc bc
       0.002191053 -0.028685616 0.020188455 -0.024938257
0003e0 16 b8 fe bd 70 cf 32 be 9b 5a 2c be 03 98 45 bd
       -0.12437455 -0.17461944 -0.16831438 -0.048240673
0003f0 4f c7 0c bd 50 e6 05 3d f6 85 4e 3c a6 77 e1 bc
       -0.034369763 0.032690346 0.012605181 -0.027522873

colorization.0.bias f4 [6]
000000 18 26 bf 3a d4 5c a8 bc f7 d3 01 be fe d3 bb bd
       0.0014583496 -0.020552076 -0.12678514 -0.09171294
000010 12 4b e6 bd e6 bb ef bb
       -0.11244787 -0.0073161004

colorization.3.weight f4 [16, 6, 5, 5]
000000 ef 72 36 3a e7 e6 af 3d dc 03 45 3d 85 35 0e bc
       0.00069598755 0.08588963 0.048099384 -0.008679752
000010 a8 94 0b be 89 85 d0 bd ba 80 fd bd f0 c8 86 bd
       -0.13630927 -0.1018172 -0.12378068 -0.065812945
000020 ad 51 6a bd f2 d2 0b 3d a8 7f 48 bd 18 78 89 bd
       -0.0572068 0.03413672 -0.048949867 -0.06712359
000030 26 05 87 bd b5 c6 ab 3c 16 3c d8 bd dd 0a 9a bd
       -0.06592779 0.020968774 -0.105583355 -0.07521603
000040 48 e6 bf bd 57 1f 04 bd d7 50 03 bb 55 ca 05 be
       -0.093700945 -0.03225645 -0.0020037198 -0.13065465
000050 0d ac 0a be 13 e6 d7 bd 4b 7f df ba 08 cb 41 3c
       -0.13542195 -0.1054193 -0.0017051486 0.011828192
000060 1c 8f 03 be 4a 52 0c bd b3 9d bd bc 98 48 3e bd
       -0.1284756 -0.034258164 -0.023146486 -0.04645595
000070 de 85 1f bc 3f c4 67 bc f5 7e ad bd d4 41 77 bd
       -0.009736506 -0.01414591 -0.08471481 -0.060365513
000080 ae e0 d4 bb ca 1a e4 bd 94 62 8d bc 80 4e 21 bd
       -0.0064965105 -0.11137922 -0.01725892 -0.039381504
000090 1e 03 f1 bd 35 e5 da bc 0b 21 80 bb 32 44 e7 bd
       -0.11768173 -0.026720623 -0.003910189 -0.11292304
0000a0 d8 70 ed bd 47 98 b7 bd 5d c5 ee bd be 5e ae bd
       -0.11593789 -0.089645915 -0.11658738 -0.085141644
0000b0 9f a0 a7 bc fd 67 aa bd cc d3 ab bd 4b 2b ca bd
       -0.020462332 -0.083206154 -0.083900064 -0.09871539
0000c0 21 49 e5 ba f1 27 a8 bd 6f 28 8e bd 9f 7f c7 bd
       -0.0017493108 -0.08210743 -0.06941306 -0.09741139
0000d0 b2 fc 0f bd 04 dc 8a bd 33 72 02 bd f3 7a 1e bd
       -0.0351531 -0.06780246 -0.03184719 -0.038691472
0000e0 b1 f6 96 bd d5 5e ec bd 6f 37 92 bd 0f 0f a7 bd
       -0.073712714 -0.11541525 -0.07139479 -0.08157169
0000f0 9c c2 01 bd 3e d6 ef bd 4b c8 f9 bc 75 d8 86 3c
       -0.031679735 -0.11710785 -0.030491015 0.016460637
000100 ae 1e 98 3c b3 37 bd bd 3b 4d 04 be 98 8d f4 bd
       0.018569317 -0.092391394 -0.12920086 -0.11941069
000110 73 d3 f1 bc 7c 1d 04 bc ef e1 5a bd 8e 1b 7b bd
       -0.029519772 -0.00806367 -0.053438123 -0.061305575
000120 ca d6 f8 bd bc 4d 90 3c 3f 96 37 bd 67 2d 96 bb
       -0.12150343 0.017615192 -0.04482102 -0.004583049
000130 7e ad 77 bd be 80 61 bd ed 96 41 bd aa 5a c0 3a
       -0.06046819 -0.05505442 -0.047263075 0.0014675457
000140 df 92 a4 bd 5a c5 be bd 3b 58 66 bd c4 75 78 bd
       -0.08035826 -0.093149856 -0.056236487 -0.060659185
000150 73 f1 80 bd fc 81 b6 bc c9 ea 07 be 6b 8b f3 bc
       -0.06296053 -0.022278778 -0.13273157 -0.029729566
000160 40 6e 0f be cd ff 8c 3b 30 9c 96 bb f5 8b fc bd
       -0.14006901 0.0043029548 -0.0045962557 -0.12331382
000170 c3 6b 71 3c c5 2a c5 bd 1d 05 0f be 1b a6 57 3c
       0.014735165 -0.09627298 -0.13966794 0.013162161
000180 de 13 7e bc 7e 5d fd bd 98 ae ee bd 46 d8 ea ba
       -0.015507666 -0.12371348 -0.11654395 -0.0017917238
000190 01 d0 d9 bc e4 03 dc bd 02 b2 45 bd 44 b7 d8 bd
       -0.026588442 -0.107429296 -0.048265465 -0.1058183
0001a0 bb bd d2 bc bd d1 96 3a ca a5 fe bc 8d fa 26 bd
       -0.025725236 0.0011506599 -0.031084914 -0.040766288
0001b0 8c 9b c4 3b b3 e9 8c bd 86 ae 24 bc 7d 9a 81 bd
       0.005999988 -0.06880512 -0.010051375 -0.063282944
0001c0 a0 9e e1 3b 7e dc 04 be d7 62 ac bd 99 fd 13 bd
       0.0068853647 -0.12974736 -0.0841729 -0.03613052
0001d0 4d 0f c3 bd 85 6c c7 bd 2e 36 a3 bd 6a 70 5d bd
       -0.09524403 -0.09737495 -0.07969318 -0.054062285
0001e0 b4 d0 93 bd c0 ec ee bd 40 b9 6f bd 33 75 68 bd
       -0.07217541 -0.1166625 -0.058526278 -0.056752395
0001f0 0d 38 98 3c d6 6a 65 bd 4d 37 c7 3b 16 60 90 bd
       0.018581415 -0.05601009 0.0060795904 -0.07049577
000200 21 da da bd aa 15 23 bd 82 1c c6 bd 6d 07 fb bb
       -0.10686136 -0.039815582 -0.09673406 -0.0076607973
000210 6c 7d c5 bc a9 07 0b be 04 ad ba bd ea aa a2 bd
       -0.024107657 -0.13577141 -0.09115031 -0.079427555
000220 2d 62 0f be 99 97 ca bd 4c c5 ad bd 5d 3a a0 3c
       -0.14002295 -0.09892196 -0.08484897 0.01955908
000230 a7 9b aa 3c ca b3 09 3c b0 40 aa bd 7a fb f5 bd
       0.020826174 0.008404681 -0.083131194 -0.12010856
000240 06 87 99 b9 9a c5 e2 bc 4e 96 13 bd ce 4e 10 be
       -0.00029283034 -0.027682114 -0.036032014 -0.14092562
000250 56 04 ec bb 21 b5 c5 bd 56 61 c0 bd 18 8c 85 bc
       -0.0072026653 -0.09653688 -0.09393565 -0.016302153
000260 23 b1 71 bd 4e 04 23 bd a9 5d 6a bd 60 53 2a bd
       -0.05900682 -0.039799027 -0.057218228 -0.04158342
000270 df 71 3d bd db cf b5 bd da fc 0b be 3a 09 ac bd
       -0.046251174 -0.08877536 -0.13670674 -0.08400197
000280 13 57 0b be 1e e7 2d 3c 89 43 24 be 2b 8e ac bd
       -0.13607435 0.010614185 -0.16041388 -0.08425554
000290 7d 5c 8d bd f0 6c 29 bd 4f c4 13 be 42 24 84 bd
       -0.06902406 -0.041363657 -0.14430355 -0.06452228
0002a0 7b f6 45 bd 85 a5 f1 bd e9 23 5e 3a a5 e6 cf bd
       -0.048330765 -0.117991485 0.0008473979 -0.10151414
0002b0 c5 66 8d bd 50 73 e0 bd dc 25 d5 bd 24 a6 4d bc
       -0.06904367 -0.10959494 -0.10407612 -0.012551818
0002c0 4b 75 16 ba dc 70 10 bd bb b2 1a be f8 23 f0 bd
       -0.0005739524 -0.03526388 -0.15107243 -0.117256105
0002d0 58 8e a5 bd 98 16 7b 3a 10 d0 4a bc a5 ef 19 bd
       -0.080837905 0.0009578257 -0.0123787075 -0.03758206
0002e0 85 af 9b 3c 69 15 5c 3d b9 48 84 bd 74 a9 99 bd
       0.019004593 0.053731356 -0.06459183 -0.07503024
0002f0 0d 15 1b bc 4b 8e 4d bb 10 34 b3 bd 04 2b 0d bd
       -0.009465468 -0.003136533 -0.087501645 -0.03446485
000300 35 d2 e2 bd ad b8 3a bd aa 37 c2 bb a9 dd 66 3d
       -0.1107525 -0.045586277 -0.005927046 0.056363735
000310 10 b0 58 3d ff d8 d3 bd c4 ba 23 bd db f3 cd bc
       0.05290228 -0.10344123 -0.039973035 -0.025140693
000320 7f f1 a9 3d e7 a7 b3 3d 08 dd 38 3d d1 1c 69 3c
       0.08298015 0.08772259 0.045132667 0.014228062
000330 48 31 0d 3e f8 35 f0 3d a0 22 88 3d 28 5e 3a 3d
       0.1378833 0.11729044 0.06647229 0.04549995
000340 bd e5 42 3d 62 fd d6 3d 7f 53 1c 3d b2 45 26 3b
       0.047582377 0.10497548 0.038165566 0.0025371131
000350 2b 37 b2 bd c9 1e 0e 3b d7 4b fa bd e2 04 07 3e
       -0.08701929 0.002168583 -0.122214966 0.13185456
000360 9e d8 d9 3d d9 84 f0 bd 20 1d 23 3c 6b e5 6e bd
       0.106370196 -0.11744089 0.009955674 -0.05832426
000370 00 0a d2 3d d2 de 25 3c 6e 13 03 3e 84 21 88 bb
       0.102558136 0.010123925 0.1280038 -0.004154386
000380 64 ee 9d 3c 3e 12 94 bd c5 16 4f bc b1 4a 97 bd
       0.019278713 -0.07230042 -0.012639706 -0.07387293
000390 2d 39 45 bd cb 8d ff bd cc 95 38 3d cf bc 09 be
       -0.04815023 -0.12478217 0.045064732 -0.13450931
0003a0 d2 40 74 3c 96 48 13 be bd f7 c3 bd 50 f2 4d 3d
       0.0149080325 -0.14383158 -0.09568737 0.050279915
0003b0 79 ce a2 3c 76 21 11 3d d3 2d a2 3d 0e fe e0 bd
       0.019873844 0.0354323 0.079188965 -0.10985957
0003c0 e6 19 1d 3d a4 ac f5 3c ba 04 ba 3d 25 cd 03 3e
       0.038354777 0.029989548 0.09082933 0.12871225
0003d0 82 b0 8c 3d f8 43 54 bd 47 f4 ad bd 2e 6a 54 3d
       0.06869604 -0.051822633 -0.08493858 0.051859073
0003e0 55 35 5e 3c b7 d2 1b bc 5e 84 89 bc 37 54 3b bd
       0.01356252 -0.009510688 -0.01678675 -0.04573461
0003f0 74 36 5a bd ff f4 2c 3c 95 76 bb bd 84 ef af 3d
       -0.053274587 0.0105564585 -0.09153477 0.08590606

colorization.3.bias f4 [16]
000000 76 93 e4 bc 36 7b 04 be 38 3c bb bd 62 b9 c5 bc
       -0.027902346 -0.12937626 -0.09142345 -0.024136249
000010 0b 77 bc bc 53 28 07 be f2 df 27 bd a7 65 0e be
       -0.023005983 -0.13198976 -0.040985055 -0.13905965
000020 1a 6b cf bd 7a dd 03 be 82 66 00 be 9a 34 a3 bd
       -0.1012785 -0.12877455 -0.12539104 -0.07969017
000030 a3 26 ca bd fc 50 19 bd 68 eb 64 bd 97 95 25 bd
       -0.098706506 -0.03743075 -0.055888563 -0.040425863
