temp_transformer.pt (torch_old, 201089 bytes, 18 tensors)

fc1.weight f4 [50, 320]
000000 98 92 74 3c 40 fd 66 3c 24 be 12 3d 14 11 2a 3d
       0.014927529 0.014098465 0.035825863 0.041520193
000010 41 cc f7 bc 8c 71 c9 3c b6 26 5f 3d 40 af 6b ba
       -0.030248763 0.024590276 0.054480277 -0.0008990653
000020 26 b9 17 3d d8 0a 4b 3d 69 79 37 bd f4 9d b5 3c
       0.037041806 0.04957089 -0.04479352 0.022170044
000030 cc 1c 97 3c c4 73 91 3c c0 61 1b bc 0c 3f 13 3d
       0.018446349 0.017755397 -0.009483755 0.035948798
000040 5b 50 36 bd f0 00 b0 bc c8 57 86 3b 48 d8 82 bc
       -0.044510227 -0.021484822 0.00409982 -0.015972272
000050 38 d8 02 3c 00 6d ac b9 0c fb be 3c 9a da 38 3d
       0.007986121 -0.00032887608 0.023313068 0.04513035
000060 67 24 fb bc dc 3d ef 3c d6 75 10 3d 1a 04 21 3d
       -0.030657006 0.029204302 0.035268627 0.039310552
000070 a4 db 4f 3d 8e c9 35 bd e6 fd 1f 3d 50 e8 f2 3c
       0.050746575 -0.04438167 0.039060496 0.02965179
000080 c4 3e cd 3c 30 04 19 3d 47 1e 0d bd f0 f0 b1 3c
       0.025054343 0.03735751 -0.034452703 0.021721333
000090 20 7c 9b 3c a4 4e c5 3c cc b9 47 bc d4 fd 9e 3c
       0.018980086 0.02408535 -0.0121902935 0.019408144
0000a0 50 9f b5 bc 98 6a 2d 3c 98 b0 f8 bb dc 68 f6 3c
       -0.022170693 0.010584496 -0.007589411 0.030079298
0000b0 7b 04 21 bd 69 4d 53 bd bc 35 0a 3d 1e 44 61 bd
       -0.039310914 -0.051587496 0.03374265 -0.054996602
0000c0 0c f1 b8 bc 11 f2 d5 bc f7 de ee bc c8 e3 3a 3c
       -0.022575878 -0.026116403 -0.029159052 0.011406846
0000d0 c2 36 10 3d ba d8 13 3d 48 89 4d 3d bc 78 a1 3c
       0.03520847 0.03609536 0.05017975 0.019710891
0000e0 b0 66 9c 3c 38 e3 58 3c 28 14 4b bc 80 09 cd bc
       0.019091934 0.013237767 -0.012394942 -0.025028944
0000f0 b8 20 40 3d d5 cd ee bc 00 fd c9 3b 18 23 d2 3b
       0.046906203 -0.029150883 0.006164193 0.006412875
000100 10 13 1d 3c a0 fb f3 bc 50 32 a5 3c 8a 06 c0 bc
       0.009587064 -0.02978307 0.020165592 -0.023440618
000110 28 9d 4c 3c a8 74 3a bd fc d9 93 3c 74 5a 04 3d
       0.012488641 -0.04552141 0.018048279 0.032312825
000120 8c 31 ac 3c a4 aa 09 3d d8 6e 15 bc 34 3a 4d 3d
       0.02101972 0.03361 -0.0091206655 0.050104335
000130 38 fc 08 bd 18 e4 71 3c 68 03 2f 3d ca 21 1e 3d
       -0.03344366 0.014763854 0.042727858 0.038606443
000140 00 6f de 3c b4 bb bd bc 8e 84 ec bc 7c f7 d2 3c
       0.027152538 -0.023160793 -0.0288718 0.025752775
000150 60 f4 28 bc 28 93 94 3c 00 cb 3f 3c cb a5 d8 bc
       -0.01031217 0.018136576 0.011706114 -0.026446244
000160 4a 10 22 3d 80 49 c8 ba 32 08 45 3d 46 d6 3e 3d
       0.039566316 -0.0015280694 0.04810352 0.046591066
000170 fa b6 50 3d c4 28 d0 3c 26 e8 22 bd 4e 85 3a bd
       0.05095575 0.025410064 -0.039772175 -0.045537286
000180 f6 d9 44 3d 40 07 4d ba d8 a0 d3 3b 44 e9 72 bc
       0.048059426 -0.000782121 0.006458383 -0.014826123
000190 80 9f 83 ba a8 c3 15 bd 60 37 bb 3a 2a cf 0d 3d
       -0.0010042042 -0.036563545 0.0014283471 0.034621395
0001a0 39 25 d2 bc e4 33 4d bc 09 1b 2b bd 3c 93 8c 3c
       -0.025652515 -0.012524579 -0.04177383 0.01716005
0001b0 38 71 64 3d 58 27 61 3d 00 72 29 b9 a6 44 c6 bc
       0.055772036 0.05496916 -0.00016159564 -0.024202656
0001c0 e4 72 9c 3c 9c a5 d9 3c 48 a3 b5 3c 44 49 28 bd
       0.019097753 0.026568227 0.022172585 -0.041085497
0001d0 b0 01 9a 3b 50 a1 b6 3c 70 ad 08 bc 10 c8 8c bb
       0.004699908 0.022293717 -0.008342132 -0.0042963102
0001e0 10 06 89 bc 46 d1 48 3d fc 6a 2f 3d b2 b2 5c bd
       -0.016726524 0.049027704 0.042826638 -0.053881355
0001f0 2c 73 53 3d 64 3d e3 3c 17 4b 3f bd 8e c1 1e bd
       0.05162351 0.027739234 -0.04670247 -0.038758807
000200 f2 ec 42 bd d6 16 46 3d e8 6f bb bc 28 c9 84 3b
       -0.04758925 0.04836162 -0.02288051 0.0040523
000210 38 95 99 3b 5a 9b 43 bd 3a 30 2c 3d a0 b1 39 bd
       0.0046869777 -0.047755577 0.04203818 -0.045335412
000220 38 5f 0f bd c6 3b 2f 3d 36 65 1e 3d 74 62 f3 bc
       -0.035002917 0.042781614 0.03867074 -0.029710032
000230 f4 f2 60 3d 88 15 d1 bb d8 ce fa bb de f6 32 bd
       0.0549192 -0.0063807406 -0.007654052 -0.043692462
000240 8e a0 a4 bc 00 10 7d 3c e0 39 e2 3a 04 c7 d2 bc
       -0.02009609 0.015445709 0.001725968 -0.025729664
000250 72 99 be bc 72 b6 0a 3d a0 27 67 bb ce a7 12 bd
       -0.023266528 0.0338654 -0.003527142 -0.035804562
000260 4c d3 a6 3c 00 f1 59 3d da cc a6 bc 1e b2 2f bd
       0.020364426 0.05320835 -0.020361353 -0.042894475
000270 2c d7 cc 3c ce 20 36 bd 28 f3 55 3d 58 b5 02 3d
       0.025004946 -0.04446488 0.052233845 0.031911224
000280 ac f4 15 3d 3a 8c 44 3d 08 41 8d bb 94 3d a8 bc
       0.03661029 0.047985293 -0.004310731 -0.020537175
000290 68 26 2e 3d 58 17 76 3c 36 a8 d7 bc 30 4d 5c 3d
       0.042517096 0.015020214 -0.026325326 0.05378455
0002a0 98 5c 82 3c f8 c5 3d 3c d2 5a 0c 3d 4c c9 b7 3c
       0.015913293 0.011582844 0.0342663 0.022434853
0002b0 10 bc 5f bc 30 f0 0d bd 14 b2 83 bc a0 43 1e bd
       -0.013655677 -0.03465289 -0.016076125 -0.03863871
0002c0 30 99 4b bb 88 43 7d 3c 98 16 c7 3b 16 c2 57 3d
       -0.0031066649 0.015457995 0.0060756914 0.05267533
0002d0 15 c9 41 bd 67 69 2c bd 80 15 a5 39 72 3f 5e 3d
       -0.047310907 -0.042092707 0.0003148727 0.054259725
0002e0 40 cd 9d 3c 00 dd b8 3c f8 61 5b bd 34 f8 57 3d
       0.01926291 0.022566319 -0.053560227 0.05272694
0002f0 c0 7a a5 3a aa 90 58 bd ce e0 07 3d 60 6a 39 3d
       0.0012625083 -0.052872337 0.033173375 0.045267463
000300 26 e8 3e 3d d2 a2 16 3d b4 df 2c 3d f4 d1 20 3d
       0.046608113 0.03677637 0.042205527 0.039262727
000310 2e ea 0a 3d ac bd 91 bc 30 99 d4 3c 16 11 13 bd
       0.033914737 -0.017790638 0.025951952 -0.035904966
000320 44 0e fa 3c e9 6c ce bc 06 3b 3a 3d c0 83 01 3d
       0.03052438 -0.025198417 0.045466445 0.031619787
000330 64 40 29 3d a0 77 ea 3b d6 7e 5c 3d 2e 1e 86 bc
       0.041321173 0.0071553737 0.053831898 -0.016371813
000340 68 5e f6 3c 37 65 64 bd 63 8f 59 bd 4c e1 9a 3c
       0.030074313 -0.05576059 -0.05311526 0.018906258
000350 b0 9f 1e bd 5e c0 bb bc fc fc 96 3c e0 2f fe ba
       -0.03872651 -0.022918876 0.01843118 -0.001939293
000360 15 f6 62 bd c4 e7 3a bc 78 00 06 bc 60 89 75 bc
       -0.055410463 -0.011407796 -0.008178823 -0.014986366
000370 28 5e 22 bd 00 4a 41 ba ca 7b 05 3d 80 cc c3 3c
       -0.039640576 -0.00073733926 0.032588758 0.023901224
000380 d8 05 37 3d 68 aa 21 3d cc 4f 36 3d ea a4 9b bc
       0.044683307 0.039469153 0.044509694 -0.018999536
000390 f4 10 3e bc 6c 54 af bc 88 44 4e 3c 32 23 64 3d
       -0.011600722 -0.02140256 0.012589581 0.055697627
0003a0 10 ca 54 3c 78 64 72 3c a6 b8 20 bd 12 90 60 3d
       0.012987629 0.014794461 -0.039238594 0.054824896
0003b0 ac 39 5c bc e0 70 c8 3c 78 93 ec bc 59 10 58 bd
       -0.013441484 0.024467885 -0.028878912 -0.052749965
0003c0 83 83 df bc 28 c2 2a 3c 32 19 a5 bc 7c bb 53 bc
       -0.02728439 0.010422267 -0.020153616 -0.012923118
0003d0 d0 83 1e 3b 02 58 d0 bc f8 f9 bf bb b8 09 ff 3c
       0.0024187453 -0.02543259 -0.005858656 0.031132564
0003e0 c6 a9 57 3d b2 b6 0d 3d 9c a6 2e 3d e4 0b eb 3c
       0.052652143 0.03459806 0.04263936 0.028692193
0003f0 a0 d7 a1 3a c0 ff 08 3c 54 55 f7 3c dc 20 ec 3c
       0.0012347586 0.008361757 0.030192055 0.028824262

fc1.bias f4 [50]
000000 3e a2 c7 bc 88 d0 02 3d 08 0b 5b 3d 08 70 24 3d
       -0.024369355 0.031937152 0.053477317 0.040145904
000010 50 b9 6f bb 7a 3b 40 bd 48 ea fa 3c 08 32 42 3c
       -0.003657896 -0.04693172 0.030629292 0.011852749
000020 63 f2 49 bd 68 ef 50 3d f4 93 34 bd d8 93 47 3d
       -0.049303424 0.051009566 -0.04408641 0.04872498
000030 00 94 16 39 e8 18 50 3d ec 0c 9a 3c b7 5d 5c bd
       0.00014360249 0.050805002 0.01880499 -0.05380031
000040 60 64 e9 ba 00 05 1f ba 7a 2d 26 3d 18 c6 8a 3b
       -0.0017806403 -0.0006066114 0.040570714 0.0042350404
000050 04 ba 21 3d fc 74 f6 3c 3c c3 64 bd a0 48 db bc
       0.03948404 0.03008508 -0.055850253 -0.026768029
000060 db 3f fc bc 54 2e 3c bc 2c 3a 07 3d 3c b8 02 bc
       -0.030792167 -0.011485655 0.03301446 -0.007978495
000070 cb b5 21 bd a2 c4 5c bd 38 8d 2d bd f0 41 02 bd
       -0.039480012 -0.05389846 -0.042371005 -0.031801164
000080 d8 2d 17 bd 1c 92 a3 3c 1a 08 80 bc 10 90 b2 3c
       -0.036908954 0.019967131 -0.015628863 0.02179721
000090 fe fb 21 3d 10 5b 6e bb 14 82 43 bd b2 d0 99 bc
       0.03954696 -0.0036370195 -0.047731474 -0.018776271
0000a0 37 e1 d6 bc 18 cf 89 3c d0 22 2c 3c 45 42 2f bd
       -0.026230438 0.016822383 0.010506347 -0.04278781
0000b0 d0 aa 63 3c 58 35 e9 3c 98 f0 cb 3c 98 61 fd bb
       0.013895705 0.02846782 0.024894997 -0.0077325813
0000c0 f8 1a 5b bd 54 95 02 bc
       -0.053492516 -0.007970173

fc2.weight f4 [10, 50]
000000 00 e3 a5 3b 00 f7 96 3d 40 41 10 3b a3 eb ea bd
       0.005062461 0.0737133 0.0022011548 -0.114707254
000010 d2 5e a4 3d c7 11 00 3e 64 70 9a 3d d8 d0 dc 3d
       0.08025898 0.12506782 0.07540968 0.10782021
000020 08 9c 01 bd f0 3b 64 3c a4 b7 09 3d 3c 15 12 bd
       -0.031642944 0.013930306 0.0336224 -0.035664782
000030 36 eb 0c be a0 0d 1d bc 48 4e 36 3d 13 9d 05 3e
       -0.13761601 -0.009585768 0.04450825 0.130482
000040 52 36 9d 3d e0 5d 70 3c 40 59 1f 3b 40 e2 50 3b
       0.076763764 0.014670819 0.0024314672 0.0031873137
000050 7f 9e 06 3e 61 d2 07 3e de 5d fe 3d 40 d7 19 3c
       0.13146399 0.13263847 0.124202475 0.0093896985
000060 92 4b 90 bd 34 c2 e0 bd 00 3f 4a ba 70 7e 85 3d
       -0.07045664 -0.10974541 -0.0007715076 0.06518257
000070 5d 91 09 be a8 38 d6 bc 5c b0 ee bc 5c e0 ed bd
       -0.13434358 -0.026150063 -0.02913683 -0.11615059
000080 e0 19 64 bc 8c fe aa 3d 2b bc 86 bd 90 2e c1 3d
       -0.013922185 0.08349332 -0.06578859 0.09432709
000090 86 ba e0 3d e4 15 14 bd 9e 63 37 bd 40 41 16 3c
       0.109730765 -0.03615369 -0.044772737 0.00917083
0000a0 00 c6 d0 b9 67 4c 00 3e fe be 07 be b0 e4 de 3c
       -0.00039820373 0.12529145 -0.13256451 0.027208656
0000b0 84 81 ba 3d 70 5e e5 3c 1a 9c 81 bd 6e 17 fc bd
       0.091067344 0.027999133 -0.06328602 -0.12309156
0000c0 6e 20 a0 bd 42 dd 3c bd b8 e7 3f 3d 1c 93 20 3d
       -0.078186855 -0.046109445 0.046851844 0.039202794
0000d0 f2 68 e5 3d 08 77 8b 3c b8 9d 81 3c 84 8b 09 3d
       0.11201657 0.017024532 0.015822276 0.033580318
0000e0 57 3a 0b 3e 12 ac be bd de 90 9c 3d c3 ce 08 be
       0.13596474 -0.093101636 0.07644819 -0.13360123
0000f0 70 06 3d 3c 04 a6 68 3d 6a 21 d9 3d 10 cc a8 3d
       0.011537179 0.05679895 0.10602076 0.08242047
000100 bb 38 0b 3e 2a f2 9f 3d 43 ae fd bd 0e 1a e1 3d
       0.1359586 0.07809861 -0.123867534 0.10991298
000110 40 bd 5b bc 82 bb c0 bd 08 9f a5 3c ac 4d c6 bc
       -0.01341182 -0.09410764 0.020217434 -0.024206959
000120 00 d2 50 bc e2 1a e6 3d 41 e9 01 3e 6e b2 90 3d
       -0.01274538 0.11235596 0.12686636 0.07065283
000130 a0 75 fa bc 60 34 c6 bb ec d5 8f bc fe f9 ad 3d
       -0.030573666 -0.006048724 -0.01755806 0.08494948
000140 50 73 10 3d 12 8f 61 bd 9c 68 71 3d 50 47 3b bd
       0.03526622 -0.055068083 0.058937654 -0.045722306
000150 89 af 0c be 74 da ce bc 04 c8 f4 bc 6c 11 e5 bd
       -0.13738836 -0.025250651 -0.029880531 -0.111849636
000160 b2 cc d3 bd 46 84 ff 3d dc 29 95 bc 18 63 ba 3d
       -0.10341777 0.12476401 -0.018208437 0.09100932
000170 ed ab 0f 3e 77 43 03 3e ef 9e 9f bd 48 97 36 bd
       0.14030428 0.12818705 -0.07793986 -0.044577867
000180 ce 98 d7 3d 39 69 fd bd ac 7a 2f bd 09 12 05 3e
       0.10527192 -0.12373585 -0.0428416 0.12995161
000190 a0 b2 a0 3b c0 78 98 bc e8 3c 3a bd 0a bf dd 3d
       0.0049041063 -0.018612266 -0.04546824 0.108274534
0001a0 8c 0e 44 bd cd 31 0b be 27 e6 0e 3e ec 34 89 bd
       -0.047865435 -0.13593216 0.13954984 -0.06699547
0001b0 62 f6 f9 bd e2 94 61 bd a8 53 15 3d 88 fd f5 3c
       -0.12205197 -0.055073626 0.036456734 0.03002812
0001c0 c1 cd 9e bd 3f 37 04 be 10 64 4b 3d 20 b5 b9 bc
       -0.07754088 -0.129117 0.049655974 -0.022669375
0001d0 e4 07 28 3d 20 7c e0 3c 28 18 da 3d dc 3f 53 3d
       0.04102315 0.027402937 0.10649139 0.051574573
0001e0 f2 b0 34 bd 5a 5b c1 3d 80 92 9c 3d e9 b5 ef bd
       -0.04411406 0.09441252 0.0764513 -0.117046185
0001f0 de cf aa bd 24 52 3a 3d 3a 90 d2 3d b4 63 8b bd
       -0.08340429 0.04548849 0.10281415 -0.06806126
000200 38 8b 26 3d 30 49 bb 3c 90 2a 4d 3d c0 f7 b3 bd
       0.040660113 0.022862047 0.05008942 -0.08787489
000210 1a 78 a7 3d 30 79 3c bd 96 a9 c9 3d d7 ab 0b 3e
       0.081772044 -0.04601401 0.09846799 0.1363977
000220 90 e5 75 bc 87 c7 0b be 11 25 0d 3e 42 3f d8 bd
       -0.015008345 -0.13650332 0.13783671 -0.105589405
000230 0a 13 97 3d 7e 50 cf 3d 90 74 53 3c 6c b5 3f 3d
       0.07376678 0.101227745 0.012906209 0.046803877
000240 86 89 af 3d 48 36 6b bd ca a2 ed 3d 24 54 dd 3d
       0.085711524 -0.057424814 0.11603315 0.10807064
000250 00 b5 7e bc 7e 8e a0 3d 4c 3a 13 bd 04 3d 7a bd
       -0.015546083 0.07839678 -0.035944268 -0.061093345
000260 d8 40 73 3d 22 5a c1 bd 9c ba 90 3d 40 0c 92 3c
       0.05938801 -0.094410196 0.07066843 0.017828107
000270 3a 11 e9 3d 8d 46 81 bd d0 f3 0f 3c b0 8c 33 3d
       0.11380239 -0.063122846 0.008786157 0.043835342
000280 a0 39 dc 3d 68 ff ac 3d 2c 9e 94 3d cc d9 54 3d
       0.107531786 0.084471524 0.072567314 0.05196552
000290 72 c9 a2 3d 16 bb f2 3d 9c 1d a9 bc 6c 52 75 3d
       0.07948579 0.1185209 -0.020644002 0.059893057
0002a0 52 b5 ea 3d 12 4c e3 3d c4 3d 96 bd 58 25 f3 3c
       0.11460365 0.11098494 -0.073359996 0.029680893
0002b0 dd 91 a7 bd be 3a ac 3d 40 d8 2a bc 2e ef a4 3d
       -0.08182118 0.08409642 -0.010427535 0.080534324
0002c0 e0 2d 22 3d eb 9a 06 be 74 40 4b 3d ee dc de bd
       0.03959453 -0.13145034 0.049622014 -0.10881983
0002d0 fa 40 55 bd 80 fd dc bc e0 af 2b 3d 3d af 03 3e
       -0.05206392 -0.026976347 0.041915774 0.12859817
0002e0 27 11 b1 bd 00 a3 6f bb 80 66 ae 3d 6e 00 fb 3d
       -0.0864585 -0.0036565661 0.08515644 0.12255941
0002f0 02 f8 ef bd 80 bf db 3b d8 c8 8a 3c 3e c6 84 3d
       -0.117172256 0.006706178 0.016941473 0.06483124
000300 aa d0 e9 3d 69 80 05 3e 34 00 4a bd c0 b6 5d 3c
       0.11416753 0.13037266 -0.0493166 0.0135323405
000310 d4 16 05 bd e4 4e e8 bd 8a f6 8e bd 50 b5 03 bc
       -0.032492474 -0.11343172 -0.06980617 -0.008038834
000320 00 21 78 3a d6 cf dc bd 68 50 e5 bd 9c 06 15 3d
       0.00094653666 -0.10781829 -0.11196977 0.036383256
000330 be d5 81 bd 72 5b cf bd 74 bb b1 bc 24 71 82 3d
       -0.06339596 -0.10124864 -0.02169583 0.06369236
000340 c0 84 4e bb fc bd fe bc 3c 29 19 bd 46 c6 77 bd
       -0.003151223 -0.031096451 -0.03739284 -0.060491823
000350 c8 5a 8f bd 00 5a 58 3b ea ca 8c bd 3c cd b4 bd
       -0.06999737 0.0033012629 -0.0687464 -0.08828208
000360 57 b4 e1 bd 48 60 51 3d ea b1 d0 3d 00 64 45 3b
       -0.11020725 0.05111721 0.101901844 0.003011942
000370 26 16 0b bd ca 56 d0 3d 6c 6f bb bc d8 c4 84 3c
       -0.03395667 0.10172804 -0.022880279 0.016207144
000380 60 5c 73 3c 24 36 62 bd 56 ac 74 bd e4 72 c0 bc
       0.014853567 -0.055227414 -0.059734665 -0.023492284
000390 f7 da ef bd 34 81 79 bd ae 37 9e 3d c0 ad 52 bb
       -0.11711686 -0.060914233 0.07725464 -0.003214702
0003a0 5a d2 e3 3d d2 d7 e4 3d a0 06 aa 3c 20 49 55 3d
       0.11124106 0.11173977 0.020755112 0.05207169
0003b0 a0 f1 8f bb 40 f9 86 bd 0e af e5 3d 27 d6 0b 3e
       -0.0043928176 -0.065905094 0.1121503 0.13655911
0003c0 ac e2 bf 3d fc 44 24 3d ce e9 fa 3d 90 4c d5 3d
       0.09369406 0.04010485 0.12251626 0.10414994
0003d0 ec e0 cb 3d 92 e0 ff bd 40 74 6f bb 18 f4 8c 3d
       0.0995501 -0.12494005 -0.0036537796 0.06882495
0003e0 a2 87 f4 3d 34 78 70 3d 94 a9 4c 3d a0 5f 6c 3d
       0.119399324 0.058708385 0.04996641 0.057708383
0003f0 35 f2 dc bd 94 85 b5 bc d0 4f c6 3d ba 91 88 3d
       -0.10788385 -0.022158422 0.09683192 0.0666842

fc2.bias f4 [10]
000000 fd 38 03 3e 96 cf 58 bd 68 75 83 bc 42 18 1f bd
       0.12814708 -0.052932344 -0.016047195 -0.038841493
000010 81 d1 a7 bd 6c 71 6a bd 1e ec 7b bd 9a 23 6e bd
       -0.081942566 -0.057237074 -0.061504476 -0.05813942
000020 6c 57 cf bd f0 20 5f bc
       -0.10124096 -0.013618693

localization.0.weight f4 [6, 3, 5, 5]
000000 25 26 66 bd 10 7a cc 3b 48 44 0d 3d 10 93 ab 3b
       -0.05618872 0.006240137 0.034488946 0.005236037
000010 86 dc 8c bd 45 57 c9 bd a4 89 b5 3d 00 d5 71 3c
       -0.06877999 -0.098310985 0.088641435 0.014760256
000020 4f 03 df bd e0 d5 a6 bd f8 67 e6 3c e0 d5 5c 3d
       -0.10889303 -0.08146262 0.028125748 0.053914905
000030 cc 45 a4 bd 98 ae 49 3d 38 13 be 3c 84 0b 56 3d
       -0.08021125 0.04923877 0.023202524 0.052257076
000040 56 58 9c 3d 78 35 1d bd b2 92 d5 bd 31 47 dc bd
       0.07634036 -0.03838107 -0.104283705 -0.10755766
000050 74 0a 64 3d 5c 2c 3b bd a4 4e a7 3d 70 d7 9f 3b
       0.05567403 -0.0456966 0.081692964 0.004877977
000060 7a b1 ad bd c6 15 a0 bd 87 d1 c5 bd 56 11 b8 3d
       -0.084811166 -0.07816653 -0.09659105 0.089876816
000070 5c 01 cf bc c6 f0 b0 3d d0 ad ba 3c c0 bc 85 bc
       -0.025269203 0.08639674 0.022787958 -0.016325355
000080 24 f0 86 3d 84 cc eb bc f8 88 3f 3d 40 71 03 3d
       0.06588772 -0.028784044 0.046761483 0.032090425
000090 18 eb a2 3d a0 47 d1 3c 4f 00 87 bd 00 bd 88 bc
       0.07954997 0.025546849 -0.06591856 -0.016691685
0000a0 9a bf 32 bd a8 50 9f bd 7a a6 e8 3d 40 3a 07 bd
       -0.043639757 -0.07779056 0.11359878 -0.033014536
0000b0 13 8b a0 bd 7a b1 1a bd cb 59 8e bd 2c c6 b4 3d
       -0.07839026 -0.03776691 -0.069507204 0.08826861
0000c0 86 cc bb 3d 7c 15 82 3d 28 c2 d4 3d 98 1b 6b bd
       0.09169869 0.06351754 0.10388595 -0.057399362
0000d0 be 5a da 3d 2a 40 2d bd 2c a1 96 3d e2 41 41 bd
       0.10661839 -0.04229752 0.0735496 -0.04718197
0000e0 dc 59 dc 3d ba f2 0e bd 78 66 bd 3d d6 b6 e8 3d
       0.10759327 -0.03489945 0.0924806 0.11362998
0000f0 3f d9 5f bd d0 9d 5d bd 5e c0 08 bd d0 42 38 bd
       -0.05465054 -0.05410558 -0.03338658 -0.044985592
000100 5c 02 a2 bd 84 0c 1e bd 16 ee 84 3d 80 2e 73 3b
       -0.07910606 -0.038586155 0.06490724 0.0037106574
000110 a0 89 ea 3b 28 75 4e bd 94 42 d1 bd f8 bc 53 3d
       0.0071575195 -0.050404698 -0.10217777 0.051693887
000120 f0 0a 5c bd c0 63 df bd c8 63 6c bc 70 43 8b bd
       -0.05372137 -0.10907698 -0.014428087 -0.06799972
000130 14 1b 33 3d a0 fa 7d 3d bc 0c 26 3d 78 4a fb 3c
       0.043726996 0.062006593 0.04053949 0.030675158
000140 88 32 1a 3d 46 92 42 bd b4 90 40 3d 9c 4f eb 3d
       0.037645847 -0.04750278 0.047013 0.11489794
000150 6a ff e4 3d 30 e2 b2 3d 8c 7c 8e bd 95 ed 97 bd
       0.11181529 0.08734548 -0.06957349 -0.07418362
000160 a8 aa e3 bd 10 c4 bd bd e8 60 d4 3c b0 23 6f bc
       -0.111165345 -0.092659116 0.025925115 -0.014595911
000170 01 20 bc bd b0 61 ce 3c c0 6e d0 ba 8e eb a3 bd
       -0.09185792 0.025193065 -0.0015902147 -0.08003913
000180 34 9e 2d 3d c9 a7 c7 bd 28 6e 3e bd e4 0e fd bc
       0.042387202 -0.09748799 -0.046491772 -0.03089089
000190 92 e9 c2 3d 18 44 bc bd 5e 81 c0 bd 9f 2b 79 bd
       0.09517206 -0.09192675 -0.09399675 -0.060832616
0001a0 fa 48 9b 3d f3 01 b8 bd 86 a3 24 bd 18 df 0e 3c
       0.075822785 -0.08984747 -0.04019501 0.008720182
0001b0 ec 65 92 bd 4e 4c 9c bd 80 c6 a3 3d b0 8a 54 bd
       -0.07148346 -0.076317415 0.07996845 -0.051890075
0001c0 1e de 40 bd 6c 51 9a 3d d5 61 e5 bd 4c 2f 08 bd
       -0.047086827 0.07535061 -0.112003006 -0.03324823
0001d0 52 50 eb 3d 88 4a b2 bd 28 8a 88 3c fd 37 ca bd
       0.11489929 -0.08705622 0.01666744 -0.0987396
0001e0 a8 f6 9d 3d aa ec 59 bd cc 2a 86 bc d8 28 c8 bc
       0.077130616 -0.053204216 -0.016377829 -0.024433538
0001f0 16 2f a8 bd 94 40 68 3d 90 6a 24 bd 24 e8 33 3d
       -0.08212106 0.05670221 -0.04014069 0.04392256
000200 e0 87 46 bb d0 11 e4 3b 67 12 70 bd b0 b9 3b 3d
       -0.003029339 0.006960131 -0.0586113 0.045831382
000210 f8 51 2c 3d 94 f0 6b 3d da a2 ae bd 00 be 5d bc
       0.04207036 0.05760248 -0.08527155 -0.013534069
000220 e0 29 02 3c 20 ca 22 3c 30 05 bb bd 48 2c 3b 3d
       0.007944554 0.009935886 -0.09131849 0.045696527
000230 d8 dc a3 bd 10 0d ae bc dc 7c ca 3d 2b c7 97 bd
       -0.08001107 -0.021246463 0.09887096 -0.07411035
000240 12 a2 c1 3d 8e 54 19 bd 2e 44 1d bd 10 b6 16 3c
       0.094547406 -0.037434153 -0.0383951 0.0091986805
000250 9c 4d dd 3d 44 cb 3e bd 90 25 e3 bb c0 5a c5 3b
       0.108058184 -0.046580568 -0.006931968 0.006022781
000260 ee 0b 09 bd 40 ff e3 3c 15 04 b7 bd 88 e1 8c 3c
       -0.033458643 0.027831674 -0.089363255 0.017197385
000270 f6 31 3b bd 00 9d 16 3d e4 bd 26 3d aa b1 ab 3d
       -0.045701943 0.03677082 0.040708438 0.08383496
000280 70 d0 50 3d b0 b8 b0 3c 40 48 06 bc 70 d8 2a 3d
       0.05098003 0.02157244 -0.008195937 0.041710317
000290 2c 1d e8 3d 40 23 33 3c a0 f3 88 bc 80 86 ce bb
       0.11333689 0.010933697 -0.016717732 -0.0063026547
0002a0 60 ea e1 3d 0a 62 81 3d fc 03 aa bd 9c d1 44 3d
       0.110310316 0.063175276 -0.08301541 0.04805146
0002b0 f8 02 64 3d 17 9e d2 bd fc 08 d6 3d 9e 78 d7 3d
       0.055666894 -0.102840595 0.104509324 0.10521053
0002c0 1c 33 b0 3d 00 6e 29 ba f4 a0 0c 3d 77 f4 c7 bd
       0.08603498 -0.00064632297 0.034333184 -0.09763425
0002d0 48 cc c2 bd 98 87 1a bd bc d9 42 3d 32 82 ce bd
       -0.0951162 -0.03772697 0.04757093 -0.100834265
0002e0 2b 47 6c bd f0 b5 8d 3d 48 16 1c bd a0 9c 31 3c
       -0.05768506 0.069194674 -0.038107187 0.010840565
0002f0 68 92 ea 3d f5 ac a8 bd 0a 10 b0 bd 82 de 20 bd
       0.11453706 -0.08236114 -0.08596809 -0.0392747
000300 a8 55 0a 3d dc e2 6e 3d a0 b6 ae bb be 11 a2 3d
       0.033773094 0.05832182 -0.005331829 0.0791354
000310 47 8a e0 bd a8 54 4e 3d 1a ae 14 bd 04 26 6f 3d
       -0.10963874 0.050373703 -0.03629885 0.058385864
000320 74 8c b9 bd d8 2b ea 3d a6 b9 5b bd b2 46 cf bd
       -0.090599924 0.11434144 -0.053643845 -0.10120906
000330 7f 47 96 bd 42 6f c6 bd d8 f8 5d 3d 14 ef 83 3d
       -0.073378555 -0.096891895 0.054192394 0.06442085
000340 e0 e1 6b 3d 60 e4 82 bc e4 79 cb bd b8 87 03 3d
       0.057588458 -0.015978038 -0.09935358 0.032111853
000350 b0 35 97 3b 59 51 7f bd 24 53 6a 3d c0 53 5b bb
       0.0046145543 -0.06233344 0.057208195 -0.0033466667
000360 8e f3 bc 3d 60 0c c5 3c 28 cd ef bc 5a e5 a9 3d
       0.09226142 0.024053752 -0.02927263 0.082956985
000370 38 bf d6 3d 44 fa c2 bc 68 ea 8c 3d 06 40 b8 3d
       0.10485691 -0.023800977 0.06880647 0.089965865
000380 88 93 e8 3d aa 58 a9 3d 04 c8 ae bc a1 42 78 bd
       0.11356264 0.082688645 -0.02133561 -0.060610417
000390 6c 13 05 3d 54 69 7d bd 9c be 06 3d 8c 06 60 3d
       0.032489225 -0.061868027 0.032896623 0.054693744
0003a0 36 a5 b1 3d a6 d6 cd bd 8c 79 b6 bc 28 51 0d bc
       0.086740896 -0.100507066 -0.022274755 -0.008625306
0003b0 48 68 e0 3c d4 00 19 3d f6 c8 66 bd a0 5d 14 bc
       0.027393475 0.037354305 -0.056343995 -0.009055525
0003c0 7a 18 88 3d 44 9a a7 3d 80 85 07 3b b4 27 ca 3d
       0.066452935 0.08183721 0.0020678937 0.09870854
0003d0 da 2a a2 3d c8 0f e4 bd 02 e5 0c bd 44 00 e6 bd
       0.079183295 -0.111358225 -0.034398086 -0.112305194
0003e0 2a a4 a7 bd c4 49 49 3d cc d2 4b 3d d8 4d b8 bd
       -0.08185609 0.049142614 0.04976158 -0.089992225
0003f0 da d4 6b bd 62 6e 49 bd 7c f7 ab bd 70 54 bb bd
       -0.057576038 -0.049177535 -0.08396813 -0.091469646

localization.0.bias f4 [6]
000000 ac 85 e9 bc c0 a1 e2 3c 68 85 f9 3c fa 38 be bd
       -0.028506123 0.027665019 0.03045912 -0.09288211
000010 c8 d0 fb 3c 28 43 4d bd
       0.030739203 -0.050112873

localization.3.weight f4 [16, 6, 5, 5]
000000 4a 7d a5 bd 30 d1 95 bb 58 3e 0c 3c c0 33 25 3c
       -0.080805376 -0.0045720562 0.008559786 0.010083139
000010 00 fb f3 3a 14 ed 5b 3d 24 4d 92 3d 0c 51 99 3c
       0.0018614233 0.053692892 0.0714362 0.018715404
000020 d0 19 7d bd e0 b6 00 3b 46 37 2f 3d 70 9f 68 3c
       -0.061792195 0.0019640252 0.042777322 0.014198169
000030 84 d4 a3 bc 00 8a 24 ba 48 1f 80 bc b3 ab 3a bd
       -0.019998796 -0.0006276667 -0.015639916 -0.0455739
000040 b8 18 72 bd c4 2f 5a bd da a5 62 bd 30 04 14 3d
       -0.059105605 -0.05326821 -0.05533395 0.036136806
000050 44 ef 8f bd 78 5e a2 3c 08 6b 45 3c 64 74 a0 3d
       -0.07028058 0.019820437 0.012049444 0.078347
000060 80 1b 63 bc c6 fb f7 bc dc fd 76 3d 08 03 c9 3c
       -0.013861537 -0.030271422 0.060300693 0.024537578
000070 cc 2c 9c bd d8 0e 6b 3d a0 f6 7e bb 4d 87 2b bd
       -0.07625732 0.057387203 -0.0038904324 -0.04187708
000080 08 77 45 bc 00 15 2e 3d 00 49 c7 ba 26 19 2c 3d
       -0.012052305 0.042500496 -0.0015204251 0.04201617
000090 90 bc b1 3c 00 96 24 bc 40 5d 33 bc 2c 63 5e 3d
       0.021696359 -0.010045528 -0.0109475255 0.054293796
0000a0 d2 a5 93 3d a0 18 b2 3b 54 2a c2 3c 78 a5 22 bd
       0.07209362 0.0054350644 0.023701824 -0.039708585
0000b0 c4 0b 7a 3d 40 72 1f 3c d4 ab 7e 3d 78 31 fe 3c
       0.061046377 0.009731829 0.062175587 0.031029448
0000c0 a0 22 9b bb b8 51 23 3c fe 2f 52 bd 7b 18 11 bd
       -0.004734352 0.009968214 -0.0513153 -0.035423737
0000d0 d8 32 c0 bc 90 f7 6b bd 6c 3f 7a 3d 20 9f 5e bd
       -0.023461744 -0.05760914 0.06109564 -0.054350972
0000e0 c6 fe 92 3d 06 3d 63 bd d9 34 35 bd c8 44 91 bd
       0.071775004 -0.05547812 -0.044239853 -0.07093197
0000f0 cc 8e ef bc e0 cd 3f 3b 78 5f 46 3d e2 07 90 3d
       -0.029242896 0.0029266998 0.04843089 0.070327535
000100 f0 b6 c8 bb fc 10 7a 3d f4 52 4c 3d 38 51 df 3c
       -0.0061253235 0.061051354 0.049883798 0.027260408
000110 30 f0 8c bc 40 ef 5d bb 26 d8 a5 bc 0c 0a 76 3d
       -0.017204374 -0.0033864528 -0.02024467 0.060068175
000120 c0 c7 af ba 86 63 e7 bc 44 10 10 3d 84 f5 a8 3c
       -0.001341097 -0.028245699 0.035171762 0.020624883
000130 98 36 ec bc 18 78 58 3d fa 3d 76 bd 39 32 04 bd
       -0.028834626 0.052848905 -0.0601177 -0.03227446
000140 f7 59 88 bd 7e 1a 87 bd f1 f3 49 bd 90 6e 75 3d
       -0.066577844 -0.0659685 -0.049304906 0.059919894
000150 48 53 8a bc 1e 03 b0 bc 92 6c 4a bd ac 03 61 3d
       -0.016885415 -0.021485861 -0.049419947 0.054935142
000160 e4 3f 90 3c 00 78 90 3a 84 95 93 3c f8 9c a0 3c
       0.01760859 0.0011022091 0.01801563 0.019606099
000170 d4 0a a2 3d 7a a1 6c bd 74 c4 4c 3d 64 c3 7d 3d
       0.079122216 -0.057771184 0.04999204 0.061953917
000180 f5 92 65 bd 00 68 e4 39 5c bd d7 bc 04 0c 6a 3d
       -0.056048352 0.00043565035 -0.02633541 0.057140365
000190 48 88 00 bc 90 9b 24 3c 7c 16 88 3d 20 bd a7 bb
       -0.007844992 0.010046855 0.066449136 -0.005118981
0001a0 30 24 90 bb 98 cb 9e 3d 68 21 e2 3c 04 0b 8c bd
       -0.004398845 0.07753676 0.02760382 -0.068380386
0001b0 e6 33 0d 3d 64 34 85 3d ba 16 96 bd 1d 56 21 bd
       0.034473322 0.06504133 -0.073285535 -0.039388765
0001c0 00 c9 49 bb 70 4c 23 3c 6a c0 8a 3d c0 1c 48 bc
       -0.0030789971 0.009966955 0.06774981 -0.012213886
0001d0 d0 a4 85 bd 60 b6 9a 3c a0 31 db bc ef c3 4a bd
       -0.06525576 0.018885791 -0.026757061 -0.049503263
0001e0 25 9e 6f bd 50 54 6b bc d4 e2 e8 bc 08 bd 7a bd
       -0.058500428 -0.014363363 -0.028428473 -0.06121543
0001f0 2c 22 6f bd 38 39 bc bc 32 5e 87 3d 31 3f 52 bd
       -0.0583822 -0.022976503 0.06609763 -0.051329795
000200 00 c1 65 3a 64 06 3f bd 88 45 86 bd e4 14 99 3d
       0.0008764416 -0.046636954 -0.06556231 0.07474688
000210 88 04 18 3d 6c 24 88 3d 0c 68 f4 3c 2c bf 12 3d
       0.037113696 0.06647572 0.02983477 0.035826847
000220 26 19 12 3d c8 cc 83 bd 1a 8e 23 3d 94 f2 81 bc
       0.035668515 -0.06435543 0.03993044 -0.01586274
000230 08 e1 7d 3d 80 bd eb bb 80 33 ef ba 40 dc 41 3c
       0.061982185 -0.007194221 -0.0018249601 0.011832297
000240 f0 dc 49 3d 52 7d 90 3d 14 fe 37 bd e0 f4 64 bd
       0.049282968 0.07055153 -0.044920042 -0.055897593
000250 c8 86 3b 3d f2 40 48 bd c8 07 8e 3d 6c 31 d8 3c
       0.045782834 -0.04889006 0.06935078 0.026390754
000260 27 93 4b bd 64 30 67 3d 80 4b c6 bb b4 8b 08 3d
       -0.049700882 0.056442633 -0.006051481 0.033336356
000270 80 16 4c 3d 60 ca 7c 3c 08 5f f2 3c 58 34 21 3c
       0.049826145 0.015429109 0.02958633 0.00983914
000280 6c e4 86 3c 84 c0 80 3d 9b 8b 94 bd 10 7f b9 bb
       0.016466342 0.062867194 -0.0725319 -0.005660899
000290 c6 86 25 3d 50 a4 9f 3d 6c 54 94 bd c0 11 fc 3b
       0.040411733 0.07795012 -0.07242665 0.0076925457
0002a0 70 87 89 3b f8 3a 44 bc 54 6f 74 3d 13 2e 5a bd
       0.0041970536 -0.01197695 0.059676483 -0.053266596
0002b0 20 af a3 3b a4 bb 04 bd 66 1e 4d bd 60 5b 55 3c
       0.0049952418 -0.03240551 -0.05007782 0.013022274
0002c0 fc 37 9b bd 55 b6 82 bd d8 bb 7b 3d 68 5d 46 3c
       -0.075790375 -0.06382433 0.06145844 0.012107231
0002d0 a0 25 62 3c de 95 92 3d 40 3c ff 3b 1a e9 ea bc
       0.013802916 0.07157491 0.007789165 -0.028675605
0002e0 24 d6 c3 3c e8 21 02 bc 56 11 bc bc 74 e2 a0 3d
       0.023905821 -0.007942654 -0.022957485 0.078556925
0002f0 ca af c7 bc f4 ed 94 bd c4 11 0d 3d 1a 1a 68 bd
       -0.024375815 -0.072719485 0.03444077 -0.056665517
000300 b6 03 93 3d 4a eb 9c bc ae d2 a6 3d a7 b4 36 bd
       0.07178442 -0.019155163 0.08145653 -0.044605877
000310 08 09 60 3d 34 0c 64 bd 70 0a 77 3d b0 23 69 bc
       0.054696113 -0.0556757 0.06031269 -0.0142297
000320 e0 b5 0d 3c 74 9e ee 3c 13 37 9a bd fe 5f 2b 3d
       0.008649319 0.02912829 -0.07530036 0.041839592
000330 a0 ea 83 3b 00 d8 61 b9 22 f7 66 bd dc da a2 bd
       0.004025772 -0.00021538138 -0.056388028 -0.079519
000340 84 aa d7 3c f0 bf 1a bc 05 fb 9c bd 54 22 fe 3c
       0.026326425 -0.0094451755 -0.07665066 0.031022228
000350 40 05 92 3a d0 c8 13 3c 3c d6 7f 3d a8 08 44 bd
       0.0011140481 0.009020045 0.06246017 -0.047859818
000360 ae d7 89 3d 2a a2 a5 bd 66 c0 88 bd 3c f0 9b 3d
       0.06730591 -0.08087571 -0.06677322 0.076141804
000370 f4 96 bf bc eb 29 8a bd 40 f5 9f bb ac b5 48 bd
       -0.02338741 -0.067462765 -0.004881531 -0.04900138
000380 31 8c 39 bd 5e 0c 1f 3d 80 7e 83 3d 74 a8 f7 3c
       -0.045299713 0.038830154 0.06420612 0.030231692
000390 76 5c 5a bd f8 c0 27 3d 81 23 65 bd c4 c4 8e 3d
       -0.053310834 0.040955514 -0.055942062 0.06971124
0003a0 d8 3c 21 bc c0 92 ce bb 80 e2 80 3c 10 17 49 3d
       -0.009841166 -0.006304115 0.015733004 0.04909426
0003b0 21 e6 98 bd f8 5b 78 bc 80 a0 86 3d 46 4c 6f bd
       -0.074657686 -0.015158646 0.06573582 -0.05842235
0003c0 c4 03 8f 3d 44 39 5f 3d d1 52 9c bd 10 d8 2b 3d
       0.0698314 0.054497972 -0.076329835 0.0419541
0003d0 ad e0 93 bd b0 4d c8 3b 00 36 72 b9 98 98 23 3c
       -0.07220588 0.0061127767 -0.00023099035 0.009985112
0003e0 00 9b 07 3a b0 c1 84 3d 98 3d 7e 3d 78 05 b7 3c
       0.0005172938 0.064822555 0.06207046 0.022341475
0003f0 80 9d 7b 3a 60 e4 1d bb 70 24 24 3d 08 92 aa bc
       0.00095983595 -0.002409242 0.040073812 -0.020821586

localization.3.bias f4 [16]
000000 3c 1e 07 bd 3b b0 66 bd cc a4 59 3d f4 2a fa bc
       -0.032987818 -0.05632041 0.05313568 -0.03053806
000010 48 b7 97 bc 9e 2b e4 bc c0 32 7c bc 3c 10 c4 bc
       -0.018520012 -0.02785283 -0.015392959 -0.023933522
000020 40 78 b2 bc 10 e1 87 bb ac 3c 61 bd 90 06 ec bb
       -0.021785855 -0.0041467026 -0.0549895 -0.0072029307
000030 19 d9 25 bd f4 3a 86 bd 04 94 7e bd 28 e5 68 3c
       -0.040490244 -0.06554213 -0.062152877 0.014214791

colorization.0.weight f4 [6, 3, 5, 5]
000000 30 71 30 3c da ac b3 bd dc c2 c9 3d 47 03 9d bd
       0.0107691735 -0.08773203 0.098516196 -0.07666641
000010 a4 69 72 3d 68 bd 9b bc 86 44 a9 bd 96 87 8a 3d
       0.059182778 -0.019011214 -0.08265023 0.06764142
000020 cc 6e 2c 3d 65 a3 e4 bd 30 95 6d bc 28 96 dd 3c
       0.04209785 -0.111639775 -0.014500901 0.02704914
000030 28 f7 9e 3d 96 11 28 bd 6e e8 d8 3d ee 83 e6 3d
       0.07761985 -0.041032396 0.105912074 0.11255632
000040 20 f1 6a bc e8 0b e1 bd 80 52 d4 3d a0 eb 37 3d
       -0.014339715 -0.10988599 0.10367298 0.044902444
000050 86 c1 94 3d d2 0d a6 3d be 71 46 bd d0 0e 00 bd
       0.07263474 0.08108105 -0.048448317 -0.031264126
000060 fa 35 c0 bd b0 83 29 3d 60 e7 a5 3b 38 ab 14 bd
       -0.09385295 0.041385353 0.0050629824 -0.0362961
000070 40 46 b1 bb a0 e5 ea bc 18 68 3d bd 00 4c 6c 3b
       -0.005409986 -0.028673947 -0.04624185 0.0036056042
000080 ee 7a 92 bd f4 b0 90 bd 80 e1 aa 3b b5 f9 97 bd
       -0.07152353 -0.07065001 0.00521487 -0.07420675
000090 98 e9 b4 bd b8 03 88 3c 78 5d 81 bd 73 92 a8 bd
       -0.08833617 0.016603336 -0.06316656 -0.08231058
0000a0 58 23 b0 3c b0 d5 2b 3d 95 1f b6 bd d0 31 58 3d
       0.021501228 0.041951835 -0.088927425 0.05278188
0000b0 0a b6 a4 3d 68 5c cf 3d d0 07 8c 3c a8 07 a4 3d
       0.08042534 0.10125047 0.017093569 0.08009273
0000c0 24 75 e1 3d dc 9c 61 3d e4 13 37 3d 48 03 0c 3c
       0.11008671 0.055081233 0.044696704 0.008545704
0000d0 6a d4 b8 3d 20 ab 87 bd f9 e5 8e bd d8 b3 57 bc
       0.0902489 -0.066244364 -0.069774576 -0.013165437
0000e0 76 e2 9d 3d 8c 7c 4d 3d 16 16 a6 bd 50 36 17 bd
       0.077092096 0.050167605 -0.08109681 -0.03691703
0000f0 e0 6b c9 bd 18 0a 23 bc a7 d4 ca bd 72 19 2a bd
       -0.09835029 -0.009951137 -0.099038415 -0.041528173
000100 80 3c d6 3c 26 cd a5 bd aa d5 16 bd 88 82 79 3d
       0.026151896 -0.080957696 -0.03682486 0.0609155
000110 2e 86 0a bd 10 b3 44 3c f2 60 b9 3d be ff 82 3d
       -0.03381937 0.012005582 0.09051694 0.06396435
000120 84 27 1b 3d 4f 7e a0 bd 42 15 9f bd 48 ec 41 bd
       0.037879482 -0.078365915 -0.077677265 -0.047344476
000130 98 75 6c 3d f0 41 94 bc e0 58 aa bc e4 eb cb 3d
       0.057729334 -0.018097848 -0.020794332 0.09957102
000140 b6 a1 86 bd d0 d7 9a 3c 30 57 0a bc 96 85 87 bd
       -0.06573813 0.018901736 -0.008443639 -0.06617276
000150 7e 8e c3 3d 33 53 b7 bd a7 dc c4 bd 80 52 75 bd
       0.095486626 -0.08951416 -0.096123986 -0.05989313
000160 a1 70 97 bd f4 5d e1 bc 30 bc cf bb 30 6c bf bc
       -0.07394529 -0.02751062 -0.0063395724 -0.023367018
000170 88 31 d9 3c 48 d6 3f bc 2f 63 95 bd 02 c4 a0 bd
       0.026512876 -0.0117088035 -0.072943084 -0.078498855
000180 a8 de 60 bd e8 39 b2 bd 20 f2 aa 3b 2a 05 ea 3d
       -0.05489984 -0.08702451 0.005216852 0.11426766
000190 d8 c2 52 3d d0 c2 96 bb 8a db d3 3d 60 9e c1 3c
       0.05145535 -0.00460086 0.10344608 0.02363509
0001a0 76 3b b6 3d c2 94 d8 bd 8c 2f cd 3d ce b4 30 bd
       0.0889806 -0.10575248 0.100188345 -0.04314118
0001b0 20 ca e7 3d 1a b0 d8 bd f4 17 60 3d f6 d3 87 3d
       0.11317849 -0.10580464 0.054710343 0.06632225
0001c0 fa c5 32 bd 3c 07 23 bd 5c c3 75 bd 1f e0 6d bd
       -0.043645836 -0.03980182 -0.060000762 -0.058075067
0001d0 a8 db ad 3d ca 61 93 3d 9d 24 e9 bd 50 50 ca 3c
       0.08489162 0.07196386 -0.113839366 0.0246965
0001e0 50 76 81 3d 3d 2b 7b bd 28 7e ca 3c 10 c2 3f bc
       0.063213944 -0.061320532 0.02471836 -0.011703983
0001f0 40 17 66 bd 64 99 c4 3d 90 27 a6 3c 40 7f 52 bd
       -0.056174517 0.095995694 0.020282537 -0.051390886
000200 f4 48 33 bd 10 66 8c 3c 50 1a 35 3c 9e e8 99 bd
       -0.043770745 0.017138511 0.011053637 -0.07515071
000210 58 82 5e bc 68 e2 4b 3d 0a 51 9d 3d 00 07 54 3d
       -0.013580881 0.049776465 0.076814726 0.05176449
000220 96 cc 42 bd 40 98 ab 3c 28 5e 50 bc e4 3c e3 3d
       -0.04755839 0.020946622 -0.012717761 0.11095598
000230 3c 48 a6 bd 2d 6b a0 bd dd 49 5f bd ac 63 78 3d
       -0.08119246 -0.07832942 -0.0545138 0.06064193
000240 1a 6d b5 bd 36 11 ba 3d 9f 30 7b bd 90 ee dd bc
       -0.088587 0.09085314 -0.061325666 -0.027091295
000250 1e 13 a5 bd 14 5d ca bd c0 3c 34 bd b6 c5 39 bd
       -0.08060287 -0.098810345 -0.04400325 -0.045354567
000260 e0 de 91 3b 80 98 44 bc 98 59 c3 3d c0 73 9d ba
       0.0044516176 -0.011999249 0.09538573 -0.0012012646
000270 4e bf 17 bd 10 ec 8f 3c 7d 76 74 bd 6c dd 38 3d
       -0.037047677 0.017568618 -0.05968331 0.04513304
000280 7a d7 d1 bd 78 f0 f5 3c 24 e0 e1 bd a6 19 52 bd
       -0.10246177 0.030021891 -0.110290796 -0.05129399
000290 99 36 81 bd 60 25 b1 3b 24 e9 15 3d 60 df 5d bc
       -0.06309242 0.005406067 0.036599293 -0.013542026
0002a0 72 7d e0 bd 2c 75 47 bd 7b c0 b9 bd 12 1a a9 3d
       -0.10961427 -0.04869573 -0.09069916 0.08256926
0002b0 68 47 5b bc 50 63 97 3d 80 ad 08 3d a2 9a d8 bd
       -0.013383724 0.07391989 0.033368587 -0.10576369
0002c0 90 6f 28 bc c8 10 71 bc f8 4e 65 3d d0 83 d4 3c
       -0.010280505 -0.014713474 0.055983514 0.02594176
0002d0 3c 3a cf bc e4 25 65 3d 40 f6 4b 3d e0 b3 96 bc
       -0.025296323 0.05594434 0.04979539 -0.018396318
0002e0 5a 02 a0 3d e6 d0 70 bd d8 c1 a6 bd 70 d3 ff 3c
       0.078129485 -0.05879297 -0.081424415 0.031228751
0002f0 a6 ac a2 3d a7 dd c2 bd 0c d2 a3 3d c4 c7 8d bc
       0.07943086 -0.09514933 0.07999048 -0.01730717
000300 a0 ef cc 3d 99 96 ab bd 20 91 f7 3c 68 8c 90 3d
       0.10006642 -0.083783336 0.030220568 0.0705803
000310 68 7f 03 3d 46 9c 94 3d 68 0e 97 bc a0 e7 a0 bb
       0.032103926 0.07256369 -0.018439487 -0.0049104244
000320 88 4e 07 bd d8 a3 e6 3c 18 d0 8a 3d 50 2d ab bd
       -0.033033878 0.028154299 0.06777972 -0.08358252
000330 64 6f 56 3d 28 94 e5 bd e8 21 11 3d 12 59 9f 3d
       0.052352324 -0.11209899 0.035432726 0.07780661
000340 26 ab 9f 3d d4 43 7d bd f6 5e 80 3d b0 80 4a 3c
       0.07796316 -0.061832264 0.06268112 0.012359783
000350 e4 4b 97 bc 96 18 78 bd 2c d0 c7 bc b8 5e aa 3d
       -0.018468805 -0.060570322 -0.024391256 0.083188474
000360 4a 83 80 3d 10 e2 f1 3b 2c 4f 55 bd 2a 16 e8 bd
       0.062750414 0.007381685 -0.052077457 -0.113323525
000370 c4 1a 72 3d 4e 78 ca 3d 1c 6c b2 bc 6d 1e d4 bd
       0.059107557 0.098862275 -0.021780066 -0.10357366
000380 f0 8e c5 3c 88 b5 2d bc 54 3b 35 3d 80 e5 de bb
       0.02411601 -0.010602362 0.044246033 -0.006802261
000390 b0 b1 ab bb ea cf 8d bd ff 0d d6 bd 18 cf 4e 3d
       -0.005239688 -0.06924422 -0.10451888 0.05049047
0003a0 64 26 30 3d 90 ee 10 bc c1 b2 59 bd a7 4d a5 bd
       0.043005362 -0.00884594 -0.05314899 -0.08071452
0003b0 94 ed 06 bd be 30 d0 3d 74 54 64 3d 64 5e 02 3d
       -0.032941416 0.10165547 0.055744603 0.0318283
0003c0 f0 21 da 3c 1e 59 ad 3d 5c d1 a7 3d 45 e5 e9 bd
       0.02662751 0.084642634 0.08194229 -0.11420683
0003d0 00 02 b7 3c b0 a1 ea 3c c0 8b e7 3a 80 9c 14 3c
       0.02233982 0.028641552 0.001766555 0.009070516
0003e0 40 bd b5 3c 70 3a c0 3d 32 ba ba 3d 1d 9c aa bd
       0.022184968 0.09386146 0.09117545 -0.083305575
0003f0 3c 13 3e 3d dc 48 32 3d 20 ec 2e 3c 22 fa ba 3d
       0.046405062 0.043526515 0.010676414 0.0912974

colorization.0.bias f4 [6]
000000 62 7c 2b bd f0 58 b6 3d b0 08 04 3d 82 5f 8b bd
       -0.041866668 0.08903682 0.032234848 -0.06805326
000010 b8 4a 20 bd 68 0b 48 3d
       -0.039133757 0.048839003

colorization.3.weight f4 [16, 6, 5, 5]
000000 3e f9 1a 3d 06 a3 59 bd e0 90 e9 bb 30 50 93 bb
       0.037835352 -0.053133987 -0.007127866 -0.004495643
000010 ac 41 cf 3c d4 22 c1 bc c4 da 27 bd d8 a5 55 bc
       0.02529987 -0.023576178 -0.040980116 -0.0130400285
000020 3c eb 91 3c 2e 80 05 3d ea ae c7 bc d8 2e e4 3c
       0.017812364 0.032592945 -0.024375398 0.027854368
000030 4c 0d a9 bc 92 f1 1f 3d 94 27 d1 3c 52 0a 8b 3d
       -0.020636223 0.03904874 0.025531568 0.06789078
000040 5e 1d 0f bd c0 89 dd 3c 68 26 85 3d e8 7f 3b 3c
       -0.034940116 0.027043223 0.06501466 0.011444069
000050 84 cc 31 3d 38 a7 a5 3d 78 bc 27 3d 53 0b 7a bd
       0.043407932 0.08088535 0.040951222 -0.061045956
000060 0e 5b 9f 3d e0 51 04 bb 21 70 87 bd 68 98 00 3d
       0.07781039 -0.0020190403 -0.06613184 0.031395346
000070 26 95 14 bd 6f 8d a0 bd ae 8b a2 3d e8 51 16 bc
       -0.03627505 -0.07839476 0.07936798 -0.009174801
000080 17 e3 88 bd ae c4 11 3d c4 63 bd 3c b8 b6 77 bd
       -0.06683939 0.03558796 0.023118861 -0.06047699
000090 40 89 a0 3a e8 8b 78 3d 68 20 77 3c 62 54 05 3d
       0.0012247935 0.0606803 0.01508341 0.032551177
0000a0 a2 bd 0f 3d 30 e7 53 3d e6 c8 c7 bc 00 a7 36 3d
       0.035092957 0.05173415 -0.024387788 0.044592857
0000b0 3c 2b a8 bc f0 e1 41 3c 10 27 b5 bb c0 62 95 3d
       -0.020528428 0.011833653 -0.0055283383 0.07294226
0000c0 df 56 1d bd a4 fd b0 3c 1c bc f4 bc 7e 04 8d 3d
       -0.038412925 0.02160532 -0.029874854 0.068856224
0000d0 0a 89 a3 3d 8b a3 73 bd fc 84 90 3d 12 36 9a 3d
       0.079851225 -0.05948214 0.07056615 0.07529844
0000e0 40 45 5f bc 34 cb d6 3c b8 a8 75 3c 88 6b e8 3c
       -0.01362735 0.026219942 0.014993839 0.028371587
0000f0 ec 4e 68 3d 94 b6 2c bd 64 a5 9a 3d d4 21 07 3d
       0.05671589 -0.042166308 0.07551077 0.032991245
000100 14 1c a4 bd e0 f1 26 3d 00 4a c9 bb 24 2b 75 3d
       -0.08013168 0.040758014 -0.0061428547 0.059855595
000110 48 d1 79 bd f0 22 6b bd 78 58 87 bc 04 cc 5f bd
       -0.0609906 -0.057406366 -0.016521677 -0.054637924
000120 dc ee 03 3d e0 a7 df bb 18 9e 02 bc 50 3f 18 3c
       0.032210216 -0.006825432 -0.007972263 0.009292439
000130 ae 5b 8e bd fc 70 25 3d da 72 47 bd 5e 7a 87 bd
       -0.0695108 0.040390953 -0.048693515 -0.066151366
000140 12 a9 8a 3d 87 c4 4a bd d6 75 90 bd c4 28 02 3d
       0.06770529 -0.04950383 -0.070537254 0.03177716
000150 2c 41 14 3d 12 b5 81 3d 38 d0 7c bd 8a b9 96 bd
       0.036194965 0.063333645 -0.06172201 -0.073596075
000160 c8 19 26 bc 00 95 3d 3a d4 60 84 3d 94 15 6d 3d
       -0.010137983 0.00072319806 0.06463781 0.057881907
000170 80 cf a1 ba e5 55 a5 bd c4 48 e7 3c 6c 94 3b 3d
       -0.0012345165 -0.08073024 0.02823294 0.045795843
000180 71 05 a5 bd 0a c3 95 3d 00 c5 de bc 48 4c 0d 3c
       -0.080576785 0.073125914 -0.027193546 0.008624144
000190 14 b9 87 bc 10 5a 49 bd 3c c0 6f bd 5a 4a 99 3d
       -0.016567744 -0.049158156 -0.05853294 0.074848846
0001a0 81 b9 07 bd 24 51 67 bd 76 db d0 bc be 10 8c 3d
       -0.033135895 -0.056473866 -0.025495272 0.06839131
0001b0 24 ae 49 bd 5c ef ef 3c 74 72 a2 3c b8 e1 8b bd
       -0.04923834 0.02928894 0.019829966 -0.06830162
0001c0 bc ef 91 bc 9c 36 d3 3c 0c f6 cf 3c 3e 11 86 bd
       -0.01781451 0.025782876 0.025385879 -0.065462574
0001d0 c4 88 54 3d 7c c1 b1 3c b2 9c e7 bc 70 b2 38 3d
       0.051888242 0.021698706 -0.02827296 0.045092046
0001e0 f8 97 5e 3d 4c 0c 32 3d 79 23 3c bd 1c f0 92 bd
       0.054344147 0.04346876 -0.045932267 -0.071747035
0001f0 b2 f5 78 bd a0 64 2d 3d 1c c8 ea bc 58 62 7a bd
       -0.06078119 0.04233229 -0.028659873 -0.061128944
000200 58 21 74 3c 50 b1 94 bd de 6e 97 3d aa ed 0d 3d
       0.014900528 -0.07260382 0.07394193 0.034650482
000210 62 86 98 3d 30 43 90 bc da 34 94 bd e9 eb 96 bd
       0.074475065 -0.017610162 -0.07236643 -0.07369215
000220 08 8d 80 bc 76 1b 0d 3d 74 28 8a 3c 10 30 5b 3d
       -0.015692249 0.034450017 0.016864993 0.053512633
000230 00 a0 62 37 26 a6 84 3d 90 92 35 3d b0 30 e0 3c
       1.3507903e-05 0.06477003 0.044329226 0.027366966
000240 90 18 78 bc bc 8c 8f 3d d4 ed 6e 3d 92 79 d7 bc
       -0.015142575 0.07009265 0.05833228 -0.026303086
000250 c3 66 93 bd ec c9 8d 3d 34 a4 4f bd 43 26 7c bd
       -0.071973346 0.06923279 -0.050693706 -0.061559927
000260 4e de 8c bd 70 8e 4d 3d c1 eb 8e bd 86 31 36 bd
       -0.06878339 0.050184667 -0.0697856 -0.044480823
000270 3a ed 8c 3d d8 3b 12 bc 12 ad f6 bc 50 e5 3b 3d
       0.06881185 -0.008925401 -0.030111823 0.045872986
000280 3e ec a5 3d 08 6e 97 bc 3c a6 91 3c 9f 5d 3e bd
       0.081017 -0.018485084 0.017779462 -0.046476003
000290 d4 05 72 3d 70 58 85 bc 40 55 a5 bb d8 c9 56 3d
       0.05908759 -0.016277522 -0.005045563 0.052438587
0002a0 00 44 7f bb 54 dd 54 3d 3a 72 a0 3d 2e e8 9f bd
       -0.0038950443 0.051968887 0.07834287 -0.07807957
0002b0 78 72 3a 3d 74 56 5f bd da c1 96 3d f0 a6 ea 3b
       0.045519322 -0.054525807 0.07361193 0.007161014
0002c0 e0 47 52 3c f8 5f 7c 3d e5 47 0f bd 7e d2 16 3d
       0.012834519 0.06161496 -0.034980673 0.036821835
0002d0 8b c4 8d bd 42 33 3b bd 84 5c 7f 3d 3f be 21 bd
       -0.06922253 -0.04570318 0.06234409 -0.039488073
0002e0 f3 ab 18 bd 9b 3e 78 bd 22 77 0b 3d 08 73 48 3d
       -0.03727336 -0.06060658 0.03404916 0.048937827
0002f0 6b ce 91 bd 40 28 d6 3a d0 c8 64 3d a4 2f 5c 3d
       -0.07119449 0.00163389 0.055855572 0.05375637
000300 e4 a4 12 3d 98 66 21 3d 34 b5 96 3c 10 5a 90 3d
       0.035801783 0.03940448 0.018396951 0.07048428
000310 4c e9 fd bc c0 71 44 3d 16 ff 0d 3d d0 5b 65 3d
       -0.030995034 0.047960043 0.034667097 0.055995762
000320 2a 5b de bc 30 0e 5a bc d8 9f 3f 3c a6 b0 8a 3d
       -0.02714308 -0.013309047 0.011695825 0.06771974
000330 f2 cf 93 3d 24 68 86 3d 8a 68 98 bd c9 d9 15 bd
       0.07217397 0.06562832 -0.07441814 -0.03658465
000340 ce db f8 bc 30 a1 7d bc 10 f0 43 3d 50 ce 43 3c
       -0.030378249 -0.015480325 0.047836363 0.011951044
000350 b4 59 ec bc e8 0e 0c bd cc 20 a0 3c a0 b7 0f bd
       -0.028851368 -0.034193903 0.019546889 -0.035087228
000360 b4 c0 e3 3c 2a 40 80 bd 40 26 16 3c 80 a6 c7 ba
       0.027801849 -0.06262238 0.009164393 -0.0015232116
000370 a6 a7 9d bd 88 6d 5e 3d 90 52 6a 3d 88 82 71 bd
       -0.07697992 0.054303676 0.057207644 -0.058962375
000380 50 28 b9 3b 38 8f 79 bc dc 9f 42 3d 58 55 4d 3c
       0.0056505576 -0.0152319 0.047515735 0.012532555
000390 48 c4 84 3d d8 c3 31 3d 44 b7 d4 3c 8b 7e 8a bd
       0.0648275 0.04339966 0.025966294 -0.067624174
0003a0 24 2c 8d bc 2c 1d 46 3d e4 05 10 3d 62 30 8b 3d
       -0.017232962 0.048367664 0.035161868 0.06796338
0003b0 50 c3 8e bb 92 e5 94 3d fa 7c a5 3d 88 4f 98 3d
       -0.004356779 0.072703496 0.08080478 0.074370444
0003c0 f0 71 13 3c 54 e2 c4 3c 70 00 48 3d 76 b7 18 3d
       0.008999333 0.024033703 0.048828542 0.037284337
0003d0 f0 53 c3 bb 7c 4b f9 3c ec 0d 31 3d 3c 2f a0 3c
       -0.005960934 0.030431502 0.043226168 0.019553773
0003e0 78 97 8a 3d 10 5b 3f bd 80 79 81 bd 94 9c 87 3c
       0.067671716 -0.046717703 -0.063220024 0.016554154
0003f0 18 0a e2 bc bc 2a 76 3d e6 77 99 bd e0 02 68 bd
       -0.027592704 0.06009935 -0.07493572 -0.056643367

colorization.3.bias f4 [16]
000000 c2 01 a4 3d 9a b0 94 bd 58 8b 6f bc 9c dd 16 3d
       0.08008148 -0.072602466 -0.0146206245 0.036832437
000010 60 2d 6d bd d0 bb 04 bc fc 88 93 bc c5 f0 9b bd
       -0.0579046 -0.008101419 -0.018009655 -0.076142825
000020 b4 14 db 3c 8d a0 10 bd 9a 83 29 3d 70 a8 9b 3d
       0.02674327 -0.035309363 0.04138527 0.07600486
000030 00 1e 5a b9 ce 6c 86 3d 50 30 03 bd d6 b5 c4 bc
       -0.00020801276 0.065637216 -0.032028496 -0.024012487
