temp_transformer.pt (torch_old, 201089 bytes, 18 tensors)

fc1.weight f4 [50, 320]
0	0x3d50a542	0.050938852
1	0xbb9da7e8	-0.0048112758
2	0x3cfd59f0	0.030926675
3	0x3b0fb7b0	0.0021929555
4	0x3ca7c854	0.020481266
5	0xbc550e6c	-0.013003927
6	0xbd1523b7	-0.036411013
7	0x3b3c71d0	0.002875436
8	0xbcf8da5c	-0.03037756
9	0x3d02ca72	0.03193135
10	0xbb070c50	-0.0020606704
11	0xbcc4004e	-0.023925927
12	0x3a5eed00	0.00085039437
13	0x3c137620	0.009000331
14	0x3aeb2240	0.0017939284
15	0x3bde65f0	0.0067870542
16	0x3ca1d020	0.019752562
17	0xbbb26dc8	-0.005445216
18	0x3d254270	0.040346563
19	0x3b319a80	0.0027100146
20	0xbd52ad87	-0.05143502
21	0xbc4d7050	-0.012538984
22	0xbcf02686	-0.029315244
23	0x3ca592d0	0.020211607
24	0xbd42c966	-0.04755535
25	0xbb08f8d0	-0.0020900257
26	0xbccde286	-0.025132429
27	0x3caae868	0.020862773
28	0x3d55efd4	0.05223067
29	0x3d45a86c	0.048256323
30	0xbd5ff701	-0.05467892
31	0x3d267f66	0.04064884
32	0x3d131364	0.035907164
33	0xbc7e7280	-0.015530229
34	0xbceb501b	-0.02872472
35	0x3cdd6dc4	0.02702988
36	0xbd54b300	-0.05192852
37	0x3cc27a14	0.023739852
38	0x3c7b0350	0.015320614
39	0xbc74baf8	-0.014937155
40	0x3b452c20	0.0030086115
41	0xbd4cadc6	-0.04997041
42	0x3c9b61d8	0.018967554
43	0xbd522931	-0.051308814
44	0x3d117d24	0.035519734
45	0xbd272fbb	-0.040817004
46	0xbd086554	-0.03329976
47	0x3c90ec64	0.017690845
48	0x3cebdd74	0.02879212
49	0x3d5604ca	0.05225066
50	0xbd347906	-0.04406073
51	0x3c31fd20	0.010863572
52	0x3b8f29b8	0.004368987
53	0x3cc1e4d0	0.023668677
54	0xbcd3335b	-0.025781324
55	0xbd382593	-0.04495771
56	0xbd478500	-0.048710823
57	0x3d49ef26	0.049300335
58	0xbccec5e1	-0.02524084
59	0x3d59adf6	0.053144418
60	0x3c9ff5fc	0.019526474
61	0x3c91d218	0.017800376
62	0x3d1b706e	0.03794902
63	0x3d160180	0.036622524
64	0x3d40deb6	0.047087394
65	0x3b9cc8c0	0.0047846735
66	0x3d22f22c	0.039781734
67	0x3d334958	0.043771118
68	0xbd2c1bbc	-0.042018637
69	0x3c839ff0	0.016067475
70	0xbcef877b	-0.029239407
71	0x3d19dc64	0.037563697
72	0xbd342c78	-0.04398772
73	0x3d24217e	0.040071003
74	0x3d61b300	0.05510235
75	0xbd03f6b0	-0.03221768
76	0x3d3fe4c2	0.04684902
77	0xbd0a73ab	-0.033801716
78	0x3cccb078	0.02498649
79	0xbc37d1a0	-0.011219412
80	0xbca938be	-0.02065694
81	0xbc86f1c4	-0.016472705
82	0x3b276960	0.0025544986
83	0x3c36a8e0	0.011148661
84	0xbc7e3840	-0.015516341
85	0x3d11d3e6	0.035602473
86	0xbcad6794	-0.021167554
87	0xbc29fd98	-0.010375403
88	0xbc3cbc7c	-0.011519548
89	0x3d1acd70	0.037793577
90	0xb9dd7900	-0.00042242557
91	0xbd168332	-0.03674621
92	0xbd048ddc	-0.03236185
93	0xbd648a15	-0.055795748
94	0xbb180cd0	-0.0023200996
95	0xbd54734d	-0.051867772
96	0xbd43e338	-0.047824115
97	0xb9cd2e00	-0.0003913492
98	0x3cf95580	0.030436277
99	0xbd02c506	-0.031926177
100	0x3cc96324	0.024583407
101	0x3d3a07b4	0.045417503
102	0x3ca6a4ec	0.020342313
103	0xbc95f738	-0.01830636
104	0x3d12a614	0.035802916
105	0x3b185780	0.0023245513
106	0x3cbd77bc	0.023128383
107	0x3cd7e5cc	0.026354693
108	0xbd631de4	-0.055448428
109	0x3d3558d0	0.04427415
110	0xbc4719d4	-0.012152154
111	0x3d61ee60	0.055158973
112	0x3ba34258	0.004982274
113	0x3d5ac5a2	0.053411134
114	0x3b928e30	0.0044725165
115	0x3d4b1ad8	0.049586147
116	0xbcae7792	-0.02129725
117	0x3d450db4	0.04810877
118	0xbd5aa357	-0.05337843
119	0xbd1998c2	-0.037499197
120	0xbd3642f8	-0.04449746
121	0xbd2dcdfe	-0.042432778
122	0xbd0dad42	-0.03458906
123	0x3d150a86	0.03638699
124	0xbba1aa38	-0.0049336217
125	0x3c321e80	0.01087153
126	0xbb711f30	-0.003679227
127	0x3c609ea0	0.013709694
128	0x3d46ee70	0.048567235
129	0xbca8a75c	-0.020587616
130	0x3d2f2926	0.04276385
131	0x3d56076a	0.052253164
132	0xbbcad1a0	-0.00618954
133	0xbd2a8817	-0.04163369
134	0xbd1476ae	-0.036245994
135	0xbb345140	-0.002751425
136	0x3c5c6738	0.013452344
137	0xbcdc2d79	-0.026877152
138	0xbd217394	-0.039416865
139	0x3cbc4694	0.022982873
140	0x3ce65148	0.02811493
141	0xbcdb279a	-0.026752282
142	0x3d14e6fe	0.036353104
143	0xbccef651	-0.025263937
144	0x3ba97928	0.0051719137
145	0xbd5871f9	-0.052843068
146	0xbc877086	-0.016533148
147	0x3b3f7580	0.0029214323
148	0x3c44e1b8	0.012016706
149	0x3c48ea48	0.012262888
150	0x3c246838	0.010034613
151	0x3ca517c8	0.020152941
152	0xbd30fa05	-0.043207187
153	0x3c375450	0.011189535
154	0xbd4f9151	-0.050675694
155	0xbd4fa83d	-0.050697554
156	0x3c7303e0	0.014832467
157	0xbcb766fc	-0.022387974
158	0x3cbe0fc4	0.023200877
159	0x3d56ee24	0.052473202
160	0x3a2b0380	0.0006523654
161	0xbd16be64	-0.036802664
162	0x3d3374be	0.043812506
163	0xbcf82eba	-0.030295718
164	0xbb9941f0	-0.00467705
165	0xbcd97e2d	-0.026549423
166	0x3ad83240	0.0016494468
167	0xbd3b3a89	-0.04571012
168	0xbcfe5de0	-0.031050622
169	0x3c439588	0.0119375065
170	0xbc8e4b90	-0.017370015
171	0xbc8b7008	-0.017021194
172	0x3d5f7c38	0.054561824
173	0xbc5e2218	-0.013557933
174	0x3c25bfc0	0.010116518
175	0x3c5bcbe0	0.013415307
176	0xbcc2601e	-0.023727473
177	0xbbae3ab0	-0.0053170547
178	0xbce52fab	-0.027976831
179	0x3caebe50	0.021330982
180	0xbd61a0c8	-0.055084974
181	0x3c56b3d0	0.013104394
182	0x3bd4cf90	0.00649447
183	0x3cd90c3c	0.026495092
184	0x3d11e400	0.03561783
185	0x3d0f391e	0.03496658
186	0x3d57fa4e	0.052728944
187	0xbd4284d4	-0.047489956
188	0x3b452c20	0.0030086115
189	0xbb658560	-0.0035022125
190	0xbd4a11a3	-0.049333226
191	0xbd3c112e	-0.04591482
192	0x3d604ef8	0.05476281
193	0x3cdfda18	0.027325675
194	0x3ca27cfc	0.019834988
195	0x3d436c52	0.047710724
196	0x3d1d977a	0.038474537
197	0x3d0b2bc6	0.033977292
198	0xbd218306	-0.039431594
199	0x3c9110d0	0.017708212
200	0xbcbee1a2	-0.02330095
201	0xbd5f7c36	-0.054561816
202	0x3d5424a6	0.051792763
203	0xbc09f224	-0.008419547
204	0xbd256b20	-0.040385365
205	0xbd2832e2	-0.04106415
206	0x3d369e0a	0.04458431
207	0xbc69fbbc	-0.01428121
208	0xbd061324	-0.032733098
209	0x3d19905a	0.03749118
210	0x3c14b5a8	0.009076513
211	0xbc926adc	-0.01787322
212	0x3d09687e	0.033546917
213	0xbcb27908	-0.021786228
214	0xbbf03618	-0.007330667
215	0xbd1cd4d0	-0.03828889
216	0xbd00f466	-0.031483077
217	0xb9352d00	-0.00017278269
218	0xbbf8dc40	-0.007594615
219	0x3d5b0ba4	0.0534779
220	0x3d5fa6d4	0.05460246
221	0xbd1d4b2c	-0.038401768
222	0x3c5aaf40	0.013347447
223	0xbcd485f3	-0.025942778
224	0xbd3d0f7d	-0.04615735
225	0xbc5fa4bc	-0.013650116
226	0xbbe02540	-0.006840378
227	0xbd151b14	-0.036402777
228	0xbd10a802	-0.035316475
229	0x3c4a20a0	0.01233688
230	0x3bee3ea0	0.007270649
231	0x3c7947f8	0.015214913
232	0xbcc8912e	-0.02448329
233	0xbd0dc7ac	-0.03461425
234	0x3d1bfd02	0.038083084
235	0xbcc67f80	-0.024230719
236	0xbaf92640	-0.0019008592
237	0xbce13ed7	-0.027495785
238	0x3c980900	0.018558979
239	0x3d2d51c4	0.042314306
240	0x3d0fd748	0.035117418
241	0x3d05bdde	0.032651775
242	0xbd0c1b35	-0.034205634
243	0xbce8b45f	-0.02840632
244	0x3c844068	0.016143993
245	0x3d313ade	0.04326903
246	0x3a2c8740	0.0006581433
247	0xbd34840a	-0.044071235
248	0x3d04ca74	0.032419637
249	0xbcf61f07	-0.030044092
250	0xbd5a378a	-0.053275622
251	0xbcb30c56	-0.021856468
252	0x3d61dcb0	0.055142105
253	0xbbade868	-0.005307246
254	0x3d2527c2	0.04032112
255	0xbd3c93be	-0.046039335

fc1.bias f4 [50]
0	0xbd31cbcc	-0.043407246
1	0x3c5e0038	0.013549857
2	0xbcb905b0	-0.02258572
3	0xbc41277c	-0.011789199
4	0xbca9b1ec	-0.020714723
5	0x3c793f68	0.015212871
6	0xbc430360	-0.01190266
7	0x3c91e490	0.017809182
8	0xbd581e0b	-0.052763026
9	0x3d3fc2c4	0.046816602
10	0x3ce2ba28	0.027676657
11	0xbd150788	-0.036384135
12	0xbcd7a93f	-0.02632582
13	0x3c422db0	0.011851713
14	0x3d155bf8	0.03646466
15	0xbc450d78	-0.012027137
16	0xbd5e1482	-0.054218777
17	0xbc69b818	-0.014265083
18	0x3ce7d6cc	0.028300665
19	0x3d192438	0.037388057
20	0xbced8af9	-0.028996931
21	0xbd1e3716	-0.038626753
22	0xbd3fe66c	-0.046850607
23	0x3bde5db0	0.0067860708
24	0xbcf308cd	-0.029667282
25	0xbd26082c	-0.040535137
26	0xba875500	-0.0010325015
27	0x3bf3cce0	0.0074401945
28	0xbab28940	-0.0013621226
29	0xbcd7b014	-0.026329078
30	0x3ba737e8	0.0051031
31	0x3c129388	0.008946307
32	0x3d089378	0.033343762
33	0x3c02f848	0.007993765
34	0xbc9dcc42	-0.019262437
35	0x3a5c0840	0.00083935633
36	0x3c3cc170	0.0115207285
37	0x3d17f2ca	0.037096776
38	0x3c939c64	0.018018909
39	0xbd35bb00	-0.04436779
40	0x3c9ddab8	0.019269332
41	0xbc914ad6	-0.01773588
42	0x3d1bdb12	0.03805072
43	0x3d0d77f0	0.03453821
44	0xbcb2cf4e	-0.021827366
45	0xbcb7b4da	-0.022425104
46	0x3d5a9bd2	0.053371258
47	0xbce2d318	-0.027688548
48	0x3c7a2150	0.015266731
49	0xbd29781b	-0.041374307

fc2.weight f4 [10, 50]
0	0x3da1adfa	0.078945115
1	0x3e108553	0.14113359
2	0x3d06203c	0.032745585
3	0x3e0f8ab9	0.14017762
4	0x3dc0048e	0.09375869
5	0x3d3866ec	0.04502003
6	0x3debce4a	0.11513956
7	0xbde37bec	-0.111076206
8	0x3dd7a9e4	0.10530451
9	0x3d9930ce	0.07480012
10	0x3d2e01a0	0.04248202
11	0x3dc83ba0	0.097769976
12	0xbde657e0	-0.112472296
13	0x3d1073f4	0.03526683
14	0x3e028f75	0.12750037
15	0x3d132990	0.03592831
16	0x3c2bdf70	0.010490283
17	0xbda92540	-0.08259058
18	0x3e0cf137	0.13763891
19	0xbdc3200a	-0.09527595
20	0xbc2cf8a0	-0.010557324
21	0xbd191dac	-0.037381813
22	0x3d9cf66c	0.07664189
23	0x3dbd8694	0.09254184
24	0xbdd8868c	-0.10572538
25	0x3dc52bc4	0.09627488
26	0x3e0a3b13	0.13499098
27	0xba43f200	-0.00074747205
28	0xbdf05c78	-0.11736387
29	0x3dd445c2	0.10364868
30	0xbd728b48	-0.05921486
31	0xbc281d90	-0.0102609545
32	0x3dd55dc8	0.10418278
33	0xbdc6a664	-0.09699705
34	0x3d78b2e4	0.06071748
35	0xbda5ce86	-0.08096032
36	0x3d02500c	0.03181462
37	0x3dba1c22	0.09087397
38	0x3e041e67	0.12902223
39	0x3e0da165	0.13831098
40	0xbe07a3ef	-0.1324613
41	0x3d5874f0	0.052845895
42	0xbbc603e0	-0.0060429424
43	0x3d433430	0.04765719
44	0xbdc3e7f0	-0.09565723
45	0xbd650e08	-0.055921584
46	0x3c16e660	0.009210199
47	0x3c5f02c0	0.0136114955
48	0xbdab5f5b	-0.08367797
49	0xbd2e769a	-0.042593576
50	0x3db2fd4a	0.08739717
51	0x3dd7e52e	0.105417594
52	0x3de43442	0.1114278
53	0x3e023223	0.12714438
54	0xbe068210	-0.13135552
55	0x3c826f08	0.015922084
56	0xbcaf99dc	-0.02143567
57	0x3d0f0490	0.03491646
58	0xbd0bb02e	-0.034103565
59	0x3da05bbc	0.07829997
60	0x3d5cb43c	0.053882822
61	0xbda38db4	-0.07986012
62	0x3d9222f4	0.07135573
63	0x3d7c8f90	0.06166035
64	0x3d54d69c	0.05196248
65	0x3d2422fc	0.040072426
66	0x3cd7ca78	0.026341662
67	0xbde793b2	-0.113074675
68	0x3e10106b	0.14068763
69	0xbcd9a580	-0.026568174
70	0x3d9245fa	0.07142253
71	0x3e08c3a3	0.1335588
72	0xbe0dd2e2	-0.13849977
73	0xbbf5b980	-0.00749892
74	0xbd85e030	-0.06536901
75	0x3dc9eea0	0.09859967
76	0xbdba6ed4	-0.0910317
77	0xbdbb1787	-0.09135347
78	0xbd64a3b0	-0.055820167
79	0xbd2a57fc	-0.041587815
80	0xbde4e291	-0.111760266
81	0xbde3cf24	-0.11123493
82	0x3da6dde0	0.08147788
83	0xbd2ff36a	-0.042956747
84	0x3d2f8b84	0.04285766
85	0x3d7c4ad0	0.061594784
86	0x3d87d18c	0.06631765
87	0xbdef9674	-0.116986185
88	0x3ce7a0a0	0.028274834
89	0x3ca6c3a8	0.020356968
90	0xbdd69f67	-0.10479622
91	0x3d93be80	0.07214069
92	0x3dbc3122	0.09189059
93	0xbe075ddc	-0.13219398
94	0x3cca4998	0.024693295
95	0xbdf3747e	-0.118874535
96	0xbcd3a260	-0.025834262
97	0xbdf931af	-0.121676795
98	0xbde21464	-0.110390455
99	0x3dffb6ee	0.12486063
100	0xbdf893e7	-0.12137585
101	0x3e0e4c8f	0.13896392
102	0x3da1b95c	0.078966826
103	0xbda3163a	-0.07963224
104	0xbc825a58	-0.01591222
105	0xbe063525	-0.1310621
106	0xbcab0d88	-0.020880476
107	0x3c3f61d0	0.011681035
108	0x3d3717d0	0.044700444
109	0xbda3b004	-0.07992557
110	0x3b094880	0.0020947754
111	0x3ca70698	0.020388886
112	0xbd728862	-0.059212096
113	0xbdad77d6	-0.084701225
114	0x3de06e86	0.10958581
115	0x3d9339b0	0.071887374
116	0xbda44776	-0.080214426
117	0x3d962f5a	0.0733325
118	0x3d982c42	0.074303165
119	0xbd94c856	-0.072647735
120	0x3d5894b0	0.052876174
121	0x3c7b54c0	0.01534003
122	0x3decda2e	0.11565052
123	0x3dda2974	0.10652438
124	0x3d5eada4	0.054364815
125	0x3e08acbf	0.13347147
126	0xbdcc1619	-0.09965152
127	0xbd1ae368	-0.037814528
128	0xbd76e6e6	-0.060278796
129	0xbcbe9e88	-0.023268953
130	0x3e103d9b	0.14086
131	0xbdb17a4c	-0.086659044
132	0x3d7f922c	0.06239526
133	0x3d9419ae	0.072314605
134	0xbd15eea0	-0.036604524
135	0xbd2df118	-0.042466253
136	0x3e0796f3	0.13241176
137	0xbd037118	-0.032090276
138	0x3e0ad6ed	0.1355855
139	0xbcc440d4	-0.023956694
140	0x3ddcf8d8	0.10789651
141	0xbd04933c	-0.032366976
142	0x3db8fdfa	0.09032817
143	0x3d78eef0	0.060774744
144	0xbc65b880	-0.014021039
145	0xbdb11d1f	-0.086481325
146	0x3da8003a	0.08203168
147	0xbd746bde	-0.059673183
148	0x3dbc0c72	0.09182061
149	0xbc7212d0	-0.014774993
150	0xbbe33540	-0.006933838
151	0xba819280	-0.0009885579
152	0xbd9dcaf4	-0.07704726
153	0xbd386950	-0.04502231
154	0x3cac9ce0	0.021070898
155	0x3d90de2c	0.07073626
156	0x3d445978	0.047936887
157	0x3da19662	0.07890011
158	0xbcbeb7e4	-0.023281045
159	0x3c1cb310	0.009564176
160	0xbe108512	-0.14113262
161	0x3dc7ca52	0.097553864
162	0xbd9a7217	-0.07541292
163	0xbd1f1768	-0.03884068
164	0x3d73458c	0.059392497
165	0x3dc54a92	0.09633364
166	0xbd2be248	-0.041963845
167	0x3d44be10	0.04803282
168	0x3cb54eb8	0.022132263
169	0xbdfd7312	-0.123754635
170	0xbd7f45f2	-0.062322564
171	0xbddda23e	-0.10821961
172	0xbe0b7403	-0.13618474
173	0xbe0eb05e	-0.13934466
174	0xbdfc514a	-0.12320192
175	0xbe0842e5	-0.13306768
176	0xbcb5fa64	-0.022214122
177	0xbcdaf078	-0.026725993
178	0xbd5e7900	-0.054314613
179	0x3df90d42	0.12160732
180	0x3d75ef98	0.060042948
181	0xbd99d9e5	-0.07512263
182	0x3df77efe	0.12084769
183	0xbd47607e	-0.048676006
184	0xbe0fe4c4	-0.14052111
185	0xbd9847de	-0.074355826
186	0x3dbf6a72	0.09346475
187	0xbdf2ff97	-0.11865156
188	0x3e06294f	0.13101695
189	0x3d09f740	0.03368306
190	0x3ddd91bc	0.10818812
191	0xbddbcc3f	-0.10732316
192	0x3d862662	0.0655029
193	0x3d5294a8	0.0514113
194	0x3db854ba	0.09000535
195	0xbdcb91d6	-0.099399254
196	0x3b91a480	0.0044446588
197	0xbe0d0d1d	-0.13774534
198	0xb954b400	-0.00020284951
199	0x3de1a322	0.11017443
200	0x3c858128	0.016296938
201	0x3aa2c980	0.0012419671
202	0x3db31eda	0.08746119
203	0x3c9957d0	0.01871863
204	0xbd8c11cb	-0.06839331
205	0x3d79e4bc	0.061009154
206	0xbc3eff30	-0.011657521
207	0xbd87ef8c	-0.06637487
208	0xbd339c7c	-0.043850407
209	0xbcd69b7c	-0.026197188
210	0x3dc4e310	0.09613621
211	0xbd1e7698	-0.03868732
212	0xbdf68544	-0.12037137
213	0x3dbbc2f2	0.09168042
214	0x3d873c20	0.06603265
215	0x3df8e592	0.12153162
216	0xbd4b1c68	-0.049587637
217	0xbce968b0	-0.028492302
218	0xbdc78804	-0.0974274
219	0x3c67eec0	0.0141560435
220	0xbccc3b0c	-0.0249305
221	0x3a4c9800	0.0007804632
222	0xbdd3d9d4	-0.10344282
223	0xbd17d424	-0.037067547
224	0x3cd133f0	0.025537461
225	0xbd798326	-0.06091609
226	0xbccfd110	-0.025368243
227	0x3d99291c	0.07478544
228	0x3da1801a	0.078857616
229	0xbde7f7f6	-0.11326592
230	0xbd6142ee	-0.05499547
231	0xbdd030f0	-0.10165584
232	0x3d9561ec	0.07294068
233	0xbdeb6d47	-0.114954524
234	0x3d9b2892	0.075760975
235	0x3cc95768	0.024577811
236	0xbdeeaa85	-0.11653618
237	0x3dd64bda	0.10463686
238	0x3d6b4268	0.057436377
239	0x3dfe01ea	0.12402709
240	0xbc88d62c	-0.016703688
241	0xbd7d5676	-0.061850034
242	0xbca9c884	-0.020725496
243	0x3caa5700	0.020793438
244	0x3deedbda	0.11663027
245	0x3c2c47c0	0.010515153
246	0x3dad42ce	0.084600076
247	0xbd2ded98	-0.042462915
248	0x3d18638c	0.03720431
249	0x3a0ae200	0.0005297959
250	0x3d777fcc	0.06042461
251	0x3ddbef4a	0.10739
252	0x3db8c442	0.09021808
253	0x3def8ce2	0.11696793
254	0xbd80cde5	-0.06289271
255	0x3dc0899a	0.094012454

fc2.bias f4 [10]
0	0xbddb7822	-0.10716273
1	0xbd332f58	-0.043746322
2	0xbd48dec0	-0.049040556
3	0x3e042ffb	0.12908928
4	0xba950d00	-0.0011371672
5	0x3cfde470	0.030992717
6	0xbd330636	-0.043707095
7	0x3d7fdf70	0.062468946
8	0x3dfb9b22	0.122854486
9	0xbdec1248	-0.11526924

localization.0.weight f4 [6, 3, 5, 5]
0	0x3d13a654	0.036047295
1	0xbbce2df0	-0.0062920973
2	0x3c800180	0.015625715
3	0x3cb63fd0	0.022247225
4	0x3d94f4fa	0.07273288
5	0x3d4d80f4	0.050171807
6	0x3d85fad8	0.06541985
7	0xbd8dd0b4	-0.069245726
8	0xbd1b8282	-0.03796626
9	0xbcb09b60	-0.021558464
10	0xbcbb4b9c	-0.022863202
11	0xbcda61f4	-0.026658036
12	0xbdc807e5	-0.09767131
13	0x3bfffd30	0.0078121647
14	0x3b352440	0.0027640015
15	0x3de83374	0.11337939
16	0x3d09d7b0	0.03365296
17	0xbdbae708	-0.09126097
18	0x3c8962c0	0.01677072
19	0xbd402e78	-0.046919316
20	0xbdc5dbb6	-0.09661047
21	0x3b981ba0	0.004641965
22	0xbd01a2a0	-0.031649232
23	0xbc1829e0	-0.0092873275
24	0xbdd1c760	-0.10243106
25	0xbd38a79c	-0.04508172
26	0xbd92c6ad	-0.07166801
27	0xbdba08dc	-0.09083721
28	0x3d1a7bc4	0.03771569
29	0x3d4ebf8c	0.050475642
30	0xbd994b96	-0.0748512
31	0x3da24bea	0.07924636
32	0xbdb6acc0	-0.08919668
33	0xbd8516e0	-0.06498504
34	0x3cbfbdc8	0.023405924
35	0xbcd08cd0	-0.02545777
36	0xbc1b6938	-0.009485535
37	0x3b63a2c0	0.0034734458
38	0xbd67de00	-0.0566082
39	0x3d62d15c	0.055375442
40	0x3d0ae668	0.03391114
41	0xbda01b8e	-0.07817756
42	0xbdaba808	-0.08381659
43	0x3d0bf348	0.034167558
44	0xbcdcdac8	-0.026959792
45	0x3ba52990	0.005040355
46	0x3d846e74	0.0646638
47	0x3db6a552	0.08918251
48	0x3cf13a18	0.029446647
49	0x3d73d958	0.059533447
50	0xbcd099d0	-0.025463969
51	0xbb18d2e0	-0.002331905
52	0xbda077c0	-0.078353405
53	0x3c9e1670	0.019297808
54	0x3d526888	0.05136922
55	0x3d85f662	0.065411344
56	0x3db4a4a6	0.08820467
57	0x3d8275be	0.06370114
58	0xbdb8029b	-0.08984872
59	0xbda2e368	-0.079535306
60	0xbc944e58	-0.018103763
61	0xbd1b6b0a	-0.037943877
62	0xbcdb0728	-0.02673681
63	0xbaf7e8c0	-0.0018913969
64	0xbd87df12	-0.06634344
65	0xbd657c90	-0.056026995
66	0xbd59ef98	-0.05320701
67	0x3d910924	0.070818216
68	0xbdc4c8df	-0.096086256
69	0xbde50b39	-0.11183781
70	0xbd54e64c	-0.05197744
71	0xbde06868	-0.10957414
72	0xbd0b2dca	-0.033979215
73	0xbc1af818	-0.009458564
74	0xbce47ec4	-0.027892478
75	0xbd95210e	-0.07281695
76	0xbde1e4c2	-0.1102996
77	0x3c1d8240	0.009613574
78	0xbcf018a0	-0.029308617
79	0x3db35bf8	0.08757776
80	0xbcc31f0c	-0.023818515
81	0x3d713148	0.05888489
82	0xbc5461f0	-0.012962803
83	0xbcdbb810	-0.026821166
84	0x3da598ce	0.08085786
85	0x3d9b209e	0.075745806
86	0x3cc88a88	0.02448012
87	0xbd8e45d1	-0.0694691
88	0x3cfde8e8	0.030994847
89	0x3c295660	0.010335535
90	0x3d79cd54	0.06098683
91	0x3d105634	0.03523846
92	0xbdb8fcca	-0.09032591
93	0xbbf17b70	-0.007369451
94	0xb8b01800	-8.396804e-05
95	0x3deafecc	0.1147438
96	0x3cd53a80	0.026028872
97	0xbdcd0184	-0.10010055
98	0xbc30fa88	-0.010801919
99	0x3c2572f0	0.010098204
100	0xbdb1aacf	-0.08675157
101	0xbc386288	-0.01125396
102	0xbdc1e8df	-0.09468245
103	0x3d18af50	0.037276566
104	0x3cf36228	0.02970989
105	0x3dbc1dba	0.091853574
106	0xbdb16c41	-0.08663226
107	0x3d25abf4	0.04044719
108	0xbaceb3c0	-0.0015770122
109	0xbb171560	-0.0023053512
110	0x3d8d3f88	0.06896883
111	0x3b435320	0.0029804185
112	0x3dc1f4e8	0.0947054
113	0xbbfb29c0	-0.007664889
114	0x3cb1eaa8	0.021718338
115	0x3db7dc74	0.08977595
116	0x3c96ef10	0.01842454
117	0xbd41dd84	-0.047330394
118	0xbd8f1a36	-0.06987421
119	0x3c80ea58	0.015736744
120	0xbc20a5c0	-0.009805143
121	0x3d9e5d92	0.07732691
122	0xbd8b7bd8	-0.06810731
123	0x3d3f562c	0.04671304
124	0xbda800ad	-0.08203254
125	0xbd94a837	-0.07258647
126	0xbc8095f0	-0.015696496
127	0xbd8b541f	-0.06803154
128	0x3ca2b890	0.019863397
129	0x3d8ace96	0.067776844
130	0xbd944512	-0.072397366
131	0x3de4e230	0.11175954
132	0x3d6734f0	0.05644697
133	0xba8882c0	-0.0010414943
134	0x3d70507c	0.058670506
135	0x3dcaea62	0.09907986
136	0xbde23d4f	-0.1104685
137	0x3b73adc0	0.003718242
138	0xbd878309	-0.0661679
139	0x3b9bf2f0	0.004759185
140	0x3dd324ba	0.103097394
141	0x3c72e210	0.014824405
142	0x3db2c748	0.08729416
143	0xba2c7700	-0.00065790117
144	0x3d90eaa4	0.07076004
145	0xbdd6bd8d	-0.10485373
146	0x3dd0f78c	0.10203466
147	0x3cc83598	0.024439618
148	0x3cc69ab8	0.024243698
149	0xbdcfd074	-0.10147181
150	0xbddfd47f	-0.10929202
151	0xbd94c4be	-0.07264088
152	0xbd102a9c	-0.035196885
153	0xbca975ac	-0.020685993
154	0xbdacfb0e	-0.084463224
155	0xbbe1ce80	-0.006891072
156	0x3d2fbc38	0.04290411
157	0x3d9e2b44	0.07723096
158	0xbd32fb2a	-0.04369656
159	0xbde1e215	-0.1102945
160	0x3d47680c	0.04868321
161	0xbdb0320a	-0.08603294
162	0x3cf8a6c8	0.030352965
163	0x3dccc118	0.09997767
164	0x3de9d7a0	0.1141808
165	0xbda0e6ff	-0.07856559
166	0xbd5b351e	-0.053517453
167	0x3d98d212	0.07461943
168	0xbd81ff38	-0.06347507
169	0xbdde7104	-0.108614
170	0x3dc3411c	0.09533903
171	0xbcdc06ac	-0.02685865
172	0x3d88c5c6	0.06678347
173	0xbb875e70	-0.004131131
174	0x3d8a152c	0.067423195
175	0xbc349628	-0.011022128
176	0xbc351fc0	-0.011054933
177	0xbc8daaf4	-0.01729343
178	0xbd9a9db8	-0.07549614
179	0xbd24b6f4	-0.04021354
180	0x3dc8a670	0.097973704
181	0x3d14d5f0	0.03633684
182	0x3de4b67e	0.1116762
183	0xbd851d60	-0.064997435
184	0xbdb776c4	-0.089581996
185	0xbdddd609	-0.108318396
186	0x3d8a2abe	0.06746434
187	0x3ba48040	0.0050201714
188	0x3d8f3732	0.069929495
189	0xbdda091d	-0.106462695
190	0x3dec47aa	0.11537106
191	0xbd13c2b8	-0.03607437
192	0x3de6ffde	0.112792715
193	0xbb8a0ca0	-0.004212931
194	0xbdbe1d15	-0.09282891
195	0xbdb4403c	-0.08801314
196	0x3bc0c1b0	0.0058824643
197	0xbdb5ee9d	-0.088834025
198	0x3d343034	0.043991283
199	0xbdce5a76	-0.10075848
200	0xbca2e010	-0.019882232
201	0xbd5879ac	-0.05285041
202	0x3d9368c8	0.0719772
203	0xbde83a27	-0.11339217
204	0xbdd1aa77	-0.10237592
205	0x3ceb0660	0.028689563
206	0xbd06f1ae	-0.032945327
207	0xbc93cc54	-0.018041767
208	0xbdb119c4	-0.086474925
209	0xbdc46502	-0.09589578
210	0xbc8feb08	-0.017568126
211	0x3dd21354	0.10257593
212	0xbd2f58a6	-0.04280915
213	0xbd1f9576	-0.038960896
214	0x3a7a8500	0.00095565617
215	0x3c270b00	0.010195494
216	0xbb79f900	-0.00381428
217	0xbdab2151	-0.08355964
218	0x3dea52fc	0.11441609
219	0xbdbf83ab	-0.093512855
220	0x3db01038	0.085968435
221	0xbdb7f976	-0.08983128
222	0xbd41b92a	-0.047295727
223	0xb86a1000	-5.580485e-05
224	0xbd4738b6	-0.04863807
225	0xbb28b600	-0.0025743246
226	0xbd1f6a4a	-0.038919725
227	0x3dd12550	0.10212195
228	0xbdab56ba	-0.08366151
229	0x3baed560	0.005335495
230	0xbc61deb8	-0.01378601
231	0xbde0bd91	-0.10973657
232	0x3de75da6	0.11297159
233	0x3de31b48	0.11089188
234	0xbdd0242d	-0.1016315
235	0x3cf5fad0	0.030026823
236	0x3d35e2f4	0.044405892
237	0xbbabc370	-0.005241804
238	0x3d95616c	0.072939724
239	0xbd97c75e	-0.07411073
240	0xbd76ec38	-0.06028387
241	0xbdd19781	-0.10233975
242	0x3c62f5f0	0.013852581
243	0x3d78d2c0	0.06074786
244	0xbd8066b4	-0.06269589
245	0x3dea5e3e	0.114437565
246	0x3dcd2622	0.10017039
247	0xbdced435	-0.10099069
248	0x3d05534c	0.03255014
249	0xbcc87c74	-0.024473406
250	0x3d86c022	0.06579615
251	0x3d16b8b4	0.03679724
252	0x3dd33c9a	0.10314293
253	0xbdb8b792	-0.09019388
254	0x3dae8788	0.08521944
255	0x3d5fc10c	0.054627463

localization.0.bias f4 [6]
0	0xbd82d586	-0.063883826
1	0xbd1a4962	-0.03766764
2	0xbdb2a681	-0.08723164
3	0xbdc98ed3	-0.09841695
4	0xbd2b0380	-0.041751385
5	0xbd3f9f5c	-0.046782836

localization.3.weight f4 [16, 6, 5, 5]
0	0xbb5ddae0	-0.0033852383
1	0x3d87f090	0.066376805
2	0x3d80ac7c	0.06282899
3	0x3c8f1e10	0.01747039
4	0xbccadf74	-0.024764754
5	0xbc45b000	-0.012065887
6	0x3d35980c	0.044334456
7	0xbcc6ea8c	-0.024281763
8	0x3d3c257c	0.045934185
9	0x3d271eea	0.040800966
10	0x3d602d10	0.054730475
11	0xbc8eebd8	-0.017446443
12	0xbd9e528a	-0.07730587
13	0x3d81878a	0.0632468
14	0xbd797086	-0.060898326
15	0x3cafdc48	0.021467343
16	0x3ca2f608	0.019892707
17	0x3d209ac4	0.039210096
18	0xbd7c9360	-0.061663985
19	0xbd973293	-0.07382693
20	0xbb1335a0	-0.0022462383
21	0xbd373235	-0.044725616
22	0x3d815748	0.06315476
23	0xbd0d26ea	-0.03446094
24	0xbc03f840	-0.008054793
25	0x3c66a788	0.0140780285
26	0xbc8cd368	-0.01719065
27	0xbd66c341	-0.056338552
28	0xbd83a267	-0.0642746
29	0xbd2852c6	-0.041094564
30	0x3c6de1b8	0.014519148
31	0x3ce72ff0	0.0282211
32	0xbd3f2463	-0.04666556
33	0x3da0b0f2	0.0784625
34	0x3cf331b0	0.029686779
35	0xbc844148	-0.01614441
36	0xbc8217ac	-0.015880428
37	0xbd34ab54	-0.044108704
38	0x3ab9e700	0.0014183223
39	0xbca86314	-0.020555057
40	0xbd14b1bc	-0.036302313
41	0xbd8d71bc	-0.06906459
42	0xbd96c0c5	-0.073609866
43	0xbb1354c0	-0.0022480935
44	0xbc86f5c8	-0.01647462
45	0x3d7f8f90	0.06239277
46	0x3d68e510	0.056859076
47	0x3c1b7038	0.009487204
48	0xbd87b0c4	-0.06625512
49	0x3d8865e6	0.066600606
50	0xbd8b99d2	-0.06816448
51	0x3c1f98d8	0.009741031
52	0x3d87f0ea	0.066377476
53	0x3b10b440	0.0022080094
54	0xbc544040	-0.0129547715
55	0x3a34a680	0.00068912655
56	0xbc910454	-0.01770226
57	0x3aef3d00	0.0018252432
58	0x3d4daa1c	0.050211057
59	0x3d47202c	0.048614666
60	0x3c276808	0.010217674
61	0x3d39af68	0.045333296
62	0xbcaf0e0c	-0.021369003
63	0x3d2a96be	0.041647665
64	0xbd702fda	-0.058639385
65	0xbd007b3b	-0.03136752
66	0xbd89c152	-0.06726326
67	0xbd978e73	-0.07400217
68	0xbd11e309	-0.03561691
69	0xbda06cf4	-0.07833281
70	0x3cb20e3c	0.021735303
71	0x3cc391e4	0.023873277
72	0x3cf66fd4	0.03008262
73	0xbcd330c6	-0.025780093
74	0xbda3ab76	-0.07991688
75	0xbd9ce41a	-0.076606944
76	0x3c11c550	0.008897141
77	0x3d99aa7a	0.07503219
78	0x3c986800	0.018604279
79	0xbc2da830	-0.010599181
80	0x3c6c0f88	0.014408
81	0xbcdb4ab6	-0.026769023
82	0xbd171f85	-0.036895294
83	0x3d8a434a	0.067511156
84	0xbbb83c40	-0.0056224167
85	0x3d266314	0.040621832
86	0xbd6d6c2e	-0.057964496
87	0x3b8a0da0	0.00421305
88	0x3d8876a8	0.06663257
89	0x3da49a70	0.08037269
90	0xbd2bf591	-0.041982237
91	0xbd499c1e	-0.04922115
92	0x3c360000	0.011108398
93	0x3d3bedd8	0.045881122
94	0xbd20f642	-0.03929735
95	0xbce49a56	-0.027905624
96	0x3d9aa530	0.07551038
97	0x3ca7e648	0.020495549
98	0x3d628ea0	0.0553118
99	0x3d2bc87a	0.041939236
100	0xbcf5fe24	-0.03002841
101	0x3c471c48	0.012152739
102	0x3bdd9230	0.0067618117
103	0xbd9d3844	-0.076767474
104	0x3d8f0432	0.06983222
105	0x3d6fdf7c	0.05856274
106	0x3d33e9e8	0.043924242
107	0x3c3cb458	0.011517607
108	0x3da6429e	0.08118175
109	0x3a57b000	0.0008227825
110	0x3d68d634	0.056844905
111	0xbd95dc36	-0.073173925
112	0x3d99ae4e	0.07503949
113	0xbda08b83	-0.0783911
114	0xbc1812c0	-0.009281814
115	0xbccc3aca	-0.024930377
116	0xbd25c10e	-0.040467314
117	0x3d123702	0.03569699
118	0xbd9bca4c	-0.076069444
119	0x3d51be14	0.051206663
120	0x3d19ff92	0.037597246
121	0x3d0c2fb0	0.034225166
122	0xbcf90886	-0.030399572
123	0xbd3b04f9	-0.04565904
124	0x3c19cdb8	0.009387426
125	0x3d5bbe9c	0.053648576
126	0xbc758278	-0.014984719
127	0xbd03ddd7	-0.032193985
128	0x3d80c346	0.062872455
129	0xbd687d9c	-0.056760415
130	0xbd967ece	-0.07348405
131	0xbd152696	-0.03641375
132	0xbcd13f4e	-0.025542881
133	0x3cd8b298	0.026452348
134	0x3d8364ce	0.06415711
135	0xbd95ba9a	-0.07310982
136	0xbd4640aa	-0.048401512
137	0xbd82a104	-0.063783675
138	0xbd12d5cd	-0.035848428
139	0x3cd3ec4c	0.025869511
140	0xbcadc264	-0.021210857
141	0xbce4087c	-0.027836077
142	0xbda10f4b	-0.07864245
143	0x3c430398	0.011902712
144	0x3d14db0a	0.036341704
145	0x3b7ebea0	0.0038870946
146	0xbd4b79f4	-0.04967685
147	0x3d1e6922	0.03867448
148	0x3cb09cd0	0.021559149
149	0x3d0c856a	0.03430692
150	0x3d360fc8	0.044448644
151	0x3d438e5c	0.047743186
152	0xbd9a10a6	-0.07522707
153	0xbc28ed60	-0.010310501
154	0xbd9e5035	-0.07730142
155	0xbb875e40	-0.0041311085
156	0x3d7745e0	0.060369372
157	0xbc171748	-0.009221859
158	0x3c47bc90	0.012190953
159	0x3d9497ca	0.07255514
160	0x3da3333a	0.07968755
161	0x3d398a5c	0.045297965
162	0x3d5f409c	0.054504976
163	0xbb38ddc0	-0.0028208345
164	0xbd80a6a9	-0.06281788
165	0x3b950210	0.004547365
166	0xbbb8dca0	-0.005641535
167	0x3cf8a1b4	0.030350544
168	0xbcf0af98	-0.029380605
169	0xbd8a484b	-0.0675207
170	0xba318180	-0.0006771311
171	0x3d81d83e	0.06340073
172	0xbd533ede	-0.051573627
173	0xbd2a1722	-0.041525967
174	0xbcbcdbaa	-0.023053963
175	0xbd951c76	-0.07280819
176	0xbd0bd67f	-0.034140106
177	0x3d10d450	0.035358727
178	0xbca26cd8	-0.019827291
179	0xbd867404	-0.06565097
180	0x3d50420c	0.050844237
181	0xbcd2478a	-0.025668878
182	0xbd130dbd	-0.035901774
183	0xbbf86730	-0.0075806603
184	0x3d8cbe74	0.068722636
185	0xbc378a98	-0.011202477
186	0xbd27337f	-0.040820595
187	0x3baf32a0	0.005346611
188	0x3d108bf6	0.035289727
189	0x3d26bdc2	0.04070831
190	0x3d7e36d4	0.062064007
191	0xbd630867	-0.055427935
192	0xbd265020	-0.040603757
193	0x3c3aeb88	0.011408694
194	0xbd21d6ea	-0.0395116
195	0x3da66282	0.081242576
196	0xbd9f89dd	-0.07789967
197	0xbd05c708	-0.032660514
198	0x3d1e60e6	0.03866663
199	0x3c59d490	0.013295308
200	0x3d326990	0.043557703
201	0xbccce7e8	-0.025012925
202	0x3d580d14	0.052746847
203	0x3d88ffa4	0.066893846
204	0xbd810924	-0.063005716
205	0x3c9960d0	0.018722922
206	0xbd537874	-0.051628545
207	0x3d076daa	0.03306357
208	0x3c7e4f10	0.01552178
209	0xbd302689	-0.0430055
210	0x3c141908	0.009039171
211	0xbd6ede96	-0.058317743
212	0x3d64628c	0.055758044
213	0x3d922166	0.071352765
214	0xbd4b98ac	-0.049706146
215	0x3d875a82	0.0660906
216	0xbc7a3310	-0.015270963
217	0x3d99ab7a	0.0750341
218	0x3d254570	0.040349424
219	0x3d9b024a	0.07568796
220	0xbd13aa0c	-0.03605084
221	0xbd67bbeb	-0.056575697
222	0x3d9812aa	0.07425435
223	0xbd6cbad2	-0.057795353
224	0x3b0c1ce0	0.0021379516
225	0x3c250f60	0.0100744665
226	0xbd266dfd	-0.040632237
227	0xbcf9dcd6	-0.03050081
228	0xbc14be98	-0.009078644
229	0x3c37c608	0.011216648
230	0x3c1daff8	0.009624474
231	0xbc51d990	-0.012808219
232	0x3d47e5ec	0.048803255
233	0xbd1ce8c1	-0.03830791
234	0x3d5fab58	0.054606766
235	0x3d8aa666	0.06770019
236	0xbd64e16e	-0.05587905
237	0xbd4a34c8	-0.049366742
238	0x3d0bff82	0.034179218
239	0xbcc093fc	-0.023508064
240	0xbd49eb4f	-0.049296673
241	0x3d3c0718	0.045905203
242	0xbca83d1e	-0.020536955
243	0xbd8c490b	-0.06849869
244	0x3d804b7e	0.06264399
245	0x3d08fd24	0.03344454
246	0xbd8843c0	-0.06653547
247	0xbcbd3d76	-0.023100596
248	0xbd55e976	-0.0522246
249	0x3d951814	0.07279983
250	0xbd711336	-0.05885621
251	0xbd9057f9	-0.070480295
252	0xbd9ffa95	-0.078114666
253	0xbd3d2909	-0.046181712
254	0x3c0a3b70	0.008437023
255	0xba7c7880	-0.0009630993

localization.3.bias f4 [16]
0	0x3d93df6e	0.0722035
1	0xbcb2622a	-0.021775324
2	0x3d92d5a6	0.071696565
3	0x3cf1a994	0.029499806
4	0x3da62b5a	0.081137374
5	0x3d8905fe	0.06690596
6	0x3d5be8b4	0.05368872
7	0xbd2ff167	-0.04295483
8	0x3d9fb238	0.077976644
9	0xbc08b6d0	-0.008344367
10	0xbd480e40	-0.048841715
11	0xbd86a67f	-0.06574725
12	0xbd85ddfe	-0.06536482
13	0x3d9d2c3e	0.07674454
14	0xbd74c3f8	-0.059757203
15	0xbd8441be	-0.06457852

colorization.0.weight f4 [6, 3, 5, 5]
0	0x3c3bbd38	0.0114586875
1	0x3d54a743	0.051917326
2	0xbe0023bf	-0.12513636
3	0xbdf5011c	-0.11963102
4	0xbcf6f1f4	-0.03014467
5	0x3ce5b3da	0.028039861
6	0x3d48f9cd	0.049066354
7	0xbd838574	-0.064219385
8	0xbdcc5555	-0.09977213
9	0xbccccdfb	-0.025000563
10	0x3d1676bb	0.036734324
11	0xbe2adb88	-0.16685307
12	0xbd78625e	-0.060640685
13	0xbc345e94	-0.011008877
14	0xbc42590b	-0.01186205
15	0xbd22e9fe	-0.039773934
16	0xbda10675	-0.0786256
17	0xbddcae07	-0.107753806
18	0xbc62546f	-0.013814076
19	0xbc3b88d2	-0.011446195
20	0x3cff7564	0.031183906
21	0xbe0835d4	-0.13301784
22	0xbe040397	-0.12891994
23	0xbe0bfb29	-0.13670029
24	0xbbfe714c	-0.007764971
25	0xbe0bae92	-0.13640812
26	0x3d990c5b	0.0747306
27	0x3d814f0f	0.06313907
28	0xbd94282c	-0.07234225
29	0xbd048248	-0.03235081
30	0x3d433e49	0.04766682
31	0xbd63feee	-0.05566304
32	0xbe267f8b	-0.16259591
33	0xbe123573	-0.14278202
34	0xbda261a0	-0.07928777
35	0xbd2b9268	-0.04188767
36	0x3b6454ce	0.0034840587
37	0xbd0f4bc0	-0.03498435
38	0xbd91046e	-0.07080923
39	0xbe0c2db0	-0.13689303
40	0x3c04824e	0.008087708
41	0xbd12584c	-0.035728738
42	0x3d346e1f	0.044050332
43	0xbd895234	-0.06705132
44	0x3d5fe2cc	0.05465965
45	0xbd96ee32	-0.07369651
46	0xbd895de7	-0.067073636
47	0xbdfe6654	-0.12421861
48	0xbd4d001f	-0.050048944
49	0x3d04e9e8	0.032449633
50	0x3d02ca8c	0.031931445
51	0x3adddf1f	0.0016927457
52	0x3d3d1621	0.046163682
53	0xbdfc4494	-0.12317768
54	0xbdb5a69c	-0.08869669
55	0xbaa7cfb0	-0.0012802985
56	0xbe10698c	-0.14102763
57	0x3d653302	0.055956848
58	0x3c8d6d0d	0.017263914
59	0x3b5c5a8a	0.0033623301
60	0x3d33770a	0.043814696
61	0xbd45717e	-0.048203938
62	0xbde56adf	-0.11202025
63	0xbe118547	-0.14210998
64	0xbab53ddf	-0.0013827643
65	0xbd261d4d	-0.040555287
66	0x3d3aa3ff	0.045566555
67	0x3bd7c431	0.006584667
68	0xbdfeba49	-0.12437875
69	0x3ca1001e	0.019653376
70	0xbdb7cc6d	-0.08974538
71	0xbd9d0639	-0.076672025
72	0xbb353d7b	-0.0027655053
73	0xbe125b01	-0.14292528
74	0xbd364b2b	-0.04450528
75	0xbd3d981e	-0.04628765
76	0x3d5d2170	0.053986967
77	0xbd0a5c69	-0.033779535
78	0xbc9a3999	-0.018826293
79	0xbb353b37	-0.0027653703
80	0xbe06c159	-0.13159694
81	0x3b5bca84	0.0033537457
82	0x3d58186b	0.05275766
83	0xbd5d304f	-0.05400115
84	0xbdc76e85	-0.09737877
85	0x3d0f1e93	0.034941267
86	0xbd7da35e	-0.061923377
87	0xbe1aa4ad	-0.15101881
88	0x3da07f70	0.07836807
89	0x3cc8153e	0.024424192
90	0xbe16e969	-0.14737476
91	0xbd7cdae1	-0.061732177
92	0xbdcf188a	-0.10112102
93	0xbd4d7cc6	-0.05016782
94	0x3d00cae6	0.0314435
95	0xbda2ed77	-0.07955449
96	0xbe060f61	-0.13091804
97	0xbd803529	-0.062601395
98	0xbdc356e1	-0.09538055
99	0x3d7abe24	0.06121649
100	0xbcd3e082	-0.02586389
101	0xbd49db2b	-0.04928128
102	0x3c105d73	0.0088113425
103	0xbdee4825	-0.11634854
104	0xbde32447	-0.11090904
105	0xbdea0623	-0.11426952
106	0xba9d278a	-0.0011989933
107	0xbe3f6478	-0.1869067
108	0xbdeea746	-0.116529986
109	0xbe0af977	-0.13571726
110	0xbe2e03d3	-0.16993646
111	0xbe395d75	-0.18102057
112	0xbdfa1d05	-0.12212566
113	0x3d438223	0.04773153
114	0xbd88ba4f	-0.066761605
115	0xbd9c60f7	-0.07635682
116	0x3d37d25a	0.04487834
117	0xbd91cb13	-0.071188115
118	0x3d57ca63	0.052683245
119	0xbd80b238	-0.062839925
120	0xbe014baa	-0.1262652
121	0x3d445312	0.047930785
122	0xbd361a92	-0.044458933
123	0xbdf6b1ba	-0.120456174
124	0xbdbb6761	-0.09150577
125	0xbe3328b9	-0.17496003
126	0xbcdfae0c	-0.027304672
127	0xbcaf9f52	-0.021438275
128	0x3d3c79e9	0.0460147
129	0xbd4ef4e8	-0.05052653
130	0x3c0693d3	0.008213955
131	0x3af7447e	0.0018865017
132	0xbd524cb5	-0.051342685
133	0xbe16afe7	-0.14715539
134	0xbe01fe0b	-0.12694566
135	0x3cdbba23	0.026822155
136	0xbe4183d1	-0.1889794
137	0xbe36f867	-0.17868195
138	0xbc845ec8	-0.016158476
139	0xbe0effe9	-0.1396481
140	0xbe44997d	-0.19199176
141	0x3d1e2ae6	0.03861513
142	0x3d4ff9da	0.050775386
143	0xbd638261	-0.05554426
144	0xbd5abb03	-0.053401005
145	0x3c18360e	0.009290231
146	0xbd3d9335	-0.046282966
147	0xbe171177	-0.14752756
148	0x3c85a252	0.016312752
149	0xbddc5f90	-0.107604146
150	0xbe0e9d26	-0.13927135
151	0xbcf9e22f	-0.03050336
152	0xbd870d31	-0.06594313
153	0xbe0549ca	-0.1301643
154	0x3d5b68f2	0.05356688
155	0x3c9f5a8b	0.019452354
156	0xbd9fddb1	-0.07805956
157	0xbe10347f	-0.14082526
158	0xbe179cf0	-0.1480596
159	0xbd83f891	-0.06443895
160	0xbe192abd	-0.1495771
161	0x3d00267e	0.03128671
162	0xbd1cf06f	-0.038315233
163	0xbda9e3cf	-0.08295404
164	0xbd94f581	-0.07273389
165	0x3d34d161	0.04414499
166	0x3d55c512	0.052189894
167	0x3d452cda	0.048138477
168	0x3cf2c3d0	0.029634386
169	0xbc37d756	-0.011220774
170	0xbd794975	-0.06086107
171	0xbdd80f90	-0.10549843
172	0x3d4408a4	0.047859803
173	0x3d47a624	0.04874243
174	0x3a66c6c3	0.00088034215
175	0xbe0f6b22	-0.14005712
176	0x3cf14eb5	0.029456476
177	0xbd823a86	-0.06358819
178	0xbc77e6a8	-0.015130676
179	0xbd3e1b49	-0.04641274
180	0xbdc10c26	-0.09426145
181	0x3cd4ee8e	0.025992658
182	0xbe1b1c32	-0.15147474
183	0x3d489613	0.048971247
184	0xbc922dd3	-0.017844116
185	0xbe19a9f9	-0.15006246
186	0xbda472f2	-0.080297366
187	0xbde6d036	-0.11270182
188	0x3d254aa9	0.040354405
189	0xbe0edaa6	-0.13950595
190	0xbdb6634d	-0.08905659
191	0x3cf0e992	0.02940825
192	0x3d96c8e1	0.07362533
193	0xbd313697	-0.04326495
194	0xbe16364b	-0.14669149
195	0xbdcd945e	-0.100380644
196	0xbd40dcaa	-0.04708544
197	0x3d17ff97	0.037108984
198	0xbd0b308a	-0.033981837
199	0x3d6ac92c	0.05732076
200	0xbcfaeaf2	-0.030629609
201	0x3d37ab19	0.044840906
202	0x3c825ea5	0.01591427
203	0x3d93b3c1	0.0721202
204	0xbcf8d336	-0.03037415
205	0xbd4002d6	-0.046877705
206	0x3c27f1c0	0.010250509
207	0xbd3115ff	-0.043233868
208	0xbda3bafe	-0.0799465
209	0xbe1ef74f	-0.15524028
210	0xbe0c0cf3	-0.13676815
211	0xbb7c89de	-0.0038534324
212	0xbdef4021	-0.116821535
213	0xbd86ce66	-0.06582336
214	0xbdf2eef8	-0.11861986
215	0xbd10ceb2	-0.03535337
216	0xbde3ae3b	-0.11117216
217	0xbdaf7f9f	-0.08569264
218	0xbdc8047b	-0.097664796
219	0xbc98f469	-0.018671231
220	0xbe015fb7	-0.12634169
221	0xbca7a068	-0.02046223
222	0x3c632c4b	0.013865541
223	0xbd965ef3	-0.07342329
224	0xbdf6dec4	-0.12054208
225	0xbd9d28c4	-0.07673791
226	0x3d7a61bd	0.061128367
227	0xbdfbf872	-0.123032466
228	0x3d4213fa	0.047382332
229	0xbc9c1049	-0.019050734
230	0xbdf327a1	-0.11872793
231	0xbd69d3ec	-0.05708687
232	0xbdf8b4c4	-0.12143853
233	0xbddfdc1f	-0.10930657
234	0x3caab9cc	0.020840548
235	0x3ce6f0ef	0.028191058
236	0xbdc511e8	-0.09622556
237	0xbc1fbee4	-0.009750102
238	0xbe1b33c7	-0.1515647
239	0xbc369d38	-0.011145882
240	0xbdafe585	-0.08588699
241	0xbd0237cf	-0.031791504
242	0xbdb2193c	-0.08696219
243	0xbcc78754	-0.024356522
244	0xbdd05d10	-0.10174
245	0x3d8b02be	0.067876324
246	0xbdfa7abb	-0.1223044
247	0xbdb9a0a8	-0.09063846
248	0xbe398cb6	-0.18120083
249	0x3d41c472	0.047306485
250	0xbdb1e484	-0.08686164
251	0x3d11a710	0.035559714
252	0x3d18611a	0.03720198
253	0x3d21de67	0.03951874
254	0x3cefeabf	0.02928674
255	0xbdf90bba	-0.1216044

colorization.0.bias f4 [6]
0	0xbaa1be82	-0.0012340101
1	0x3c020206	0.007935053
2	0x3d1979d7	0.03746971
3	0xbe253b07	-0.16135798
4	0xbe86ef5a	-0.26354486
5	0xbd283f19	-0.0410758

colorization.3.weight f4 [16, 6, 5, 5]
0	0xbda6abcf	-0.08138239
1	0xbd6b487e	-0.05744218
2	0xbe0d66fa	-0.13808814
3	0xbdff6f69	-0.12472422
4	0xbd73b120	-0.05949509
5	0xbdacf82e	-0.08445774
6	0xbda912d2	-0.08255543
7	0xbd169d6d	-0.036771227
8	0x3b144c3f	0.0022628454
9	0xbdea652a	-0.11445077
10	0xbe0829b5	-0.1329716
11	0xbdda40c0	-0.10656881
12	0xbda6d550	-0.08146155
13	0xbdb22fc9	-0.087005205
14	0xbdceaab2	-0.10091151
15	0xbd91074f	-0.07081472
16	0xbe0d2ebc	-0.13787359
17	0xbdb1d035	-0.086822905
18	0x3d25cddb	0.040479522
19	0xbdbb4346	-0.09143691
20	0x3c75acb1	0.014994786
21	0xbddccccb	-0.10781249
22	0xbe0ee57b	-0.13954727
23	0x3cadb6ba	0.021205295
24	0xbded48fb	-0.115861855
25	0xbd8ee12a	-0.069765404
26	0x3b0ff1a1	0.002196409
27	0xbbe678ef	-0.0070334594
28	0xbd829bf9	-0.06377406
29	0xbd682800	-0.056678772
30	0xbd250e0e	-0.040296607
31	0xbd2b115c	-0.041764602
32	0xbc01ab96	-0.007914444
33	0xbda7ea09	-0.081989355
34	0x3c8ff75b	0.017574003
35	0x3c764f1b	0.015033509
36	0x3b985579	0.004648861
37	0xbda13f5a	-0.078734115
38	0xbc9186d8	-0.017764494
39	0xbdc947f4	-0.09828177
40	0xbd50a056	-0.05093416
41	0xbdb5bdbc	-0.088740796
42	0xbbbd868c	-0.0057838615
43	0x3c50ee07	0.012752063
44	0xbd045de2	-0.032316096
45	0xbe0a5b11	-0.13511302
46	0x3dab8883	0.08375647
47	0xbdccb774	-0.099959284
48	0xbd99d8cd	-0.075120546
49	0xbb9d5fbd	-0.0048026727
50	0x3c1d72a2	0.00960985
51	0xbdeed1ec	-0.11661133
52	0xbe05fa2d	-0.13083716
53	0xbbdf8963	-0.0068217977
54	0xbdb1dca9	-0.08684666
55	0xbcf22256	-0.029557388
56	0xbdb75105	-0.08951
57	0xbd263429	-0.040577088
58	0xbd3de3c7	-0.046359804
59	0xbdb6094a	-0.088884905
60	0x3cf3e1c8	0.029770747
61	0xbc570e92	-0.013126032
62	0x3dbf205a	0.093323424
63	0x3db702cf	0.089360826
64	0xbe01e535	-0.12685092
65	0xbd95602d	-0.07293735
66	0xbdfbd156	-0.12295787
67	0xbd964f65	-0.07339362
68	0xbdac41bf	-0.084109776
69	0xbd10841a	-0.035282232
70	0xbda458de	-0.080247626
71	0xbc97c30a	-0.018525619
72	0xbd6bb4bb	-0.057545405
73	0xbd19f2a7	-0.037584927
74	0x3c548ccc	0.012973022
75	0xbe0b025b	-0.13575117
76	0x3c33c225	0.010971581
77	0x3d3d00c5	0.046143312
78	0xbcd7cb24	-0.026341982
79	0x3c180005	0.009277348
80	0xbd164a6d	-0.03669207
81	0xbd94ca53	-0.07265153
82	0xbdece259	-0.1156661
83	0xbc58e760	-0.013238758
84	0xbda9a08d	-0.08282576
85	0x3c9794f6	0.018503647
86	0xbd86f4f0	-0.06589687
87	0xbd35ae74	-0.044355825
88	0xbd880fbd	-0.06643627
89	0x3db48837	0.088150434
90	0xbd20e7eb	-0.039283674
91	0xbd89e1ca	-0.06732519
92	0x3b2903e3	0.002578967
93	0xbe0db90b	-0.1384012
94	0xbde90fc2	-0.11379959
95	0xbdbb00e6	-0.09131031
96	0xbe06766c	-0.13131112
97	0xbdaa6966	-0.083208844
98	0x3d2e5f3a	0.042571284
99	0x3d09669d	0.033545125
100	0xbca0f7cb	-0.019649407
101	0xbdc7e3b2	-0.09760226
102	0x39c92297	0.0003836348
103	0xbd7e9bcb	-0.062160295
104	0xbe0c9447	-0.13728438
105	0xbd632ecb	-0.055464547
106	0x3d325128	0.043534428
107	0xbd5ddf48	-0.054168016
108	0xbe0c3842	-0.13693336
109	0xbdc56205	-0.09637836
110	0xbd21766e	-0.039419584
111	0xbd739d81	-0.05947638
112	0xbcf93840	-0.03042233
113	0xbdce9a8f	-0.100880735
114	0xbcbb2a36	-0.022847276
115	0xbdecde4e	-0.11565839
116	0xbd29894c	-0.041390702
117	0xbd7aad7e	-0.06120061
118	0x3c920063	0.01782245
119	0x3bfbe35e	0.0076870164
120	0xbdacfde6	-0.08446865
121	0xbd462ee4	-0.048384562
122	0xbdc48a50	-0.095966935
123	0xbdba4545	-0.09095243
124	0xbd98b5ed	-0.074565746
125	0xbda28bc0	-0.079368114
126	0xbda2db46	-0.07951979
127	0xbd2fe1b8	-0.04293987
128	0xbdc9184e	-0.09819089
129	0xbd00afa2	-0.031417497
130	0xbadb4afc	-0.0016730721
131	0xbdae8012	-0.08520521
132	0xbd65e08d	-0.05612235
133	0x3b5e521f	0.003392346
134	0xbcc227c6	-0.023700606
135	0xbd0b2d0d	-0.03397851
136	0xbd0e43e9	-0.034732733
137	0xbd90a5e7	-0.07062893
138	0xbc19c6d9	-0.009385788
139	0x3c665945	0.014059369
140	0xbe010c95	-0.12602456
141	0xbdec9f7c	-0.11553857
142	0x3c95c641	0.018283011
143	0xbd35e9a6	-0.044412278
144	0xbdeaf2a0	-0.11472058
145	0x3c1e2297	0.009651802
146	0xbd117195	-0.03550871
147	0xbdc1123d	-0.09427307
148	0x3c952a31	0.018208595
149	0xbd21119d	-0.039323438
150	0xbd2e06df	-0.04248702
151	0x3c45e598	0.012078665
152	0xbdfb5c71	-0.12273491
153	0xbdeec8f3	-0.11659422
154	0x3b80432f	0.003914259
155	0x3ce55264	0.027993388
156	0xbda8f3f8	-0.08249658
157	0x39de40a8	0.00042391312
158	0xbc9e63b2	-0.019334648
159	0xbdbc0ee4	-0.09182528
160	0xbdf76b3c	-0.12081
161	0xbd35e15c	-0.044404373
162	0xbc5668e5	-0.013086532
163	0xbd56d129	-0.052445564
164	0xbda005fe	-0.07813643
165	0xbd894bc5	-0.06703905
166	0xbd4ca984	-0.04996635
167	0x3c975019	0.01847081
168	0x3c886577	0.016649945
169	0xbd6b5cc8	-0.05746153
170	0x3a876254	0.0010328987
171	0x3bfbada9	0.007680614
172	0xbdf7bb24	-0.12096241
173	0x3bd5837b	0.006515918
174	0xbcdb58b9	-0.026775705
175	0xbca630c8	-0.020286933
176	0x3d40400a	0.046936072
177	0xbdaead2e	-0.08529125
178	0xbdb7dfa0	-0.089782
179	0xbd897f7e	-0.0671377
180	0x3bba08a3	0.005677299
181	0x3cb29fbf	0.021804688
182	0x3b183fb0	0.002323132
183	0xbc6b47e9	-0.014360406
184	0xbd390eb7	-0.04518005
185	0xbcc295e3	-0.023753112
186	0x3d2463ca	0.04013423
187	0xbdade71e	-0.08491348
188	0x3d0dddf2	0.03463549
189	0xbd57a2c7	-0.05264547
190	0xbd8faa91	-0.07014955
191	0xbd9553a6	-0.07291345
192	0xbd37278c	-0.04471545
193	0xbc037782	-0.008024098
194	0x3d173612	0.0369168
195	0xbcf858fb	-0.030315867
196	0xbdbcc617	-0.0921747
197	0xbc86b84a	-0.016445298
198	0xbd24a185	-0.0401931
199	0xbce8adfc	-0.028403275
200	0xbcbb0c0b	-0.022832891
201	0xbdb58637	-0.0886349
202	0x3be92765	0.007115292
203	0x3cc88de9	0.02448173
204	0xbd561a9a	-0.052271463
205	0xbd82c4ef	-0.06385218
206	0xbd700e29	-0.058607254
207	0xbdca9e1a	-0.09893437
208	0x3c12f778	0.008970134
209	0xbd12594b	-0.035729688
210	0xbdb6a82b	-0.08918794
211	0xbdcb441b	-0.099250995
212	0x3c7bfb54	0.0153797455
213	0xbdec9ddc	-0.11553547
214	0x3c706b0c	0.014673959
215	0xbd8f00e6	-0.06982593
216	0x3c8e7e6c	0.017394267
217	0xbdf1a503	-0.117990516
218	0xbd84bc41	-0.06481219
219	0xbd321c31	-0.043483917
220	0xbdf9d52d	-0.12198863
221	0x3bc613c3	0.0060448362
222	0xbcc4e92a	-0.024036963
223	0x3c8392ab	0.016061148
224	0xbdabdde2	-0.0839193
225	0xbd1059bf	-0.03524184
226	0x3b9d6e35	0.0048043975
227	0xbdf0c497	-0.117562465
228	0xba8bc503	-0.0010663572
229	0x3ce14a53	0.02750126
230	0xbdc345ca	-0.095347956
231	0x3d01e688	0.031713992
232	0xbdc8e5b9	-0.09809441
233	0x3ca573c3	0.020196801
234	0xbcb896f1	-0.022532912
235	0xbdc5038a	-0.09619816
236	0x3cb45307	0.022012247
237	0x3cc40bec	0.023931466
238	0x3c9380a0	0.01800567
239	0xbc3a3ebe	-0.011367498
240	0xbde54b88	-0.11196047
241	0xbc90a382	-0.017656092
242	0xbda5f45e	-0.0810325
243	0xbdeffae0	-0.117177725
244	0xbd3aaf09	-0.045577083
245	0x3c4ffd88	0.012694724
246	0x3b7e8445	0.0038836163
247	0xbd6b78cf	-0.05748826
248	0xbdc38499	-0.09546775
249	0xbde2bf20	-0.110716105
250	0xbb408bf8	-0.0029380303
251	0xbd1f9ae8	-0.03896609
252	0x3caf4b79	0.021398293
253	0xbd3a460a	-0.04547695
254	0xbba79919	-0.005114686
255	0xbc842f1b	-0.016135743

colorization.3.bias f4 [16]
0	0xbe275e75	-0.16344626
1	0xbdcfe3f7	-0.10150903
2	0xbdea2767	-0.11433297
3	0xbdb60a83	-0.08888724
4	0xbd85758e	-0.065165624
5	0xbdb56ce3	-0.08858659
6	0xbd8e0e52	-0.06936325
7	0xbd6e7c8f	-0.058224257
8	0xbde97061	-0.11398388
9	0xbda52375	-0.080634035
10	0xbdf965e1	-0.12177635
11	0xbde2a669	-0.110668965
12	0xbde7409e	-0.112916216
13	0xbdb7721a	-0.0895731
14	0xbda84be9	-0.08217604
15	0xbd35ef7b	-0.04441784
