temp_transformer.pt (torch_old, 201405 bytes, 18 tensors)

fc1.weight f4 [50, 320]
000000 28 d7 13 bc ea 80 53 3d 30 dd 53 bb 00 96 15 ba
       -0.009023465 0.051636614 -0.0032327883 -0.00057062507
000010 fc 57 15 bd a0 42 60 bd f8 9a a6 bc 08 b4 8d 3c
       -0.03646086 -0.05475104 -0.020337567 0.01729776
000020 48 3b c7 bc 24 2b 2c 3d 8d bd 35 bd d7 12 15 bd
       -0.02432026 0.04203333 -0.044370223 -0.03639492
000030 f2 fc 50 3d dc 63 22 bc e2 ba e8 bc 46 aa 46 bd
       0.051022477 -0.009911504 -0.028409425 -0.04850223
000040 70 01 54 3d 00 60 b9 36 c6 79 8d bc d0 df a4 3c
       0.051759183 5.5246055e-06 -0.01726998 0.020126253
000050 f4 bc f0 bc c0 eb 26 bd 16 cd fa bc 00 f4 39 bd
       -0.029386975 -0.040752172 -0.03061537 -0.045398712
000060 cb a7 f0 bc d8 33 8a bb 90 f4 87 bb 23 f9 1f bd
       -0.029376885 -0.004217606 -0.004149027 -0.039055955
000070 f8 2e 12 3d 98 70 d6 3c c8 59 c7 bb 3a 16 60 bd
       0.035689324 0.026176736 -0.006083701 -0.054708697
000080 28 d7 a9 bc d4 22 58 bc 80 26 64 3c 54 df 0d 3d
       -0.020732477 -0.013191897 0.013925195 0.03463681
000090 02 12 c2 bc c0 9f 89 ba e4 e8 16 3d 6a 31 db bc
       -0.023690227 -0.001049988 0.036843196 -0.02675696
0000a0 f0 6d ff bb 96 91 86 bc 30 18 48 3b 26 04 fb bc
       -0.007795088 -0.016426843 0.0030531995 -0.030641627
0000b0 b2 65 0e bd ce 6c d2 bc 14 ea 3e bc c2 e8 37 bd
       -0.034764953 -0.025686648 -0.011652488 -0.04489971
0000c0 b8 f7 31 3d 38 d2 1b 3d 50 03 cb bb d6 26 a0 bc
       0.043449134 0.038042277 -0.0061954632 -0.019549768
0000d0 80 b3 22 3d 48 17 2a 3d 38 0d 96 3c c4 43 70 bc
       0.039721966 0.04152611 0.01831685 -0.014664594
0000e0 40 c0 d2 ba 40 5c 47 3d 44 fa 96 3c 57 3e 12 bd
       -0.0016079023 0.04867196 0.018429883 -0.035703983
0000f0 fc 91 ec bc 42 e1 4a 3d a4 13 8e 3c 6c 93 6d bc
       -0.028878205 0.04953123 0.01734335 -0.01450048
000100 14 c3 54 3d 60 73 61 3c c8 f7 ac 3c c0 e3 78 ba
       0.051943853 0.013760418 0.021114245 -0.00094943866
000110 5a 75 e6 bc f2 a3 47 3d 26 9d 53 bd 80 f6 10 3d
       -0.02813213 0.048740335 -0.05166354 0.03539133
000120 30 f3 0c 3b c0 12 b8 3c 80 fe 62 3d 60 84 ec bb
       0.0021507256 0.022469878 0.05541849 -0.007217929
000130 e4 71 53 3d d4 f3 c6 3c 20 41 80 ba 9c be 78 bc
       0.051622286 0.024286188 -0.0009785034 -0.015182164
000140 06 e3 1a bd 3d 23 3b bd c4 30 89 3c 69 19 25 bd
       -0.037814163 -0.045687903 0.016746886 -0.040307436
000150 c0 98 90 3b 9c 6f 17 3d c9 4d e5 bc 06 11 b6 bc
       0.0044127405 0.036971673 -0.027991192 -0.022224914
000160 20 fc c5 3c e0 af e6 3a 88 38 91 bb 50 e8 f0 3c
       0.024168074 0.0017600022 -0.004431788 0.02940765
000170 78 6f 31 3c f8 d0 39 3d 28 1f ab bb 96 21 18 3d
       0.010829799 0.045365304 -0.00522222 0.037141405
000180 0c 8a b1 3c 80 d6 25 3d 33 c5 24 bd 80 5e 18 bb
       0.021672271 0.040487766 -0.040227126 -0.0023249686
000190 e8 c9 91 bc 56 85 cc bc 1a 7a 4f 3d 48 a0 cb bb
       -0.017796472 -0.024965923 0.050653554 -0.0062141754
0001a0 22 e8 aa bc f8 66 ff bb 94 30 da 3c 80 7e 83 3c
       -0.020862643 -0.0077942573 0.026634492 0.01605153
0001b0 c2 c7 1f bd 0c 2c b7 bc f8 2f a2 3b 50 24 b9 3b
       -0.039008863 -0.02235987 0.004949566 0.0056500807
0001c0 af d0 cf bc e0 f1 95 ba 58 df 28 3c 0a 68 ca bc
       -0.025368063 -0.0011439882 0.010307156 -0.024707813
0001d0 12 14 50 bd b9 1f 28 bd 21 53 4d bd bc 61 31 3d
       -0.05080039 -0.041045878 -0.050128106 0.043306097
0001e0 d8 24 3e bd 8e 99 04 bd 78 d8 22 bc 94 e6 c7 bc
       -0.046421856 -0.032373004 -0.0099393055 -0.02440194
0001f0 bc a6 c1 bc 89 2b ee bc de d0 83 bc d0 7b 5e 3d
       -0.023639075 -0.029073494 -0.016090807 0.054317296
000200 de 3e 61 bd 75 d9 11 bd 60 36 6a 3c 52 12 5f 3d
       -0.054991595 -0.035607774 0.014295191 0.05446083
000210 21 1c db bc ac 01 5a bd b8 dc 5e 3c 34 bb 11 bd
       -0.026746811 -0.05322425 0.013602428 -0.03557892
000220 23 27 2b bd f4 f3 54 bc 44 3e 50 3d 54 31 48 bd
       -0.04178537 -0.012997616 0.05084063 -0.048875168
000230 60 3e 29 bd ca 87 e0 bc 3e cb b6 bc c0 da bf 3a
       -0.04131925 -0.0274085 -0.02231371 0.0014637336
000240 76 67 14 3d 3c 7c 3f 3d 50 10 0a 3b bc 42 00 3d
       0.03623148 0.04674934 0.0021066852 0.031313643
000250 60 b6 c8 ba b0 46 7b 3c 98 76 53 3d 53 f1 2e bd
       -0.0015313141 0.015336677 0.05162677 -0.042710613
000260 04 1f 9e 3c fc 11 4b 3d 8f 21 60 bd 18 9a e8 bb
       0.019301899 0.049577698 -0.054719504 -0.0070984475
000270 c0 f3 c2 3a 32 94 18 bd 36 ba 46 3d 58 ba cc bc
       0.0014873669 -0.037250705 0.04851743 -0.0249912
000280 2c ab e1 3c a8 cd a6 3c e0 0b e3 bc 6c 5a 9c 3c
       0.027547441 0.020361736 -0.027715623 0.019086085
000290 e0 48 ff bc ea 93 09 bd 90 6b ed 3b 00 4f dc bb
       -0.03116268 -0.033588327 0.0072454885 -0.0067232847
0002a0 86 41 ff bc 34 fd dd 3c 56 07 45 bd 06 fb 35 bd
       -0.031159174 0.027098276 -0.0481027 -0.044428848
0002b0 00 82 88 3b 2d c4 45 bd 70 20 bc 3c 8c f2 45 bc
       0.004165888 -0.04828279 0.022964686 -0.012081753
0002c0 a8 ae 51 3c 5e e5 19 bd c0 80 15 3b 7e b6 4c 3d
       0.012797989 -0.037572257 0.0022812337 0.049978726
0002d0 3c a6 0d bc be ae 4b bd d8 0e 4c bd d0 af 8b 3b
       -0.00864559 -0.049727194 -0.049818844 0.004262902
0002e0 42 97 07 bd 9d 94 2b bd d4 95 ec bc 90 ea c6 3c
       -0.033103235 -0.041889776 -0.028880037 0.02428177
0002f0 36 31 63 bd 58 e4 01 3c c0 86 ef bb 62 3a 45 3d
       -0.055466853 0.007927977 -0.0073097646 0.04815138
000300 c4 e1 58 bc 08 4b d0 3c 8c 0a e3 bc fe 58 be bc
       -0.0132374205 0.025426403 -0.02771499 -0.023235794
000310 26 b9 07 3d 33 38 08 bd 44 91 76 bc ca a7 05 3d
       0.033135556 -0.03325672 -0.015049282 0.03263072
000320 40 64 d5 3b f3 3d 5c bd 20 48 ea 3c c8 60 1e 3c
       0.006512195 -0.053770017 0.028598845 0.009666629
000330 be 43 a3 bc dc 11 a7 bc 61 79 d8 bc c0 49 7f bc
       -0.019929763 -0.020394258 -0.026425065 -0.015581548
000340 03 05 e2 bc 44 28 48 3d 26 69 49 bd b8 c1 46 3d
       -0.02759028 0.048866525 -0.049172543 0.04852459
000350 e0 14 f3 bb 78 7a fd 3c ec c8 2d bc d0 42 4a 3c
       -0.00741826 0.030942187 -0.010606986 0.012345031
000360 ee dc 5f 3d 9a 72 2e 3d aa 10 0d 3d c0 e0 b3 3a
       0.054654054 0.04258976 0.03443972 0.0013723597
000370 06 a4 07 bd 0c 49 9a 3c 40 d7 f1 3b 12 a9 a7 bc
       -0.03311541 0.01883366 0.007380396 -0.020466361
000380 aa ee 56 3d 6f b5 2b bd 48 cf 4b 3d d6 68 e1 bc
       0.0524737 -0.041921075 0.049758226 -0.02751581
000390 68 34 19 3d 7b b4 31 bd c8 5e a4 3b 48 cc 11 bd
       0.037403494 -0.04338501 0.0050161816 -0.03559521
0003a0 66 85 00 3d 30 92 12 3d a2 df 4e 3d 00 5b 5a 3d
       0.03137722 0.035783947 0.05050624 0.05330944
0003b0 9c 29 55 bd c8 7b 5f bd a0 5a 27 3c 02 a3 bd bc
       -0.052041635 -0.054561406 0.010214478 -0.023149017
0003c0 b0 af 3c 3d 70 18 48 3c 76 58 90 bc 30 a8 01 3c
       0.046065986 0.012212858 -0.017620306 0.007913634
0003d0 84 bb cf 3c 7b 97 61 bd 28 8a 9e bb 64 a4 48 3d
       0.02535797 -0.055076104 -0.004838247 0.0489849
0003e0 88 49 1d 3c 86 21 3d bd 00 ce b3 39 18 e8 1a bd
       0.009600051 -0.04617455 0.00034295022 -0.037818998
0003f0 c0 ee a1 bb a8 e6 5d bd 2a f9 03 3d 00 f6 3c 39
       -0.0049417913 -0.05417505 0.032220043 0.0001802072

fc1.bias f4 [50]
000000 32 b1 5e 3d 9a 38 02 3d 0c 84 0c bd 08 ea 88 bb
       0.054368205 0.03179226 -0.034305617 -0.0041782893
000010 9c b2 db 3c bc db 06 3d 4a bf c2 bc c0 85 d9 bc
       0.026818566 0.0329244 -0.023772854 -0.026553035
000020 a9 11 eb bc 5e 0c ed bc 14 bb fe 3c 10 63 8b bc
       -0.028694944 -0.028936561 0.031095065 -0.01701501
000030 80 07 9c bc c8 01 8d bc 40 5e be bc 40 5b 60 ba
       -0.019046545 -0.017212763 -0.023238301 -0.0008558519
000040 b4 6e 50 bd 60 24 1e 3b 00 1d 29 3c 30 54 71 bc
       -0.050886825 0.0024130568 0.010321856 -0.0147295445
000050 fc 3a fd 3c 54 b3 9c bc ec 5d 81 3c ca 45 61 3d
       0.030911915 -0.019128479 0.015791856 0.054998197
000060 c8 c1 f9 bb 98 53 5e bd 44 a5 03 bd ae 4a 3c 3d
       -0.0076219775 -0.05427894 -0.03214003 0.045969658
000070 92 19 09 3d c0 e6 df 3c 80 5f 66 3a 62 64 41 bd
       0.03347165 0.02733171 0.00087880343 -0.047214873
000080 d8 72 4c 3d 9c 25 60 3d c8 e4 81 3b d0 f2 8e 3b
       0.04991421 0.054723367 0.0039640404 0.0043624416
000090 94 e1 dd 3c 84 9d b8 bc 72 ed 20 3d 50 7b 59 3c
       0.027085103 -0.022536047 0.039288945 0.013274029
0000a0 c2 d7 33 bd d7 7a 16 bd cc f3 f6 3c c4 5d a8 3c
       -0.043906935 -0.036738243 0.030145548 0.020552523
0000b0 2c 92 ef 3c 69 fe df bc c8 a2 48 bc a4 a3 ae 3c
       0.029244505 -0.027342992 -0.012245841 0.021318264
0000c0 44 ff cd 3c 27 9a f7 bc
       0.025146134 -0.030224873

fc2.weight f4 [10, 50]
000000 b0 5e bc bd 84 35 0a 3d b0 b3 29 bd 08 ec ac bd
       -0.09197748 0.033742443 -0.04143113 -0.08443457
000010 ac 70 b8 bc 0b 01 09 3e 90 c8 41 3d fa 39 bc 3d
       -0.022514664 0.13379304 0.047310412 0.09190746
000020 cc b7 0b 3d 78 1d 77 bd 12 63 ff bd 98 28 07 3d
       0.03411083 -0.060330838 -0.12470068 0.032997698
000030 1e a1 c1 bd 20 fa a4 bb 20 36 9e bd 6c 48 a5 bc
       -0.09454559 -0.0050347 -0.07725167 -0.020176135
000040 ee d4 c8 bd a5 8b 96 bd 34 2b e5 bc 6c d2 68 bd
       -0.09806238 -0.07350854 -0.027974702 -0.0568413
000050 38 c3 5b bd a0 35 85 3c ab 29 c0 bd d8 2e 99 bd
       -0.053652972 0.016260922 -0.093829475 -0.07479638
000060 ec cc dc 3d fa 8e a3 3d 18 64 ee bc 93 f3 b5 bd
       0.10781273 0.07986255 -0.029100463 -0.08884349
000070 01 39 cb bd fa d4 2b bd 80 26 97 3d 07 53 09 be
       -0.09922982 -0.041951157 0.0738039 -0.13410579
000080 9d c6 94 bd c0 92 d3 bc 58 9f 1e 3d a0 a8 bc bd
       -0.07264445 -0.025826812 0.03872618 -0.0921185
000090 40 3f fb bb ef 7e 9a bd 3d 17 0e 3e 6e e0 30 bd
       -0.007667452 -0.07543742 0.13876052 -0.043182783
0000a0 e0 f8 9a 3c 34 57 5d 3d 5b 25 08 be ae fe a4 3d
       0.018917501 0.05403824 -0.132955 0.08056389
0000b0 a8 f1 89 3c ea 79 f2 3d 38 f7 8d 3c 20 ed c2 bb
       0.016838863 0.118396595 0.017329797 -0.0059486777
0000c0 e1 2e a5 bd 70 2f 77 bc 00 57 64 3d 7a a9 00 be
       -0.08065582 -0.015086994 0.055747032 -0.1256465
0000d0 65 a3 c3 bd 10 ef 2d bc da c8 fd 3d 6c cf 47 3d
       -0.095526494 -0.010616079 0.12391825 0.048781797
0000e0 f0 9e 8a bc ba 8c 9d 3d 10 88 a7 bd 49 0d 09 3e
       -0.01692149 0.07692857 -0.08180249 0.13383974
0000f0 90 c4 d3 3d e0 81 88 bb c3 30 fb bd 90 51 69 3d
       0.10340226 -0.004165873 -0.1226516 0.05696255
000100 bc 57 8f bc d0 18 0f 3d 42 70 92 3d ff 05 e0 bd
       -0.01749789 0.034935772 0.07150318 -0.10938644
000110 00 25 cf bb 50 e5 2d 3c 1b 4e 00 3e 20 2f 61 3c
       -0.0063215494 0.010613754 0.12529795 0.013744146
000120 d0 d4 00 bc 8c e6 d2 bd e8 71 5a 3d 00 e4 39 3c
       -0.007863238 -0.102978796 0.053331286 0.011345863
000130 bc 96 2b 3d 32 6f f0 3d c0 d2 28 3c c2 23 fb bd
       0.0418918 0.11739959 0.010304153 -0.1226268
000140 40 14 78 bb 82 71 0e be 18 c1 9c bc fe 78 3a bd
       -0.0037853867 -0.13910487 -0.019135043 -0.045525543
000150 a6 e5 ff 3d 42 43 c6 3d 00 b0 7c bb 80 3b 66 bb
       0.12494974 0.09680797 -0.0038557053 -0.003513068
000160 f8 ce 06 bd 68 86 c5 bc 16 e7 0c be 5d 16 cd bd
       -0.032912225 -0.024111941 -0.13760027 -0.10014031
000170 00 24 a3 39 82 fb ef 3d 6f cc 99 bd 0c 4f ea bd
       0.00031116605 0.11717893 -0.07509696 -0.11440858
000180 04 ad d4 bd 4c be df bc c0 5d d2 bd f4 22 30 3d
       -0.103845626 -0.02731242 -0.10271788 0.043002084
000190 c9 91 bb bd 8c 4f ef bd 6d f4 f3 bd 54 49 a9 3d
       -0.09158666 -0.11685094 -0.11911855 0.08265939
0001a0 c6 17 67 bd a7 93 05 3e f0 10 51 3d f4 2f be bd
       -0.056419156 0.13044606 0.051041543 -0.0928649
0001b0 01 e0 ee bd 0f 37 0b 3e 14 95 e9 bd 20 a0 d7 bd
       -0.11663819 0.13595222 -0.114053875 -0.10528588
0001c0 36 76 21 bd e6 4a a5 bd 1c 37 05 3d e0 4b 08 3d
       -0.039419375 -0.08070926 0.03252326 0.033275485
0001d0 4c be 00 3d 17 26 d4 bd 62 89 8c 3d 6e 9c f6 bd
       0.03143148 -0.103588276 0.06862141 -0.12041555
0001e0 f5 7b 10 be 3c c8 94 3d 08 e1 d4 3c b8 b0 47 3d
       -0.14109786 0.07264754 0.02598621 0.048752517
0001f0 e6 e7 b4 3d b8 87 10 bd 34 d8 6a 3d d5 fb 94 bd
       0.088332936 -0.03528568 0.057335094 -0.07274596
000200 d5 41 f8 bd be fc 84 3d b7 d2 0e 3e e0 62 31 bd
       -0.121219315 0.06493519 0.13947569 -0.043307185
000210 93 bb 05 3e a0 9b 85 3d 80 4a d0 ba fa 0e aa bd
       0.13059835 0.06523824 -0.0015891343 -0.08303638
000220 bc 9c ac 3d 84 e4 01 be 68 bd 40 3d 80 7c fd 3b
       0.08428332 -0.12684828 0.047055632 0.007735789
000230 60 f2 a6 bb 46 93 e4 3d 18 6a 81 bd b6 75 b6 3d
       -0.0050948113 0.11160903 -0.06319064 0.0890917
000240 0c 05 03 3d 82 97 64 bd 78 6c fc bc 78 90 c4 3d
       0.031987235 -0.05580855 -0.03081344 0.09597868
000250 7e f2 f4 3d 7c df 31 bd c0 94 89 3d 36 c6 80 bd
       0.11960314 -0.043426022 0.06717825 -0.06287806
000260 ec 35 64 3d 88 fb fc bc b0 f8 97 3c c8 cd ea bd
       0.055715486 -0.030881658 0.0185512 -0.11465031
000270 7f b3 9c bd c0 3e d4 bd 84 70 fb bd 90 7e 05 3c
       -0.07651424 -0.10363531 -0.1227732 0.008147851
000280 54 e1 55 bd 38 96 d3 bc 2e e4 0d be d0 1c 8f bd
       -0.052216843 -0.025828466 -0.13856575 -0.069879174
000290 73 9e 0d be 20 32 0c be 92 fe d4 3d 50 be 0f be
       -0.13829975 -0.13690996 0.10400118 -0.14037442
0002a0 4e 95 ec 3d 7d b2 0c 3e 76 f9 c8 bd 20 56 cf bc
       0.11551915 0.13739963 -0.09813206 -0.025309622
0002b0 16 af fc bd b8 76 c3 3c 54 8b 87 3d 80 33 05 bd
       -0.123380825 0.02386032 0.066183716 -0.032519817
0002c0 28 e7 cc bc ad a3 0f 3e 5e 5f 8f 3d 20 28 4b 3c
       -0.025012568 0.14027281 0.07000612 0.012399703
0002d0 60 e9 fd bd 36 0b e3 3d 5a 64 46 bd 09 9e 9d bd
       -0.123980284 0.11086123 -0.048435546 -0.076961584
0002e0 fa c6 d3 3d ae 47 83 3d ec 1a 16 3d c0 e7 78 bb
       0.10340686 0.06410156 0.03664677 -0.003797993
0002f0 18 f3 9a bd 64 f2 d2 3d 92 bb 82 3d 42 d6 0e bd
       -0.07565898 0.103001386 0.063834324 -0.0348723
000300 d4 b3 ef bc 0c f7 6e bd 70 9e 5f 3c ed bc 0c 3e
       -0.029260553 -0.05834107 0.013648614 0.13743944
000310 be a5 cc 3d ae c5 b0 bd 32 e8 f2 3d 22 6b 9e 3d
       0.0999255 -0.086314544 0.11860694 0.07735278
000320 e8 0b a8 3c c3 24 09 3e c0 14 3e 3d 0c 15 20 bd
       0.02051349 0.1339293 0.046406507 -0.039082572
000330 d8 db 80 3c fc 51 9f bd f8 33 be 3c 84 d0 a3 bd
       0.01572983 -0.07779309 0.02321814 -0.079987556
000340 06 07 f1 3d 1e a2 53 bd 80 de de 3b 86 e1 0b be
       0.11768918 -0.05166828 0.0068014264 -0.13660249
000350 06 e7 f2 3d f4 c9 d2 3d af 03 e5 bd 4a b4 f2 bd
       0.118604705 0.10292426 -0.11182343 -0.11850794
000360 88 f4 d0 bc 70 7d b9 3c 90 24 9a 3c 38 44 a6 3d
       -0.025507227 0.022642821 0.018816262 0.081184804
000370 20 f0 97 bb 28 14 97 3c bc f3 b8 3d e0 f1 1a bc
       -0.0046367794 0.018442228 0.09030864 -0.009457082
000380 22 e1 86 3d ec b6 1c 3d 32 01 96 bd 20 84 af 3b
       0.065859094 0.038260385 -0.07324447 0.0053563267
000390 6f e4 0d 3e 0c 8c 0e bd 5a 1d 0f be 42 6c ca 3d
       0.13856672 -0.034801528 -0.1397604 0.0988393
0003a0 22 3b 97 bd 06 5c ad bd 3a 84 5e bd 40 a4 b9 3d
       -0.073843256 -0.08464818 -0.05432532 0.09064531
0003b0 86 ac 8d bd 7c 6a a6 bd 42 04 ed 3d 43 8f e2 bd
       -0.06917672 -0.08125779 0.11573078 -0.11062481
0003c0 98 23 e5 bd ea d3 d9 3d 8c 5c f9 bc 80 6d d1 3c
       -0.111884296 0.106361225 -0.030439638 0.025564909
0003d0 ea 48 a8 bd c0 b4 51 3c 7a d3 8f bd e0 7b 12 3d
       -0.08217032 0.012799442 -0.07022758 0.035762668
0003e0 b6 02 a6 bd 98 62 cb 3c 6e 43 0a be 5c e5 86 bc
       -0.08105986 0.024827287 -0.13502285 -0.016466789
0003f0 70 2c 01 be 39 ed 87 bd 06 4a dd 3d 79 cd 0f 3e
       -0.12614608 -0.066370435 0.108051345 0.14043225

fc2.bias f4 [10]
000000 da 5f 37 bd 6e 9f a2 3d f8 a1 da 3c 00 44 56 3b
       -0.044769146 0.07940565 0.02668856 0.003269434
000010 d8 90 84 bc 8e 28 93 3d f6 52 d5 3d a3 76 07 3e
       -0.016182348 0.071854696 0.10416214 0.1322885
000020 ac bf 50 bd f0 c9 4f 3c
       -0.050964043 0.012682423

localization.0.weight f4 [6, 3, 5, 5]
000000 36 41 b4 bd c6 24 ac bc d1 bb de 3d cf 19 80 bd
       -0.088015005 -0.021013629 0.10875667 -0.062549226
000010 bc d8 d6 bd 74 ff 40 3d 10 d8 24 bd df 38 7e 3d
       -0.104905576 0.04711862 -0.040245116 0.062065955
000020 22 6e a6 bd f1 8d 49 bc e8 4c 11 bc 4d ef 28 3d
       -0.08126475 -0.012301908 -0.008868434 0.04124384
000030 88 7f c4 3c 0c a7 ef 3d 5c f2 46 bb 9e d6 65 bc
       0.023986593 0.117017835 -0.003035686 -0.0140282195
000040 f1 18 81 3d 12 f9 88 bd f4 4d a9 3d 00 d1 99 bd
       0.06303585 -0.066881314 0.082668215 -0.07510567
000050 c2 44 a8 3c a6 46 99 bc 59 17 f1 3d 49 64 b1 bd
       0.020540599 -0.018710446 0.11772031 -0.08661706
000060 5a 33 b1 3d 1d 96 e5 3b 67 42 c3 bd 05 61 9c bd
       0.08652373 0.0070064203 -0.095341496 -0.076356925
000070 84 e5 cd bd 8d f4 4c bd a3 83 11 3d 71 2f 78 bd
       -0.10053542 -0.05003791 0.03552593 -0.06059212
000080 6b 90 c8 bd 0e a6 bb 3d 83 f0 ee 3c d5 fc de 3d
       -0.097931705 0.09162532 0.02916742 0.10888068
000090 a2 e2 ee 3d 43 ea cc 3d 8c ae ab bd 94 c2 78 bc
       0.116643205 0.100056194 -0.083829015 -0.01518311
0000a0 78 ea c5 bb 30 9c a1 3d 14 ec 4b 3d 64 e8 41 3d
       -0.0060399137 0.078911185 0.04978569 0.047340766
0000b0 d0 2a 83 3d 06 eb c6 3d 82 42 71 bd a5 7d 57 bd
       0.0640465 0.09712796 -0.058901317 -0.05261006
0000c0 00 99 09 bd fb b2 b4 bd d1 d1 47 bd ea 4e 02 3d
       -0.033593178 -0.088232 -0.04878408 0.03181354
0000d0 e7 8b b1 3d 03 f0 32 3d 55 48 e8 bd 4d e3 af bc
       0.086692624 0.043685924 -0.11341921 -0.02147069
0000e0 a3 48 2b 3d fb 45 8d bd 42 84 7f bd 49 96 cb bc
       0.04181732 -0.06898113 -0.06238199 -0.024851935
0000f0 f6 18 94 bc 05 7a 78 3d ce 6c 5e bd ac e3 1c 3c
       -0.018078309 0.060663242 -0.054302983 0.009575766
000100 db 5c 89 3d 47 d7 e2 3d 2f f2 00 bc 4a 8e d2 3d
       0.06707164 0.11076217 -0.007870241 0.10281046
000110 78 f4 38 3d 35 a6 b6 3d cd 79 6a 3d 5e 5b 69 3b
       0.04515502 0.0891842 0.057245065 0.0035607438
000120 a3 1e 6f bc 00 22 12 bd 79 ee d5 3d 87 9c 25 bd
       -0.014594707 -0.035676956 0.10445876 -0.04043248
000130 38 20 cb 3d e6 a2 51 3d fa 0b c2 3d 8a f7 70 bd
       0.099182546 0.051180743 0.094749406 -0.05882982
000140 35 d3 02 bd c0 be 60 bd 44 80 a2 3d f1 32 88 3d
       -0.031939704 -0.054869413 0.07934621 0.06650341
000150 31 36 66 3d c2 f5 e0 bd 80 8a c2 bd ad 26 ce bd
       0.056204025 -0.109843746 -0.09499073 -0.100659706
000160 d0 d4 de bd 0e ae a6 3d 4a b5 ce 3d 79 c5 ad bd
       -0.108804345 0.08138667 0.10093172 -0.084849305
000170 8d 74 85 3c cf 02 64 3d e3 7e dc bd 6e 40 ed 3d
       0.016290927 0.05566674 -0.10766389 0.115845546
000180 77 af ad 3c b6 32 68 bd 36 09 a0 bb ac 2e d7 bd
       0.021201832 -0.056688987 -0.0048839105 -0.10506949
000190 74 65 7e bd 73 a9 0e 3d 28 88 8e 3d 1e 1f ac 3d
       -0.062108472 0.034829568 0.069595635 0.08404373
0001a0 3e ed bc 3d 5d fc 9a bd 61 f4 a5 bd 20 00 7f bc
       0.09224938 -0.07567666 -0.08103252 -0.015563995
0001b0 09 44 95 bd 91 2e c5 bd d1 50 c1 bd 84 e6 7c 3d
       -0.07288367 -0.096280225 -0.09439243 0.061743274
0001c0 5c 7b d0 3d 0f 2f bb bd e0 0b d7 3c 82 6e ad 3d
       0.10179779 -0.09139835 0.02625078 0.08468343
0001d0 0b 8f d5 3d d0 29 6e bd 51 ed c9 3d 1d cb b4 39
       0.10427674 -0.058145344 0.09859718 0.00034483607
0001e0 39 21 61 3c 10 07 aa bd 7d eb ac bd b9 40 14 bb
       0.013740831 -0.08302128 -0.08443353 -0.0022621586
0001f0 19 79 e4 bd ed 0c c3 bd c2 3b 95 3d 86 5a 8c 3d
       -0.1115591 -0.0952395 0.072867885 0.068532035
000200 bf 4c 9f 3d 8b 2f b2 3d 8c 41 8d bc 78 6e ba bd
       0.0777831 0.08700474 -0.01724317 -0.091031015
000210 50 b4 87 ba a1 a4 d2 bd cb 1a cf bd ef 45 a3 bd
       -0.001035342 -0.10285307 -0.10112532 -0.07972323
000220 1b cd d3 bc ce 21 4b bb 6a c1 28 bd d2 41 b0 bd
       -0.025854638 -0.003099549 -0.04120008 -0.08606304
000230 d3 e0 ad 3b 04 6b d9 3d 1c 24 ec bd d0 ed 38 3d
       0.005306342 0.10616115 -0.11530325 0.04514867
000240 bb 46 a5 bb 88 db dd 3d 02 8c e5 bc 6d 7e 52 3d
       -0.005043832 0.10832888 -0.028020862 0.0513901
000250 57 61 1b bc 23 6d d7 3d 9c 1c e1 3d 13 6e 80 bd
       -0.009483657 0.10518863 0.10991785 -0.06270995
000260 86 a7 ec bd d7 50 a4 3b e8 99 90 3d d1 ae 86 bd
       -0.1155539 0.0050145197 0.07060605 -0.06576312
000270 10 d1 8e 3d 1f c5 92 bc ce 5f b8 3d af c3 da bb
       0.06973469 -0.01791626 0.09002648 -0.0066761593
000280 05 79 b3 bc 37 2a 41 bd 1b fc ef 3b 32 fd 1c bd
       -0.021908293 -0.0471594 0.0073237545 -0.038327403
000290 bd 38 a4 bd 25 13 58 3c 76 bb 1e bd a3 f5 a6 3b
       -0.080186345 0.013188158 -0.038752995 0.0050952
0002a0 09 00 24 bd d2 c3 4c bd d9 e1 cd 3d 10 29 a4 3d
       -0.040039096 -0.049991436 0.10052843 0.080156446
0002b0 32 c5 70 bb 59 88 b3 bd 06 5b d7 bd 78 f6 cb 3d
       -0.0036738631 -0.087662406 -0.10515408 0.099591196
0002c0 61 bb dc 3d 0c 55 1c bd d3 55 45 bc b8 f0 70 3d
       0.10777927 -0.038167045 -0.012044388 0.058823317
0002d0 17 06 18 3d 9a 05 9b 3d b0 66 4e 3d a7 ca 0e bd
       0.037115183 0.07569428 0.0503909 -0.034861233
0002e0 26 8c 81 3c 71 81 2b 3d c9 e5 2a bd f5 6f b2 bd
       0.015813898 0.04187149 -0.041723046 -0.0871276
0002f0 3b f9 94 3d c4 4f 3c bd b7 2b d3 3d 0f 27 b6 bd
       0.072740994 -0.045974508 0.10311072 -0.088941686
000300 0d 27 cd bd f7 ac bb 3d 28 52 bf 3d 2c a8 27 bd
       -0.10017214 0.0916385 0.09341842 -0.040931866
000310 cc 67 60 3d 3c 25 68 3d b1 d0 ef 3b 89 12 be 3d
       0.05478649 0.056676134 0.007318579 0.09280879
000320 2c e0 ac bd d1 ee dd bd da a7 fb bc 81 69 c1 3d
       -0.08441195 -0.10836566 -0.030719686 0.094439514
000330 ab a8 79 bb 0a a9 c5 bc f3 ba bc bd 75 c4 26 bd
       -0.0038094919 -0.024128456 -0.09215345 -0.0407147
000340 41 31 bd 3d 31 6e 95 3d d6 f8 6a bd 4c 56 5a bd
       0.0923791 0.07296408 -0.057366215 -0.053304955
000350 37 b2 f5 3c 9b 84 2d bd 5b 97 cb 3d f7 d6 90 bd
       0.029992206 -0.04236279 0.09940978 -0.07072251
000360 94 ae 82 bc 36 46 9e 3d 16 47 cd bd e5 e0 e5 bd
       -0.015952386 0.077282354 -0.10023324 -0.11224536
000370 4c 73 c8 bd 3d ed 8e 3d ba e0 a2 bd da 2b b1 bd
       -0.09787616 0.06978843 -0.079530194 -0.08650942
000380 31 a7 01 3c 18 77 55 3d fc 45 7e bd 3b 3c 9a 3c
       0.007913397 0.05211553 -0.06207846 0.018827548
000390 8b d9 d7 3d fd f7 c3 3d c7 3d de 3d df de 7e 3d
       0.1053954 0.095687844 0.10851627 0.062224265
0003a0 65 39 9a 3d 4c bc 23 3e cf 37 d0 3d 4b 23 25 3e
       0.075304784 0.15989798 0.10166895 0.16126744
0003b0 0f 4f b9 3c 61 d4 26 3e b0 30 b5 3d ae d9 1c 3e
       0.022620706 0.16291954 0.08847177 0.15317413
0003c0 51 50 eb 3d 8c 39 89 bb f0 db b6 3d a0 e2 11 3e
       0.114899285 -0.0041877683 0.089286685 0.14246607
0003d0 5a 10 25 3e 8d c6 64 3d a5 81 0c 3c d5 65 a9 3d
       0.16119519 0.055853415 0.008575832 0.08271376
0003e0 64 92 06 3e 01 bc cd bb fb 72 27 3d c0 7c bd bd
       0.13141781 -0.0062785153 0.04088114 -0.0925231
0003f0 02 59 ea 3c 46 ac 9a bd 25 04 03 3e 80 e5 f6 bb
       0.028606895 -0.0755239 0.1279455 -0.0075346828

localization.0.bias f4 [6]
000000 74 91 a9 3d c0 e5 01 bc 19 8c 17 3d c0 b8 14 3e
       0.08279696 -0.007928312 0.036998842 0.14523602
000010 58 94 b5 bd 8a b6 90 3d
       -0.08866185 0.070660666

localization.3.weight f4 [16, 6, 5, 5]
000000 2d 8a 68 3d 6d 95 96 bd 0e 4c 40 bd 99 d2 02 3b
       0.0567724 -0.073527195 -0.04694753 0.0019961952
000010 f6 88 7f bd 08 21 1b 3c 9b c1 75 bd ba d5 91 bd
       -0.062386476 0.0094683245 -0.05999909 -0.07120843
000020 d1 8e 37 3d b2 5a ff 3c c0 08 d9 3c 1d c7 20 3d
       0.044813935 0.031171177 0.02649343 0.03925239
000030 a2 53 67 3c d7 72 3e 3b df d6 94 3d 35 59 12 bd
       0.014119061 0.002906015 0.07267546 -0.035729606
000040 e6 07 a1 3d f5 23 83 3d c4 27 31 3d a6 20 1e bc
       0.07862835 0.06403343 0.043250814 -0.009651339
000050 35 be 65 3d 26 e8 ef bc 44 db ff bc 03 f6 eb 3c
       0.0560896 -0.029285502 -0.031232484 0.028803831
000060 88 c5 7b bd 8c 79 96 bc 86 ca 14 3d 9a 9c ec bb
       -0.061467677 -0.018368505 0.036325954 -0.007220817
000070 73 d0 69 bd 0f a3 eb bc fc 25 81 3d c6 4b 1d 3d
       -0.05708356 -0.028764276 0.06306073 0.03840234
000080 67 b2 9a bc 7b 27 9a bd 77 52 0b bd 14 98 5c 3a
       -0.018883897 -0.075270616 -0.03401419 0.00084149954
000090 76 c4 8b 3d 5e fc 53 bd a4 2b 96 3d 12 9c d5 bc
       0.06824581 -0.051754348 0.073325425 -0.026075397
0000a0 b3 e5 9e bd 46 0c 98 bd 89 2e 9d 3d 69 ff d3 ba
       -0.077586554 -0.07424216 0.076748915 -0.0016174141
0000b0 b1 7d c3 3b 6b 93 02 bc d9 63 61 3d 84 4b 91 3c
       0.0059659113 -0.0079697175 0.055026863 0.017736204
0000c0 21 f4 6b bc d4 90 09 bd 8f 14 7c 3d 0a dc 3c bd
       -0.014401467 -0.033585384 0.061543044 -0.046108283
0000d0 1a 83 80 bd 27 43 02 3d ce 9d fc bc 06 97 49 bd
       -0.06275006 0.031802323 -0.030836966 -0.049216293
0000e0 4a d9 30 3d 12 35 38 3c 3d b6 66 3d db 7f 2d 3b
       0.043175973 0.011243122 0.05632614 0.0026473913
0000f0 cd df 08 bc 39 53 29 3c 45 e9 84 3c 4a 8b 02 bd
       -0.0083541395 0.010334783 0.016224513 -0.031871118
000100 74 2a 6b 3d 22 4b b3 3c 22 5f f6 3c 74 a2 8e 3d
       0.057413533 0.021886412 0.03007466 0.06964579
000110 c6 ef e6 3c dc 04 3a 3d b1 a8 6c 3c 92 aa 41 3d
       0.028190505 0.04541479 0.014444516 0.04728181
000120 6c 31 9f 3c 4e a7 4b 3d ad a2 53 bd 64 59 82 bc
       0.019432746 0.0497201 -0.05166881 -0.015911765
000130 08 b9 8a bc c0 c3 25 bd 50 66 6b 3d 14 57 b5 bc
       -0.016933933 -0.040469885 0.05747062 -0.022136249
000140 35 21 71 3c 17 36 b5 3d 16 9e 6f bc 53 b6 52 3d
       0.01471739 0.088482074 -0.014625093 0.05144341
000150 c2 6e c3 3d 1a 84 91 3d 9b 15 b5 bc 29 d9 fc 3c
       0.0954261 0.071052745 -0.022105029 0.030865269
000160 e1 f7 cb 3d c9 6f 39 3d 50 22 b1 3c 62 8d 20 3d
       0.099593885 0.045272622 0.021622807 0.039197333
000170 a1 46 f2 ba 9a 45 6c 3d 75 a4 45 3c ff 97 37 3d
       -0.0018484184 0.057683565 0.012063135 0.04482269
000180 90 ce a3 3d 20 40 ef bc f2 cd 19 bc 81 3f ca bc
       0.07998383 -0.029205382 -0.00938748 -0.024688484
000190 76 cc 01 3d cd de e9 3c f8 c9 9d 3d 13 e8 be 3b
       0.03168913 0.028548623 0.07704538 0.0058260052
0001a0 35 f6 e8 bc 3e 8a 05 bd 0c b2 57 3c 1d 47 82 3c
       -0.028437713 -0.03260254 0.013165008 0.01590305
0001b0 dd 1b 97 3d e0 e5 81 bd 97 fe 85 3d 41 f6 78 bd
       0.073783614 -0.06342673 0.065427 -0.06078172
0001c0 63 ee 95 3c 79 ff 27 3d 96 bc 08 bd dc 7d 8a bd
       0.018302148 0.041015122 -0.033382975 -0.06762287
0001d0 c8 c5 16 bd b5 5d a2 bc 37 75 4d bd 0e cb bd 3c
       -0.036809713 -0.019820074 -0.050160613 0.023168113
0001e0 48 8c f1 bc 9e 49 64 bd 75 5e ec bb 77 52 82 3d
       -0.029485837 -0.05573427 -0.0072134086 0.06363385
0001f0 7e 36 41 3c 8f bb c5 bc 2b d8 fe bc 12 35 2e 3d
       0.011792777 -0.024137286 -0.031108936 0.04253108
000200 8c 43 95 bd 4d 5c 30 bd 2d 42 4f 3c 41 f9 9d 3d
       -0.07288274 -0.043056775 0.012650055 0.07713557
000210 68 09 cd bc 17 2f ba bc 04 c4 a8 3d df b6 86 3d
       -0.0250289 -0.022727532 0.08240512 0.06577849
000220 2a d4 42 3b 2a f7 b4 3d 42 de 1b bd 54 ff ed 38
       0.002972851 0.08836205 -0.03805376 0.00011348599
000230 52 92 a8 3d 3c 37 40 3c 62 35 d5 3b 37 39 33 bd
       0.082310334 0.011731919 0.006506608 -0.043755736
000240 16 99 66 3d fe 97 ba 3d 9f c6 6b bd 23 41 e6 bc
       0.056298338 0.091110215 -0.057562467 -0.028107231
000250 5a 7f d5 3a 71 c0 3a 3d f3 3a 9e 3d 91 54 73 3d
       0.0016288564 0.045593683 0.077260874 0.05940682
000260 08 f7 1c bd f7 12 00 bd e0 d7 01 bc a5 53 9d bd
       -0.038321525 -0.031268086 -0.007925004 -0.076819696
000270 9f a9 a4 3d cd b7 8e 3d ab 90 dd bb a7 82 5f bd
       0.08040165 0.06968651 -0.0067616305 -0.05456796
000280 ce 07 5b bd 14 8c 0a bd ef 2f f9 bc de e9 8a bd
       -0.05347424 -0.033824995 -0.030418364 -0.06782888
000290 06 25 a7 3d e0 19 2d bd 56 15 00 bd f8 95 6d 3c
       0.081613585 -0.042261004 -0.031270348 0.014501087
0002a0 6b ab 9b bc f0 ef bc bc 2b 1f c3 bc a6 a9 39 3c
       -0.019002637 -0.02306363 -0.023818573 0.011331951
0002b0 45 0b 2f 3d f0 e4 e2 bb e7 c1 09 3d 9e 86 a1 bd
       0.042735357 -0.006924264 0.033632185 -0.07887004
0002c0 b1 46 66 3c d1 32 c6 bb 04 a3 26 bb 0e d7 8e bc
       0.01405494 -0.0060485383 -0.0025426755 -0.01743653
0002d0 73 d4 85 3c 45 61 fa 3c b9 6e 8e bd ed b4 2a bd
       0.016336655 0.03056396 -0.069547124 -0.04167645
0002e0 df 93 a5 3c f6 d3 38 3d 85 44 97 bd 29 b9 26 bd
       0.020212112 0.045124017 -0.07386116 -0.040703926
0002f0 71 87 1e 3d 01 d5 8f 3d 72 74 5d 3c bf fe 9e bb
       0.038703386 0.07023049 0.013516532 -0.0048521454
000300 96 92 2b bb c6 c9 66 bd a7 6c 95 3d b3 a1 8b 3d
       -0.0026179901 -0.05634477 0.072961144 0.06817951
000310 a5 24 92 bb c7 49 e3 bc ec 15 8f bd 4b 8b 47 bd
       -0.004459935 -0.02774514 -0.06986603 -0.048716825
000320 bb 5b 75 3d cc 14 8b bd c9 49 fb 3b fb 6c 49 3d
       0.059901934 -0.06791076 0.007668708 0.049176197
000330 6e 86 94 3d 70 af 07 3d 18 dc 8e 3d 46 e0 89 bd
       0.07252203 0.033126295 0.06975573 -0.0673223
000340 c9 c5 3c 3d ee 91 27 bd 71 89 34 bc cd e3 bc 3c
       0.04608706 -0.040910654 -0.011019097 0.023057843
000350 99 d3 9a 3d d6 db 55 3a 9f 1c a6 3d c7 5c 26 3c
       0.0755989 0.0008158063 0.08110928 0.010153956
000360 c9 ff 11 3b 30 3a a0 bb 53 3c 6e bd 70 07 a6 3d
       0.0022277704 -0.004889749 -0.058163 0.08106887
000370 be 93 30 bd d3 7f c2 3c 8a 17 43 bd 01 fb e0 3c
       -0.043109648 0.023742592 -0.04762987 0.027463438
000380 58 b3 3d 3c 7f c2 f6 bb 1e d6 b4 bc 70 54 26 3c
       0.011578403 -0.00753051 -0.022074755 0.010151967
000390 eb 52 3c 3d 82 bb 8e 3b 77 43 bb 3d 02 8e 7f 3d
       0.045977514 0.0043558488 0.09143727 0.06239129
0003a0 c6 90 e7 3b a1 2d 75 3d 26 f7 7c bd 33 d0 aa 3d
       0.007066819 0.05985797 -0.061759137 0.08340492
0003b0 be c8 7e bd 97 b1 d6 bc b1 08 2c 3c ed fa db 3c
       -0.06220316 -0.026207728 0.010500119 0.02685305
0003c0 d5 fb a4 3d 04 65 2d bd 27 fd 89 bd 67 e1 7a bc
       0.08055846 -0.042332664 -0.06737738 -0.015312529
0003d0 b8 7d 77 bd e0 63 0c 3d 5a 72 27 3d 4a bc 97 3c
       -0.06042263 0.034274936 0.04088054 0.0185224
0003e0 7c 3f 9c 3d 07 66 e2 b7 20 4d 60 39 74 c4 69 bd
       0.07629296 -2.698881e-05 0.00021391036 -0.057072118
0003f0 ad 9d 60 3d 9e e8 b1 3b ba 33 5e bd cc ba a3 3d
       0.05483787 0.0054293415 -0.05424855 0.07994613

localization.3.bias f4 [16]
000000 75 f2 bd 3d 50 a7 8b bb cd 89 6e bb 70 48 9c 3c
       0.09274761 -0.0042618886 -0.0036398054 0.01907751
000010 60 1c 96 3d a4 35 0c bd 78 61 85 3d 56 18 29 3d
       0.07329631 -0.034230843 0.06512731 0.041282974
000020 ed e4 39 3d 3b db 8b 3d 6d a2 b8 3d 77 d0 9d bd
       0.045384336 0.06828924 0.09015355 -0.07705777
000030 fd cf be 3d da e4 86 bd c8 dd c9 bc 11 ad 23 bc
       0.09317014 -0.06586619 -0.024641886 -0.009989993

colorization.0.weight f4 [6, 3, 5, 5]
000000 2b a3 af 3d cc 8c 2e bd 58 b6 e6 3d 41 6e d8 3b
       0.08576044 -0.042614743 0.11265248 0.00660494
000010 be c2 d7 bc 34 f0 c2 bd d6 a3 6c bd a1 c8 ca 3d
       -0.026337977 -0.09518471 -0.057773434 0.09901548
000020 f3 2a 01 3d fa ae ef bb 4d 7f e4 bd 47 ae 81 3c
       0.0315351 -0.00731456 -0.11157093 0.015830172
000030 61 fa 8a 3c d0 bc a9 bd 86 b3 42 3c 4b 15 5f bd
       0.016965093 -0.08287966 0.011883622 -0.054463666
000040 c9 d3 4a 3b 7e e2 c7 bc 32 48 f4 bd 01 3d 4a 3d
       0.0030948988 -0.024399992 -0.11927833 0.049374584
000050 45 43 7e bd 5f f1 4a 3d f1 ff 93 3d dc 98 46 bc
       -0.062075872 0.049546596 0.07226551 -0.012121405
000060 22 55 b5 bc 77 08 99 3d f9 e5 d4 bd f8 cf d0 3d
       -0.022135321 0.07472318 -0.10395426 0.10195917
000070 98 a4 83 bd 18 f3 9d 3d 9f 72 e1 3d cf 33 78 3d
       -0.06427878 0.07712382 0.1100819 0.060596284
000080 5b 1f ee bc df 06 c2 3c 89 d9 fd bc bf 97 de bd
       -0.029067686 0.023684917 -0.030987518 -0.10868787
000090 d4 68 35 bd 8c d4 02 bb 65 fc 6c bd 8e 27 50 bd
       -0.044289425 -0.0019963114 -0.05785789 -0.050818972
0000a0 04 fd 6e bc d4 7b 94 3d a7 36 cd bd 02 be 8c 3d
       -0.014586691 0.07250181 -0.1002019 0.068721786
0000b0 b3 f7 69 3d 2a a6 ef 3d 66 06 72 bb fb 46 c5 3d
       0.05712099 0.11701615 -0.0036930083 0.09632679
0000c0 04 13 19 bb 7a 4d eb 3d aa 41 d7 3c 55 b2 f0 bc
       -0.0023357281 0.11489387 0.026276428 -0.02938191
0000d0 27 01 bc 3d aa a2 43 bd 0e f3 b7 bc e0 df 79 3c
       0.09179907 -0.04776255 -0.022454765 0.01525113
0000e0 2a 87 a8 3d e3 7d 3b bd 47 18 88 3d 55 09 0b 3d
       0.082289055 -0.04577435 0.066452555 0.033944447
0000f0 58 76 87 3d 20 f6 a7 3c 28 41 cf 3c de 0c ee 3b
       0.06614369 0.020503104 0.025299624 0.0072647175
000100 8e cf c0 3d 4a f7 34 bd ee 24 44 bd 72 66 db bc
       0.09414588 -0.044181146 -0.04788678 -0.026782248
000110 02 de 90 3c c2 0e cd 3d 4c d8 e4 3d 5b a5 eb bd
       0.017683987 0.100125805 0.11174068 -0.115061484
000120 f8 9c b2 3d 58 de 90 3d 69 28 8b 3d 6e b8 03 bd
       0.08721346 0.07073659 0.06794817 -0.032158308
000130 8d 5f 56 bd e3 ee d3 bd 0e 1f 8d 3c d0 a8 98 3c
       -0.052337218 -0.103482984 0.017226722 0.018635184
000140 82 4a 0c bb 07 f5 43 bd 4a 84 87 3d 44 81 f2 3b
       -0.0021406715 -0.0478411 0.06617029 0.0074006636
000150 b4 06 c0 3d 82 52 a2 bd 38 d7 1f bc 55 f8 8c 3d
       0.093762785 -0.07925893 -0.009755902 0.06883303
000160 e1 fc d9 bd 00 5f 9c 3d 68 ee 93 3c 31 e0 a2 bd
       -0.10643936 0.07635307 0.018058017 -0.07952917
000170 c0 96 d2 bd 89 e8 a6 bd c6 bf dc bd 26 cb 81 3d
       -0.102826595 -0.08149821 -0.107787654 0.063375756
000180 80 6c 65 bd 20 0d 92 3b a2 67 d9 bc 89 54 05 bb
       -0.056011677 0.004457131 -0.026538674 -0.0020344576
000190 ea eb b5 3d 90 b9 b2 3d f6 78 a9 bd 66 1c e4 3d
       0.08882888 0.087267995 -0.082750246 0.11138229
0001a0 fc 34 a6 bd e4 fc 91 3c f9 dd ea 3d c9 89 99 bc
       -0.08115575 0.017820783 0.11468119 -0.018742459
0001b0 97 3a 27 3d eb 70 94 3d 4a af c0 3c 4d 1a e7 3c
       0.04082736 0.072481 0.023521084 0.028210783
0001c0 4a ba 95 bd 33 f9 dd 3d a5 9b 5b bd 80 29 ab 3c
       -0.073109224 0.108385466 -0.05361523 0.020893812
0001d0 36 9f a7 3c d3 20 e6 bd f3 8b a5 3c 3b 75 bc 3d
       0.02046166 -0.112367295 0.020208335 0.092020474
0001e0 af 2d a3 3c 7d be 90 3d b9 bb 8b bd 41 da eb bc
       0.019919245 0.07067583 -0.06822915 -0.028790595
0001f0 ba 21 6f bd ff cc c9 bd 9a 2a 33 3c d3 73 de 3c
       -0.058381774 -0.09853553 0.01093545 0.027154839
000200 61 c3 b2 bd 3d 94 e0 bd 98 ae 0b 3d 06 08 a7 bc
       -0.08728672 -0.10965774 0.034102052 -0.020389568
000210 81 2a 1f bd 94 ad 67 bd 0e 45 43 3d 64 95 b2 3d
       -0.038858894 -0.05656202 0.047673278 0.087199
000220 00 5b 00 bc 4c 0c 24 3c 08 2b 19 bd d8 60 22 bd
       -0.007834196 0.010012697 -0.037394553 -0.03964314
000230 57 97 30 3d 92 50 e1 3d 96 c0 d3 bd 26 0b e9 3d
       0.04311308 0.11001696 -0.10339467 0.113790795
000240 7b 53 81 bd 12 b1 9d 3d a6 bc bc 3d d5 c5 e7 3d
       -0.06314751 0.07699789 0.09215669 0.1131703
000250 bf 69 80 bd 14 21 d1 bd 9b d0 6c 3c 7b 0e 92 bc
       -0.062701695 -0.10211387 0.014454032 -0.01782917
000260 02 e0 d7 bc 48 df a4 3d 3d 08 c8 3d 75 66 d0 3d
       -0.026351932 0.080504 0.09767196 0.10175792
000270 9a 69 24 bb 06 b3 32 3d b4 3f 72 bd 43 8d 5c bd
       -0.0025087357 0.04362776 -0.059142783 -0.053845655
000280 5a 5d 66 3c e6 62 82 bd 29 c8 0c 3c 52 57 b6 3d
       0.014060343 -0.0636652 0.008592644 0.08903374
000290 ad 2c c5 3d 42 a7 6e bd 9c 6b 36 3d 84 a9 e6 3d
       0.09627662 -0.05826498 0.044536218 0.11262801
0002a0 5d ed 83 3d 15 ef 99 bd 42 20 97 3d ae 42 db bd
       0.06441758 -0.075163044 0.073791996 -0.107060775
0002b0 26 88 a7 3c 38 29 7c 3c 7d 69 d9 3d 26 e8 a4 3d
       0.020450663 0.015390687 0.106158234 0.08052091
0002c0 cc 8c c1 bd 6c e0 ab bd 9c 0f de bd 92 ca cf 3b
       -0.09450683 -0.083924145 -0.10842821 0.006341287
0002d0 80 16 b5 3d 9f 20 dc 3d 10 b6 9d 3d 0e d9 7d 3d
       0.08842182 0.107484095 0.07700741 0.061974578
0002e0 14 e0 ce bc ea 5f c8 bd 8d ef a2 3d c3 4a ac 3b
       -0.025253333 -0.09783919 0.07955847 0.0052579357
0002f0 e6 83 f4 3b 03 2b 83 bd 1e 33 8c bd c3 43 95 bc
       0.0074620126 -0.06404688 -0.06845687 -0.018220788
000300 48 96 6e 3d 33 da 90 3d 73 d4 08 bd d1 19 c1 bd
       0.058248788 0.07072868 -0.033405732 -0.09428752
000310 f7 cd 97 3c 86 0f de bd 16 8f d2 bd 7e 66 3b bc
       0.018530829 -0.108428046 -0.10281198 -0.01143801
000320 b2 a4 d0 3d 9c 1f ce bd e3 80 12 3d eb 63 6e bd
       0.10187663 -0.10064623 0.035767447 -0.058200758
000330 49 e4 b1 ba bc af 3d bc b1 c6 ab bd 2a 66 93 bd
       -0.0013572063 -0.011577543 -0.08387507 -0.071972206
000340 27 1b ea 3c e5 c2 93 bd 07 d6 91 3d 2f 71 e6 bd
       0.0285774 -0.072149076 0.071209006 -0.11252057
000350 48 53 a6 3d 5d c1 62 bb 21 eb 9e 3c 2f 61 84 bd
       0.081213534 -0.0034600117 0.019399228 -0.06463849
000360 32 1d 83 3d 83 56 97 bd da c5 ad 3d 83 01 3b 3c
       0.06402053 -0.07389548 0.08485003 0.011413935
000370 7b de 3d bd 15 51 d0 3d 96 6f d3 3d 28 a9 08 3d
       -0.046354752 0.10171715 0.10324018 0.033364445
000380 e4 c2 0e bd c6 84 ac 3d 70 aa 87 bd 73 82 31 bd
       -0.03485383 0.08423762 -0.06624305 -0.043337297
000390 20 9e d0 3d b8 0c ae 3d 0d a8 24 3d 6a f2 ae bc
       0.1018641 0.0849852 0.04019933 -0.021355826
0003a0 14 7b 8f bd 57 f1 7c bb 23 33 d1 bd ca 57 85 3d
       -0.07005897 -0.0038595998 -0.10214832 0.06510885
0003b0 ba c8 81 bd ac b1 9a bd 6c d9 d9 3d 0a 5d 88 3d
       -0.06337114 -0.075534195 0.10637173 0.06658371
0003c0 c2 05 ce bd a0 dc 17 bd 81 e8 84 3c 9e 45 b7 bd
       -0.10059692 -0.03707564 0.016224148 -0.08948825
0003d0 12 b1 59 bd e8 1e b7 bc 51 12 56 bd ec 66 88 bc
       -0.053147383 -0.022353604 -0.05226356 -0.01665064
0003e0 a6 58 0f 3d d7 b5 bd 3c 15 21 b7 bd 4a 18 0a 3b
       0.03499665 0.023157997 -0.08941857 0.0021071606
0003f0 23 de a5 bc 94 27 59 3d 38 9a bb 3d 26 4b 85 3c
       -0.020247525 0.05301626 0.09160274 0.016271185

colorization.0.bias f4 [6]
000000 c6 cb 84 bc c6 c6 cc bd 3a 9e cd bd f4 47 91 bd
       -0.016210448 -0.099988505 -0.10039945 -0.07093802
000010 79 87 10 3a bb 95 ae 3c
       0.0005513351 0.021311631

colorization.3.weight f4 [16, 6, 5, 5]
000000 ed 00 46 3d 11 7a bf bb 70 4f 41 bd f6 70 5a bc
       0.048340727 -0.005843409 -0.047194898 -0.013332596
000010 d1 6c 12 3d 9c 9d 75 bd 44 d7 8c 3d 99 b1 11 bd
       0.035748307 -0.05996476 0.06876996 -0.03556976
000020 cf b8 90 bc 61 a1 89 bd a7 71 c4 3c 1f cf 9b bd
       -0.017666249 -0.06720234 0.023979975 -0.076078646
000030 b2 1c 2e bd 06 c8 41 3b 8e fc 21 b9 1e d9 ad 3d
       -0.042507835 0.0029568686 -0.0001544824 0.084886774
000040 87 5e e8 39 6a c9 13 3d 09 95 73 3d f0 e1 95 bd
       0.00044320917 0.036080755 0.059468303 -0.07318485
000050 10 23 67 3d 6d f0 5a bd a6 91 ee bc 4d 75 85 3b
       0.056429923 -0.053451944 -0.029122185 0.0040728212
000060 d1 14 8c 3d 81 82 47 3b 8f a7 f1 3c ba 2f 4d 3d
       0.06839908 0.0030442777 0.029498843 0.050094344
000070 c6 cc 69 bd 12 02 e1 37 c5 7a 63 bd bb 01 52 3d
       -0.057080053 2.6823054e-05 -0.055537004 0.05127118
000080 05 d3 61 bc cc a6 83 bd c1 7a e8 3c a3 45 8f bd
       -0.013783221 -0.06428298 0.028378846 -0.06995704
000090 e3 e4 da bc e1 3b 9f 3c 49 97 8a bd db 44 8b bd
       -0.02672047 0.019437732 -0.067671366 -0.068002425
0000a0 2a fd 92 bd 42 be 9c bd 13 5d be 3c cc 0c fa 3c
       -0.071771935 -0.07653476 0.02323774 0.03052368
0000b0 22 a8 6f bd b6 80 84 3d 00 f6 a1 bd 28 4f 96 bd
       -0.058509953 0.06469862 -0.07908249 -0.073393166
0000c0 62 9b 31 3d fb 22 61 3d 23 26 de bc 62 b8 64 3d
       0.043361075 0.054965 -0.027117794 0.055839904
0000d0 a0 e1 09 3d 36 d8 69 bd f9 d7 84 bd d5 b5 2d 3c
       0.03366244 -0.05709096 -0.06486506 0.010602434
0000e0 2e 13 8b bc 28 72 08 3d aa c5 da 3c b3 da 14 bd
       -0.016976919 0.033311993 0.026705582 -0.03634138
0000f0 b7 ee ae 3b 23 31 d0 3c cc 0f cd bc ea f1 71 3d
       0.0053385156 0.025414055 -0.025031947 0.059068598
000100 6b 07 37 bd d2 13 82 3d 73 bd d3 3c 89 cd 6a bd
       -0.04468481 0.06351437 0.025847172 -0.05732492
000110 a0 9c 50 3d 38 3e 95 3d 2a 93 37 bd 8e 75 39 3d
       0.05093062 0.07287258 -0.04481808 0.045278125
000120 62 d9 5b bd a2 61 a1 bd 28 a0 b4 bc 8f f0 a6 bd
       -0.05367411 -0.0787995 -0.022049025 -0.08151352
000130 a7 4b 9a 3d 7a be db bc 2f 9d 73 3d ba 92 3b 3d
       0.07533961 -0.026824225 0.059476074 0.045794226
000140 b2 50 2b bb d1 af d7 bc 55 ca 72 3d fb f5 85 bd
       -0.0026140627 -0.026328953 0.05927499 -0.06541058
000150 0a a4 a9 3c fb fe 7b 3d ef d6 64 3d 26 70 8e 39
       0.020708103 0.061522465 0.05586904 0.00027167908
000160 d6 c7 9c bd f4 4b 18 3d 51 0e 8f bc a2 1f 10 3d
       -0.07655303 0.03718181 -0.017462881 0.035186417
000170 b7 34 48 3d d6 1f 0b 3c 1d 2c a1 bd ba e3 6c 3d
       0.048878398 0.008491477 -0.07869742 0.057834364
000180 74 1c 5e 3d 2c 3d 29 bd 68 ce 75 bd 73 c7 70 3d
       0.054226354 -0.041318104 -0.060011297 0.05878396
000190 3d 39 3e 3d 04 1f 88 bd 8e 38 19 bc 8c 49 46 3d
       0.046441305 -0.06646541 -0.009351863 0.048409984
0001a0 60 c9 1d 3c 18 08 b9 bc 74 6c 37 3d 1a 5d 67 3d
       0.009630531 -0.022586867 0.044781163 0.056485273
0001b0 a0 81 bd bc 68 99 a2 bc 65 4d 9a 3d a1 16 80 3c
       -0.0231331 -0.01984854 0.07534293 0.01563579
0001c0 48 37 8f 3d 15 89 71 3d 87 af 9b 3d 91 6e 6f bd
       0.06992966 0.058968622 0.076018386 -0.058455054
0001d0 4b af 1c bd 57 8f 2d bc f4 c6 02 3d 08 0f a6 bc
       -0.03825311 -0.010593257 0.031928018 -0.02027084
0001e0 59 f2 59 bb 8c a4 3d 3d ef 0f a9 3d 42 b1 80 3d
       -0.0033256023 0.046299502 0.08254992 0.06283809
0001f0 31 ad 91 bd 89 ce fb bb 07 0f 16 3c bd b9 3a bb
       -0.07113112 -0.007684533 0.009158856 -0.0028492056
000200 73 19 7e 3a bf 53 b2 3d 17 86 84 3c 0d c9 47 bd
       0.0009693123 0.087073795 0.01617722 -0.04877572
000210 96 bb ad bc 83 9a b7 bc 96 59 b3 3d d4 5d a9 3d
       -0.021207612 -0.022412544 0.087573215 0.082698494
000220 65 9a 65 3d 10 26 75 3c a9 29 8e bc 8d 40 ee 3c
       0.056055445 0.014962688 -0.01735385 0.029083515
000230 16 21 c7 3c 37 13 96 3c 8d fa b2 3b 08 8d 16 3d
       0.024307769 0.01831971 0.005461997 0.03675559
000240 ab f0 bc 3d 9a 60 85 bd 59 df 49 3d 91 ad 3d bd
       0.09225591 -0.06512566 0.049285267 -0.046308104
000250 ed b7 1d 3d 01 b0 91 bd df 11 0d ba d9 d5 e4 3c
       0.038505483 -0.07113648 -0.0005381386 0.027934002
000260 21 04 50 bd 8b 02 6a bd 7b e5 98 3d 05 06 57 3d
       -0.050785188 -0.05713133 0.07465645 0.052495975
000270 5c 00 9f 3a e0 3d fa bc 2d a1 91 3d 6d 88 92 3d
       0.0012130844 -0.030547082 0.0711082 0.071549274
000280 2e ab 82 bd c8 21 0f 3d 5e 7b ec bc 51 a5 6a 3c
       -0.06380306 0.034944326 -0.02886742 0.014321641
000290 84 cb 1a 3d 15 39 a1 3d db 43 9c bd 8e fe 82 3b
       0.037791744 0.07872216 -0.0763013 0.0039976304
0002a0 af 43 10 bd d4 88 8f 3d 1f 14 7a 3d b4 25 a5 bd
       -0.035220798 0.0700852 0.061054345 -0.08063832
0002b0 04 e7 1c 3d f3 b2 1b 3c 24 33 aa bd 46 d3 ee bc
       0.03830625 0.009503114 -0.083105356 -0.029153477
0002c0 6b 30 83 bd 87 14 74 3c 0a 46 30 bc 2b 49 2b bd
       -0.06405719 0.014897472 -0.010758886 -0.041817825
0002d0 26 bc 0e bc 1f f2 de bc 56 e0 5b bd 31 46 24 3d
       -0.00871185 -0.027215062 -0.05368074 0.040106002
0002e0 c1 89 0e bd 12 df 5d bd d4 54 8c bc dc 09 21 3d
       -0.03479934 -0.054167815 -0.017130293 0.039316043
0002f0 19 b9 4b 3c 8a 18 10 bc f2 19 81 bd 51 89 2f bd
       0.012434267 -0.008794913 -0.06303777 -0.042855565
000300 c5 c6 69 bd ca e7 59 bd 3f 37 9d ba 30 64 d7 bc
       -0.057074327 -0.053199567 -0.0011994614 -0.02629289
000310 aa ea 9b 3c 6e d7 d0 3b 39 8f 8a bd d7 77 91 3d
       0.019032795 0.0063733375 -0.06765599 0.07102936
000320 95 76 97 3d 7b a8 d8 bc 17 06 1a 3d cc 70 ea bc
       0.073956646 -0.026447525 0.037603464 -0.028618239
000330 e5 46 46 bc 1e d4 08 bd 4e 63 9e bb 16 73 9d bd
       -0.0121018635 -0.033405416 -0.0048336154 -0.076879665
000340 05 22 17 bd 58 6f 94 3c c9 ad 72 3b 3f b7 d1 bc
       -0.036897678 0.0181195 0.0037029854 -0.025600074
000350 ca 37 43 3d fc ca 9b 3d 9c ef 45 bd 92 fb 1d bd
       0.047660626 0.076070756 -0.048324212 -0.038569994
000360 4b 67 91 3d 8e c6 4b bd 84 2d a7 3c f3 80 a3 3d
       0.0709978 -0.049749903 0.020407446 0.079835795
000370 45 61 ac 3c 7e 19 86 3d d4 93 a8 bc 9f 3c 4c 3d
       0.021042475 0.06547831 -0.020578302 0.0498625
000380 0e e1 44 3d 03 06 ea 3c 0e d6 90 bc 8b ef 9e 3d
       0.04806619 0.02856732 -0.017680194 0.07760533
000390 62 ef 3d bb fa 64 a8 bc 69 f6 18 3b 79 ff 61 bd
       -0.0028981795 -0.020555962 0.0023340231 -0.05517528
0003a0 f3 5e 89 3d 23 11 7e bc 8b 49 6d bb 5d 5c d3 3c
       0.06707563 -0.015507015 -0.0036207165 0.025800878
0003b0 f9 15 7f 3d 5f 21 b0 3c 9d 61 d3 bb c8 f3 35 3d
       0.062276814 0.021500288 -0.0064508454 0.04442194
0003c0 71 42 48 bd 07 2b 01 bd 7f dd 21 3c 39 95 25 3d
       -0.04889149 -0.031535175 0.009879469 0.040425513
0003d0 97 52 1c 3d a9 5b d8 bc c4 87 2b 3b 57 d9 4a bc
       0.0381647 -0.026410894 0.0026173452 -0.012380919
0003e0 20 34 e8 3b d7 52 5b 3d fd fb ee bc ea cf 90 bb
       0.007086292 0.0535458 -0.029172892 -0.0044193165
0003f0 4f 05 01 bd 07 72 7c bd 78 c1 07 bc 5b da 76 3b
       -0.031499203 -0.061632182 -0.008285873 0.003766677

colorization.3.bias f4 [16]
000000 ad 99 23 3c 0f 1a 8e 3d 41 ec d5 bc ee f3 3d 3d
       0.00998537 0.06938564 -0.026113631 0.046375208
000010 7b 34 11 bc c9 5d 21 bd 4b 75 88 bd c0 a5 a0 3b
       -0.00886261 -0.03939608 -0.06662997 0.0049025714
000020 23 b9 ec 3c b9 f3 02 3d ce af 55 3d c6 92 24 bd
       0.028896874 0.031970713 0.052169614 -0.040179037
000030 07 54 06 3d ab 2f 65 3d e6 e7 34 3d 9f fc 11 3d
       0.03279498 0.055953663 0.044166468 0.03564131
