temp_transformer.pt (torch_old, 201089 bytes, 18 tensors)

fc1.weight f4 [50, 320]
0	0xbd494771	-0.049140397
1	0xbd45fbac	-0.048335716
2	0x3b361510	0.002778355
3	0xbd516c7d	-0.051128853
4	0x3d237aa4	0.03991188
5	0xbb952fa8	-0.0045528
6	0xbd533447	-0.051563527
7	0xba994a20	-0.0011695065
8	0xbd2df747	-0.04247215
9	0x3d502250	0.050813973
10	0xbd64cf58	-0.0558618
11	0x3cd7aa6c	0.02632638
12	0x3c005ac0	0.0078341365
13	0x3d042578	0.032262295
14	0x3ca4e608	0.020129219
15	0x3cc44b74	0.02396176
16	0xbceb857d	-0.028750176
17	0x3d38cd8a	0.045117892
18	0x3b5291d0	0.0032130368
19	0xbc3f88ec	-0.01169036
20	0x3cd3c638	0.025851354
21	0xbcebeb54	-0.028798737
22	0x3d1cf36e	0.03831809
23	0x3d1b887e	0.037971966
24	0x3bae3de0	0.0053174347
25	0x3cc6132c	0.024179064
26	0xbd3fba58	-0.04680857
27	0x3ca0bbb0	0.019620746
28	0xbd270e2d	-0.040785003
29	0xbd155304	-0.036456123
30	0x3d0146dc	0.031561717
31	0x3c8c31e0	0.017113626
32	0x3c2aae68	0.010417558
33	0x3be6e4d0	0.0070463195
34	0xbd22bbce	-0.039729886
35	0x3be5b5b0	0.007010184
36	0xbd32f25e	-0.04368817
37	0xbc66ce14	-0.014087219
38	0xbc1dc168	-0.009628631
39	0xbd52ccb8	-0.051464766
40	0xbc857b98	-0.016294286
41	0x3d28b1f8	0.04118535
42	0xbd317b4b	-0.043330472
43	0x3d4944b2	0.04913778
44	0xbd5877bd	-0.052848566
45	0xbca5e600	-0.020251274
46	0x3d3ec18e	0.046571307
47	0xbb96ed90	-0.0046059564
48	0xbd1eca6a	-0.038767256
49	0x3d5351de	0.051591747
50	0xbcc07bb2	-0.023496483
51	0x3d239ec8	0.039946347
52	0x3b2c6420	0.0026304796
53	0x3cef5d74	0.029219367
54	0xbd4807d1	-0.04883558
55	0x3d593f4a	0.053038873
56	0xbc4290dc	-0.0118753575
57	0xbd0cb42b	-0.03435151
58	0x3b469270	0.0030299686
59	0x3ca45014	0.020057715
60	0x3cd395cc	0.025828265
61	0xbca98bcc	-0.020696543
62	0x3d3bf20a	0.045885123
63	0xbc310d68	-0.010806419
64	0xbce48e85	-0.02789999
65	0x3c918888	0.017765298
66	0xbb97cfb0	-0.0046329126
67	0xbc7635f4	-0.015027512
68	0x3c8956f4	0.016765095
69	0xbd1ac6fe	-0.03778743
70	0xbd02ef2f	-0.031966385
71	0xbc39e2dc	-0.011345591
72	0xbcae09d2	-0.021244917
73	0xbd29d59e	-0.041463487
74	0xbcc906e2	-0.024539415
75	0xbd0cff1e	-0.034422986
76	0xbd5b8a0b	-0.053598445
77	0xbc1f6928	-0.009729661
78	0x3bc14d20	0.0058990866
79	0xbc8aebc8	-0.016958132
80	0x3cc8694c	0.024464272
81	0x3d030788	0.031989604
82	0xbc6ada94	-0.01433434
83	0x3d450326	0.048098706
84	0xbc7e6ee8	-0.015529372
85	0xbc89b0e2	-0.016807977
86	0xbd2a2736	-0.0415413
87	0x3d0f09cc	0.034921452
88	0xbd5c6486	-0.053806804
89	0x3d3949fa	0.045236565
90	0x3ccdcac8	0.025121108
91	0x3c8add98	0.016951367
92	0xbbce9540	-0.006304413
93	0xbd38b706	-0.04509642
94	0xbcf262fc	-0.029588215
95	0x3d547854	0.051872566
96	0xbd27be2d	-0.04095285
97	0x3c8c2fc4	0.01711262
98	0x3b99ab18	0.0046895854
99	0x3d35b67a	0.044363476
100	0x3d4b0254	0.049562767
101	0xbd3b2ed1	-0.045698944
102	0x3cff55a0	0.031168759
103	0xbc25b9d8	-0.010115109
104	0xbd09c84c	-0.033638284
105	0xbce94296	-0.028474133
106	0xbc7cec08	-0.015437134
107	0xbb47b120	-0.0030470565
108	0xbb8c8660	-0.0042884797
109	0xbd415691	-0.047201697
110	0x3cd135a0	0.025538266
111	0x3d098f20	0.03358376
112	0x3c9dca70	0.019261569
113	0x3cf7aeb4	0.030234672
114	0x3c58bb98	0.01322832
115	0xbd329962	-0.04360331
116	0x3d218ada	0.03943906
117	0x3ca8e71c	0.020618014
118	0xbc165734	-0.009176064
119	0x3ce2f900	0.027706623
120	0x3ce19994	0.027539052
121	0xbbafb138	-0.0053617023
122	0x3d5963e4	0.05307378
123	0xbc2d21b0	-0.010567114
124	0xbd0b9ddc	-0.034086093
125	0x3d565aa6	0.052332543
126	0xbcd8897e	-0.026432749
127	0x3caeaf68	0.021323875
128	0xba9eea20	-0.0012124218
129	0x3d31fb1a	0.04345236
130	0x3c1bb500	0.009503603
131	0x3cc79520	0.0243631
132	0xbce4561a	-0.027873088
133	0x3d552364	0.052035704
134	0xbb9072e0	-0.0044082254
135	0xbcacd2d8	-0.021096632
136	0xbd0338e9	-0.032036696
137	0xbb72c610	-0.0037044324
138	0xbd55ec28	-0.05222717
139	0x3d3705cc	0.044683263
140	0x3a876380	0.0010329336
141	0x3d20ccc2	0.039257772
142	0xbd392d25	-0.04520907
143	0x3d363ffa	0.044494607
144	0x3bca1bf0	0.006167881
145	0x3c918c70	0.017767161
146	0xbd1a105a	-0.03761325
147	0xbceb5636	-0.028727632
148	0x3d0b678e	0.034034304
149	0xbd0ccc76	-0.034374677
150	0x3c0a72d0	0.008450225
151	0xbd5eb623	-0.054372918
152	0x3ba5d7b8	0.005061116
153	0x3d3a9152	0.045548744
154	0xbc753adc	-0.014967646
155	0xbc0f77b8	-0.0087565705
156	0xbd5ea751	-0.054358784
157	0xbc9d57aa	-0.01920684
158	0xba592900	-0.00082840025
159	0xbc8624d2	-0.01637498
160	0x3cbfc200	0.023407936
161	0xbd1fe6c0	-0.03903842
162	0x3d467e60	0.048460364
163	0x3c1cd9a8	0.009573378
164	0x3b8d1c68	0.004306365
165	0xbcf980e7	-0.030456973
166	0x3b9c7bf0	0.0047755167
167	0x3b0a9190	0.002114389
168	0x3cfb39fc	0.030667298
169	0xbd472595	-0.048619825
170	0xbce3dc31	-0.027814956
171	0xbd18dc16	-0.037319265
172	0xba527a00	-0.00080290437
173	0x3d151c20	0.036403775
174	0x3cbb43e0	0.022859514
175	0xbd30a92e	-0.043130092
176	0x3c7bea40	0.015375674
177	0xbd1ca51b	-0.038243394
178	0x3d36042a	0.044437565
179	0x3c2140b0	0.009842083
180	0xbcdb9ad8	-0.026807234
181	0xbd475e32	-0.048673816
182	0xbc42e4cc	-0.01189537
183	0x3d62182a	0.055198826
184	0x3d5f00ea	0.05444423
185	0xbd42c0cc	-0.047547147
186	0xbc872ea6	-0.016501736
187	0xbd35f17a	-0.044419743
188	0xbc47ed48	-0.012202568
189	0x3d21dac8	0.039515287
190	0x3d122e24	0.035688534
191	0xbca2e1b4	-0.019883014
192	0xbd61a500	-0.055088997
193	0x3d632558	0.055455536
194	0xbcc96f8e	-0.024589326
195	0x3bb97230	0.005659364
196	0xbd1bc51a	-0.038029768
197	0x3ca3626c	0.019944392
198	0x3c0df070	0.008663282
199	0x3d0149fe	0.031564705
200	0xbb98b510	-0.004660256
201	0x3b35c9a0	0.0027738586
202	0x3cb83eec	0.022490941
203	0x3ccba3c8	0.02485837
204	0x3cab1d90	0.02088812
205	0xbb968f98	-0.0045947544
206	0xbd2f2314	-0.042758062
207	0xbc3ab118	-0.0113947615
208	0x3c8659f8	0.016400322
209	0xbc1370c4	-0.008999053
210	0xbd283b1e	-0.041072004
211	0x3c23d1e0	0.009998769
212	0xbd556300	-0.052096367
213	0x3cd0ac7c	0.025472872
214	0x3d239f22	0.039946683
215	0x3d363ca0	0.04449141
216	0xbd3f01af	-0.046632465
217	0x3d2987fe	0.041389458
218	0xbc78e0b4	-0.015190292
219	0xba2a1340	-0.0006487854
220	0xbcb29d04	-0.021803387
221	0xbd0623f6	-0.03274914
222	0xbd5d0f76	-0.053969823
223	0xbcafa354	-0.021440186
224	0x3c2751d0	0.010212377
225	0x3d31af12	0.04337985
226	0xbbd1d968	-0.0064040907
227	0xbbe16e58	-0.006879609
228	0xbcf1c916	-0.02951483
229	0x3d4152e2	0.047198184
230	0xbca47038	-0.020073041
231	0x3d0ded50	0.034650147
232	0x3d1eb55a	0.03874717
233	0x3d4f009a	0.050537683
234	0x3c570da8	0.0131258145
235	0xbd22844c	-0.03967695
236	0x3b8db2a8	0.004324276
237	0xbd101d6e	-0.035184316
238	0xbcf4d4e7	-0.029886676
239	0xbca3397c	-0.019924872
240	0x3c453658	0.012036882
241	0x3c5d99d0	0.013525441
242	0xbd13b6d4	-0.03606303
243	0xbc8982b6	-0.01678596
244	0x3c8e0b20	0.01733929
245	0xbc6b746c	-0.014371019
246	0xbd643e9f	-0.055723783
247	0xbb5a9540	-0.003335312
248	0x3c6faf28	0.014629163
249	0xbae33460	-0.0017334335
250	0x3ba4ea50	0.005032815
251	0x3cc7380c	0.024318717
252	0x3c648220	0.01394704
253	0x3d01f608	0.031728774
254	0xbccdfcac	-0.025144897
255	0xbcbeeca2	-0.023306195

fc1.bias f4 [50]
0	0x3cced2e0	0.025247037
1	0xbcd1ebd0	-0.02562514
2	0xbd5379ae	-0.051629715
3	0xbb424650	-0.002964396
4	0xbcd807e6	-0.026370954
5	0xbcfee7e2	-0.03111643
6	0xbca385ee	-0.019961324
7	0x3c2d2a80	0.010569215
8	0x3c9defd0	0.01927939
9	0xbd2ef261	-0.04271162
10	0xbd47bb66	-0.0487627
11	0xbb065560	-0.0020497665
12	0x3d6157be	0.055015318
13	0xbd5ad2e6	-0.053423785
14	0x3c490118	0.012268327
15	0xbb2bad90	-0.002619598
16	0x3c936b94	0.017995633
17	0xbd134955	-0.035958607
18	0x3d480104	0.048829094
19	0xbc19f0f8	-0.00939583
20	0x3c2a14a0	0.010380894
21	0xbd44dca2	-0.048061974
22	0xbd2041da	-0.0391253
23	0x3d1c85fa	0.038213708
24	0xbced6125	-0.028976986
25	0xbd28764f	-0.041128453
26	0xbd57da2e	-0.052698307
27	0x3cf5560c	0.029948257
28	0xbd192338	-0.037387103
29	0x3cff0c94	0.031133927
30	0xbd11dcea	-0.03561107
31	0x3c39d808	0.01134301
32	0x3d4a7e98	0.049437135
33	0xbd3492d9	-0.044085357
34	0x3c655690	0.013997689
35	0xbd0f619e	-0.035005204
36	0xbc100398	-0.008789919
37	0xbc29d02c	-0.010364573
38	0xbd47aea9	-0.048750553
39	0xbd166804	-0.03672029
40	0xbc50eb88	-0.0127514675
41	0xbb581280	-0.0032970011
42	0x3d61c0a4	0.055115357
43	0x3cb50ae4	0.02209992
44	0x3d3038ca	0.04302291
45	0xbd431142	-0.04762388
46	0x3d5ed824	0.054405347
47	0xbd14f1ef	-0.03636354
48	0x3d084ce4	0.033276454
49	0xbc0f7ad4	-0.008757312

fc2.weight f4 [10, 50]
0	0x3c090710	0.0083635
1	0x3d8f3cc4	0.06994012
2	0xbd8cbe36	-0.06872217
3	0xbd0fe55a	-0.035130836
4	0xbcd5eea8	-0.026114777
5	0xbceac9a4	-0.028660603
6	0x3c042320	0.008065015
7	0xbdf5b412	-0.11997236
8	0xbdb5f4e4	-0.088846
9	0x3da8a476	0.082344934
10	0xbd08c6ec	-0.03339283
11	0xbde7caf6	-0.113180086
12	0x3c5c35e0	0.013440579
13	0xbdf8a24f	-0.12140333
14	0x3dc37490	0.09543717
15	0x3cc22278	0.023698077
16	0xbaccf500	-0.001563698
17	0xbc887d54	-0.016661324
18	0xbcac3b40	-0.021024346
19	0xbd0f0532	-0.034917064
20	0x3d52d828	0.051475674
21	0xbd220b0a	-0.03956131
22	0x3cd50bb0	0.02600655
23	0x3c5b63e0	0.013390511
24	0xbdfea2d8	-0.12433404
25	0xbd70111c	-0.058610067
26	0xbd99ef30	-0.075163245
27	0x3cfa7768	0.030574515
28	0xbd99e1d0	-0.075137734
29	0xbc9a55fc	-0.018839829
30	0xbc8a9edc	-0.016921453
31	0x3df78166	0.12085228
32	0x3dc4f688	0.096173346
33	0x3e0474bd	0.12935157
34	0x3dd149d2	0.10219158
35	0xbcf159c0	-0.029461741
36	0x3d12390c	0.035698935
37	0x3d9c7d88	0.07641131
38	0xbd82a758	-0.063795745
39	0x3aeb2b00	0.0017941892
40	0xbe0509e7	-0.12992059
41	0xbdf2dc0c	-0.11858377
42	0x3dbe8d38	0.09304279
43	0x3d445f78	0.04794261
44	0xbd992d4c	-0.07479343
45	0xba9f5600	-0.0012156367
46	0x3e0de677	0.13857447
47	0x3e026e63	0.12737422
48	0x3d19e5c0	0.037572622
49	0x3dcc7c64	0.09984663
50	0x3d3b4a14	0.045724943
51	0x3d8360ce	0.064149484
52	0xbd2413ea	-0.040058054
53	0x3d871f68	0.06597787
54	0x3a29ac00	0.00064724684
55	0x3b21b800	0.0024676323
56	0x3bf6c480	0.007530749
57	0xbdf4f075	-0.11959926
58	0x3d905216	0.07046907
59	0xbd65936a	-0.056048788
60	0x3df9479e	0.12171863
61	0xbdaacba2	-0.08339621
62	0x3d825082	0.06363012
63	0x3dcfe4b6	0.10151045
64	0xbd25926c	-0.040422842
65	0xbdf3c3d9	-0.11902589
66	0xbe1081a6	-0.14111957
67	0x3de241ee	0.11047731
68	0x3d18bec4	0.037291303
69	0x3dd6d4ba	0.10489793
70	0xbd870e79	-0.06594557
71	0x3d722b58	0.059123367
72	0xbc6050e0	-0.013691157
73	0x3dc89b4c	0.097952455
74	0xbda54e5f	-0.08071589
75	0x3dd43cb8	0.10363144
76	0x3da908d6	0.082536384
77	0xbe0c3423	-0.13691764
78	0x3ddf72fa	0.10910602
79	0xbc6afc20	-0.014342338
80	0x3d4b8b38	0.049693316
81	0xbce1d61c	-0.027567916
82	0xbcbcd974	-0.023052908
83	0xbab65680	-0.0013911277
84	0xbd531aec	-0.051539347
85	0x3d4f3c68	0.050594717
86	0xbd8324ae	-0.064034805
87	0x3b887560	0.004164383
88	0x3bd00180	0.006347835
89	0xbd95c277	-0.07312482
90	0x3d5dec00	0.054180145
91	0xba012600	-0.0004926622
92	0xba25a900	-0.00063194335
93	0x3c043860	0.0080700815
94	0x3d3a1094	0.045425966
95	0x3dc487c8	0.09596211
96	0x3d310e50	0.04322654
97	0x3d879a42	0.06621219
98	0x3b232480	0.0024893582
99	0x3ba42840	0.005009681
100	0x3d9713c0	0.07376814
101	0xbd34e1f4	-0.0441608
102	0x3db71cf8	0.08941072
103	0x3de0067e	0.10938738
104	0x3de6a996	0.11262815
105	0xbde37ca1	-0.111077555
106	0xbd689d3a	-0.056790568
107	0xbd8d6744	-0.06904462
108	0x3dafaeb0	0.08578241
109	0xbdf862a9	-0.12128193
110	0xbd13f6b8	-0.03612396
111	0x3d091bd0	0.03347379
112	0x3e0dd6b7	0.13851438
113	0x3d91dae0	0.07121825
114	0xbdcb3c56	-0.099236175
115	0xbd9eb565	-0.07749442
116	0x3d8d4bde	0.06899236
117	0xbd43749c	-0.04771863
118	0xbd9ce824	-0.07661465
119	0x3dcbb3fa	0.09946437
120	0xbdb83f49	-0.08996446
121	0x3de01af2	0.109426394
122	0xbcd82a14	-0.026387252
123	0x3d94b846	0.0726171
124	0xbe02b38c	-0.12763804
125	0x3dbb95c6	0.091594264
126	0x3dc8c9e0	0.098041296
127	0xbdb6e26b	-0.089299046
128	0x3dd9ba52	0.10631241
129	0x3dc3644c	0.095406145
130	0x3dc97e04	0.09838489
131	0x3df0f4b6	0.11765425
132	0x3d103494	0.035206392
133	0xbddc86d1	-0.10767902
134	0x3e03114d	0.12799568
135	0xbd9e9fd4	-0.077453285
136	0xbd8e7969	-0.06956751
137	0x3df3b22e	0.118992195
138	0xbda99b3e	-0.08281563
139	0xbd086ad6	-0.03330501
140	0xb9836e00	-0.00025068223
141	0xbe0cd918	-0.1375469
142	0x3d984040	0.0743413
143	0xbc735700	-0.014852285
144	0xbd2899ec	-0.041162416
145	0x3d372198	0.044709772
146	0x3e0cc105	0.13745506
147	0xbd9ca264	-0.07648161
148	0x3dac70f0	0.084199786
149	0x3e0d471d	0.13796659
150	0x3d9180d2	0.07104649
151	0xbde5bee8	-0.11218053
152	0x3d91b37a	0.071143106
153	0xbd1be98c	-0.038064525
154	0xbdf0d6c8	-0.11759716
155	0x3d7040e4	0.058655635
156	0x3dbfdfe0	0.09368873
157	0x3d6f0570	0.058354795
158	0xbb329700	-0.0027250648
159	0x3df11c1a	0.11772938
160	0x3da8c656	0.082409546
161	0xbdf6fcb4	-0.12059918
162	0xbc379d40	-0.011206925
163	0xbd8a8a98	-0.06764716
164	0xbd56cb22	-0.052439816
165	0x3e02d9f1	0.1277845
166	0xbe0ea8c1	-0.13931562
167	0x3bb2ebc0	0.0054602325
168	0x3de924c6	0.11383967
169	0x3d15421c	0.03644
170	0x3dbe581e	0.09294151
171	0xbd08b3a8	-0.03337446
172	0xbc1f6d30	-0.009730622
173	0xbdfae981	-0.122515686
174	0xbde3b7de	-0.11119054
175	0x3dcbd5da	0.09952898
176	0x3debfe22	0.11523081
177	0xbd2a23fe	-0.04153823
178	0xbdda63fc	-0.10663602
179	0xbdcb3170	-0.09921539
180	0x3e097747	0.13424407
181	0xbdd637c2	-0.10459854
182	0xbd46a4a6	-0.048496865
183	0xbd951ae4	-0.072805196
184	0x3dc40008	0.095703185
185	0xbdf821df	-0.121158354
186	0x3c377ce0	0.011199206
187	0x3d5747f8	0.05255887
188	0xbe057877	-0.13034235
189	0xbd2d4678	-0.042303532
190	0x3bdd72e0	0.006758079
191	0x3d6efda0	0.058347344
192	0xbd22b590	-0.039723933
193	0xba8f3d00	-0.0010928214
194	0x3dc9ef74	0.09860125
195	0x3dc3bdbe	0.09557675
196	0x3c6ff1e0	0.01464507
197	0xbdb1abba	-0.08675332
198	0x3e0b361d	0.13594861
199	0x3cf46bd8	0.02983658
200	0x3de68a96	0.11256902
201	0x3cd822e0	0.026383817
202	0xbde9da35	-0.11418573
203	0xbcbc45f4	-0.022982575
204	0xbd81138d	-0.06302557
205	0x3da5be12	0.08092894
206	0x3cd06c08	0.025442138
207	0x3d662ba4	0.056193963
208	0xbd61a2be	-0.055086844
209	0x3dc6ffa2	0.09716727
210	0xbb1b8980	-0.002373308
211	0xbde3ba50	-0.11119521
212	0xbde8a984	-0.113604575
213	0xbe10ad1e	-0.14128539
214	0x3cbd2ce0	0.023092687
215	0xbcf6ae78	-0.03011249
216	0x3d4047fc	0.04694365
217	0xbe01be10	-0.1267016
218	0x3c138850	0.009004667
219	0x3d8422c2	0.06451942
220	0xbe09e238	-0.13465202
221	0xbdf9cf79	-0.121977754
222	0x3decb3de	0.115577444
223	0xbe0d8437	-0.13819967
224	0xbe102f0a	-0.14080444
225	0xbc4d5270	-0.012531862
226	0x3d8974f0	0.06711757
227	0xbb9e2b40	-0.004826933
228	0x3d11b728	0.035575062
229	0xbd98a9e6	-0.074542806
230	0x3dfc492e	0.123186454
231	0xbd39c50e	-0.04535394
232	0x3d9e47ce	0.077285394
233	0xbdf1d6a6	-0.11808519
234	0xbdf3b978	-0.1190061
235	0xbddf5be6	-0.109062
236	0x3d846cae	0.064660415
237	0xbd023e82	-0.031797893
238	0x3e07ff35	0.13280948
239	0xbdd8c992	-0.105853215
240	0xbc1a1770	-0.009405002
241	0xbde6b5a3	-0.11265113
242	0xbdb8c65c	-0.09022209
243	0xbd2e64ec	-0.042576715
244	0x3daf8b28	0.08571464
245	0xbd56883e	-0.052376024
246	0x3d5f0010	0.05444342
247	0x3dbd93b6	0.09256689
248	0xbbcbef60	-0.006223604
249	0x3dfbb146	0.122896716
250	0x3b971960	0.004611179
251	0x3aaf4780	0.0013372749
252	0x3d5ca584	0.053868786
253	0x3d8b8a8a	0.068135336
254	0x3d9620c0	0.07330465
255	0x3dc87528	0.09787971

fc2.bias f4 [10]
0	0xbdf3607b	-0.118836366
1	0x3dc074ea	0.093972996
2	0x3df25ca2	0.118340746
3	0x3d41f848	0.04735592
4	0x3d098fe0	0.033584476
5	0x3d943468	0.07236558
6	0x3de56f8a	0.11202915
7	0x3d16f114	0.036851004
8	0xbdbedfd9	-0.09320039
9	0xbd87e32a	-0.06635125

localization.0.weight f4 [6, 3, 5, 5]
0	0xbd990f96	-0.07473676
1	0x3c69b730	0.014264867
2	0xbba5d930	-0.005061291
3	0x3da223dc	0.07916996
4	0xbb262ee0	-0.002535753
5	0x3d87f896	0.06639211
6	0x3c96a318	0.018388316
7	0x3d5f760c	0.054555938
8	0xbddc10a6	-0.10745363
9	0x3daf3096	0.08554189
10	0xbda8d5cc	-0.082439035
11	0xbc93263c	-0.017962568
12	0x3d2098ec	0.039208338
13	0xbc85cf78	-0.01633428
14	0x3dd9cc3a	0.10634656
15	0xbdd6bdee	-0.10485445
16	0xbdba8f9b	-0.09109422
17	0x3cd40f40	0.025886178
18	0xbdc8f80b	-0.098129354
19	0x3c6f4170	0.014603004
20	0xbd18dd26	-0.03732028
21	0x3de8cac6	0.11366801
22	0x3bd51140	0.0065023005
23	0xbd36ffe8	-0.044677645
24	0x3de00a48	0.10939461
25	0xbd64413b	-0.05572627
26	0x3d99a0dc	0.075013846
27	0x3de9659a	0.11396332
28	0xbd047e1e	-0.032346837
29	0x3d46d564	0.04854335
30	0x3dae4d90	0.085108876
31	0x3c83b4c0	0.0160774
32	0x3d06f384	0.03294708
33	0x3dd420c4	0.10357812
34	0x3d923bc2	0.07140304
35	0xbdeb8fe5	-0.11502055
36	0x3d8714aa	0.06595738
37	0xbc9020a4	-0.01759369
38	0xbde1e678	-0.110302866
39	0x3cb25498	0.021768853
40	0xbd17f772	-0.037101217
41	0x3c932b90	0.017965108
42	0xbce40ca4	-0.027838059
43	0x3de1e4b2	0.11029948
44	0xbd2ee376	-0.042697392
45	0xbd42cc88	-0.047558337
46	0x3db387c6	0.08766131
47	0x3d58a308	0.052889854
48	0x3c4d5880	0.012533307
49	0xbd82f9ed	-0.06395326
50	0x3ce89bd0	0.02839461
51	0xbd939f15	-0.07208077
52	0x3dc70c62	0.09719159
53	0x3d32d7f0	0.043662965
54	0xbde30d12	-0.11086477
55	0x3ca04d88	0.01956822
56	0xbdb40bb6	-0.08791296
57	0xbd4da072	-0.05020184
58	0xbde80f08	-0.11330992
59	0xbd182852	-0.037147827
60	0x3dd700fe	0.10498236
61	0x3d87592a	0.066088036
62	0x3cb52c70	0.022115916
63	0x3be52450	0.006992854
64	0xbdc4f3bb	-0.096168004
65	0xbc0da440	-0.008645117
66	0xbba43e70	-0.005012326
67	0xbdd58dbc	-0.10427424
68	0x3d4e8af4	0.050425485
69	0x3dc13cdc	0.09435436
70	0xbd8777d8	-0.06614655
71	0xbd4e3542	-0.05034376
72	0xba954340	-0.001138784
73	0xbd0b72ae	-0.034044914
74	0xbbb06d50	-0.005384125
75	0x3dc33fc6	0.09533648
76	0x3be01c70	0.0068393275
77	0x3dec3500	0.115335464
78	0x3db39df2	0.0877036
79	0x3d375554	0.04475911
80	0xbdd4753d	-0.10373924
81	0x3d860baa	0.065451935
82	0x3aa08480	0.0012246519
83	0xbd7311e3	-0.05934323
84	0xbd10fc88	-0.035397083
85	0xbc08daf0	-0.00835298
86	0xbda3a977	-0.07991307
87	0xbd129aae	-0.035792045
88	0x3c8aae98	0.016928956
89	0x3d85abd6	0.06526916
90	0x3da9e5f4	0.08295813
91	0x3c192d48	0.009349175
92	0x3db457e4	0.08805826
93	0xbd726383	-0.059176933
94	0xbdaa8b32	-0.08327331
95	0x3bdd20e0	0.006748304
96	0xbc549850	-0.012975767
97	0x3da1331e	0.07871078
98	0xbde658b2	-0.11247386
99	0x3d9fabe4	0.077964574
100	0xbc0fff58	-0.008788906
101	0x3d3e8008	0.04650882
102	0x3db00a8e	0.08595763
103	0x3d8c6638	0.06855434
104	0x3d1e6314	0.038668707
105	0x3cde8ff0	0.027168244
106	0x3d78a1b4	0.060701087
107	0x3db9cda2	0.090724245
108	0x3c22e490	0.009942189
109	0xbdbd854e	-0.092539415
110	0xbda465a8	-0.08027202
111	0xbd538bb6	-0.05164691
112	0xbd6670d4	-0.056259945
113	0x3d911ef4	0.07085982
114	0xbd1c6f98	-0.03819236
115	0xbcdeccd8	-0.027197286
116	0xbd8a4a3d	-0.06752441
117	0x3ce51948	0.027966157
118	0xbd616ad3	-0.055033516
119	0xbd87d4a8	-0.06632358
120	0xbda2c970	-0.079485774
121	0x3d2766f8	0.040869683
122	0x3dd85818	0.105636775
123	0x3daeef80	0.08541775
124	0xbae0f240	-0.001716204
125	0xbd259f60	-0.040435195
126	0xbd540b48	-0.05176857
127	0x3cd0d020	0.025489867
128	0xbcb95ccc	-0.022627257
129	0x3d94db9c	0.0726845
130	0xbd495996	-0.0491577
131	0x3da26a78	0.079304636
132	0xbb8ec580	-0.00435704
133	0xbbef1cc0	-0.0072971284
134	0xbdb61d97	-0.088923626
135	0x3d24e390	0.040256083
136	0x3d9de6de	0.0771005
137	0xbda936cc	-0.08262405
138	0xbde1252c	-0.10993418
139	0x3bc77ac0	0.006087631
140	0xbd160416	-0.03662499
141	0x3d09b990	0.03362423
142	0xbd68fe8c	-0.05688338
143	0x3dd1ac40	0.10237932
144	0x3db6f514	0.08933464
145	0x3c5f73e0	0.013638467
146	0x3d3d401c	0.046203718
147	0x3bd08430	0.006363414
148	0xbdc17c9e	-0.09447597
149	0x3d6364b8	0.055515975
150	0xbd9fd34c	-0.078039736
151	0xbd8ab81c	-0.06773397
152	0xbbb4ed90	-0.0055214837
153	0xbc04ce18	-0.008105777
154	0xbce6fa5c	-0.028195553
155	0x3d878a2c	0.06618151
156	0xbc4e34a0	-0.012585789
157	0x3d96d688	0.07365137
158	0x3dc55dd8	0.0963704
159	0x3de90618	0.113781154
160	0x3d650f34	0.055922702
161	0x3d6071c0	0.05479598
162	0xbdc97cd0	-0.09838259
163	0xbc4cedf8	-0.012507908
164	0x3d2acf3c	0.04170154
165	0xbdcb0bbd	-0.09914348
166	0x3d1104a0	0.0354048
167	0x3d858854	0.06520143
168	0x3d6401d0	0.05566579
169	0x3c64e7a0	0.013971239
170	0xbc7763c0	-0.015099466
171	0x3d918bd2	0.07106747
172	0x3d8406c0	0.064466
173	0x3ccf74b0	0.025324196
174	0x3ceb8f28	0.028754786
175	0x3d757d68	0.05993405
176	0xbce858f0	-0.028362721
177	0x3cfff998	0.031246945
178	0xbd0ca934	-0.034341052
179	0xbced20b8	-0.028946266
180	0xbd7090d7	-0.05873188
181	0xbd8c09ac	-0.06837782
182	0xbbdfd4a0	-0.006830767
183	0xbce27750	-0.027644783
184	0xbddccfa6	-0.10781793
185	0x3cd24148	0.025665894
186	0x3d441650	0.04787284
187	0x3cff13f8	0.031137452
188	0x3d2a6928	0.04160419
189	0xbd02a368	-0.031894118
190	0xbde8de40	-0.11370516
191	0x3dca3990	0.098742604
192	0x3d24b4a4	0.040211335
193	0x3b08a320	0.0020849183
194	0x3d89902a	0.0671695
195	0x3dcab564	0.09897879
196	0x3ca0b508	0.019617572
197	0xbd2616ac	-0.040548965
198	0x3dc634f6	0.0967807
199	0x3d1825b8	0.037145346
200	0xba8f59c0	-0.0010936782
201	0x3dc4ad8c	0.09603414
202	0xbd03d4b2	-0.032185264
203	0xbdd415cb	-0.10355719
204	0x3da69f82	0.081358925
205	0x3dd1499c	0.10219118
206	0xbd6f2807	-0.058387782
207	0x3c991480	0.018686533
208	0x3ce29278	0.027657732
209	0xbcece79c	-0.028919034
210	0x3b6ae120	0.0035839751
211	0xbdbcaf07	-0.09213071
212	0xbde3a28f	-0.1111499
213	0x3da1e1cc	0.079043955
214	0x3dc495f4	0.09598914
215	0x3c4eeda0	0.012629896
216	0xbd02dcfe	-0.031949036
217	0x3dab971c	0.08378431
218	0xbcb68300	-0.022279263
219	0x3dcd499a	0.10023804
220	0x3b81c440	0.0039601624
221	0x3d623224	0.0552236
222	0x3d474260	0.048647285
223	0x3c6641c0	0.014053762
224	0x3d69678c	0.056983516
225	0x3d5e5aa8	0.054285675
226	0x3d972ede	0.07381986
227	0xbbbe0d50	-0.005799927
228	0xbcf6f630	-0.030146688
229	0xbd846e80	-0.06466389
230	0xbdc4ba0a	-0.09605797
231	0xbbacb560	-0.005270645
232	0x3d0e595c	0.03475319
233	0xbd6d5e76	-0.057951413
234	0x3d9cd564	0.076578885
235	0x3ce245e8	0.027621225
236	0xbd03d580	-0.03218603
237	0x3dbebfa6	0.09313898
238	0xbd5f46f2	-0.054511018
239	0x3d92fd54	0.07177225
240	0xbd6f0aed	-0.05836003
241	0xbd4adce4	-0.049527064
242	0xbdc2d7c7	-0.095138125
243	0x3dce0df8	0.10061258
244	0xbdd519fc	-0.10405347
245	0x3c8b8548	0.017031327
246	0x3d669744	0.056296602
247	0xbdb0509c	-0.08609125
248	0xbdccf09e	-0.100068316
249	0x3ad19480	0.0015989691
250	0xbdc8af87	-0.09799104
251	0xbdd1a4c7	-0.10236507
252	0x3d2e4b6c	0.042552397
253	0xbd048380	-0.03235197
254	0xbdb80ca2	-0.089867845
255	0xbcafedcc	-0.021475695

localization.0.bias f4 [6]
0	0x3cfe4638	0.031039342
1	0x3de1fb62	0.110342756
2	0x3d929128	0.071565926
3	0x3c8b9fd8	0.017043993
4	0x3d211668	0.03932801
5	0xbd731bdc	-0.05935274

localization.3.weight f4 [16, 6, 5, 5]
0	0xbb4f58a0	-0.0031638518
1	0x3d3dc178	0.046327084
2	0x3d01b768	0.03166905
3	0x3d240986	0.040048145
4	0xbd5590ce	-0.05214005
5	0x3d2f6a70	0.042826116
6	0x3c61d268	0.013783075
7	0xbd26dd03	-0.040738117
8	0x3c6e9340	0.014561474
9	0xbd83b412	-0.0643083
10	0xbda655e1	-0.08121849
11	0xbb839660	-0.004015729
12	0x3cb570a8	0.022148445
13	0xbd41d0b7	-0.047318187
14	0x3d48f568	0.049062163
15	0x3d8488a8	0.064713776
16	0x3d86d542	0.065836444
17	0xbd1c6df4	-0.038190797
18	0xbd820892	-0.06349291
19	0x3d721574	0.05910249
20	0x3d35c980	0.04438162
21	0x3d1b0c88	0.037853748
22	0xbd9e840e	-0.07740031
23	0x3d0313ec	0.03200142
24	0x3b856f60	0.004072115
25	0x3d09b056	0.033615433
26	0xbac88180	-0.0015297383
27	0xbd31782e	-0.043327503
28	0xbd807c10	-0.06273663
29	0x3cadf918	0.021236941
30	0xbd655e6a	-0.055998243
31	0x3da68f8e	0.0813285
32	0xbda2d5a2	-0.079509035
33	0xbc544120	-0.01295498
34	0x3cf24250	0.029572636
35	0x3c4eccc0	0.012622058
36	0xbd85ec94	-0.06539264
37	0xbd98542a	-0.07437928
38	0xbd9df82c	-0.07713351
39	0xbd5497f6	-0.051902734
40	0xbc8c89c4	-0.017155536
41	0x3b5ac4c0	0.0033381432
42	0x3d32e6c0	0.04367709
43	0x3d27d9f4	0.04097934
44	0xbd00d50e	-0.031453185
45	0xbd0abb1a	-0.03386984
46	0x3b7bdde0	0.0038431808
47	0xbd93c875	-0.072159685
48	0xbd1b0a52	-0.03785164
49	0xbd3327a5	-0.04373898
50	0xbcd425b8	-0.025896892
51	0xbd778fc6	-0.060439847
52	0x3c91c798	0.017795369
53	0xbd99bb3a	-0.07506414
54	0xbda15631	-0.07877768
55	0xbd168db9	-0.03675625
56	0x3d8c673c	0.06855628
57	0xbd23217a	-0.039826848
58	0x3cd4d560	0.025980651
59	0xbc9ac200	-0.018891335
60	0x3da37186	0.07980637
61	0xbd1d7065	-0.038437266
62	0xbd9f67c3	-0.07783463
63	0x3d0ae410	0.033908904
64	0xbd2bb276	-0.04191824
65	0x3d96c8d0	0.07362521
66	0x3d1f3ee2	0.03887833
67	0x3d768264	0.060182944
68	0x3c1886a8	0.009309448
69	0xbb117e00	-0.0022200346
70	0x3d830d08	0.0639897
71	0xbd6dd768	-0.058066756
72	0x3da1557c	0.07877633
73	0xbcb40574	-0.021975257
74	0x3d837e5a	0.06420584
75	0xbd9cec87	-0.076623015
76	0x3ce0ded4	0.027450003
77	0x3cffe578	0.031237349
78	0xbcdb3882	-0.026760343
79	0x3c53ee60	0.012935251
80	0xbc4ccbb0	-0.012499735
81	0x3d9314c6	0.071816966
82	0xbd278a16	-0.040903173
83	0x3d2f8ec8	0.042860776
84	0xbd99c8cb	-0.07509001
85	0xbd8eaab3	-0.06966152
86	0x3d2cc9aa	0.04218451
87	0x3bafe3d0	0.0053677335
88	0xbd8f495f	-0.06996416
89	0x3b876200	0.0041315556
90	0xbda34048	-0.07971245
91	0x3d335114	0.043778494
92	0xbc47f680	-0.012204766
93	0x3b3e23e0	0.0029013082
94	0x3d585994	0.052819803
95	0xbc90e2a0	-0.017686188
96	0x3d6c6c94	0.057720736
97	0xbd615f12	-0.055022307
98	0xbd96c1a2	-0.07361151
99	0xbd17f722	-0.03710092
100	0x3c3576d0	0.01107569
101	0xbd0c3c3e	-0.03423714
102	0xbce357bc	-0.027751796
103	0xbcde7370	-0.027154654
104	0xbd485785	-0.04891159
105	0xbd53f221	-0.051744584
106	0x3a95c180	0.0011425465
107	0xbc5e3f78	-0.013564937
108	0xbd93d954	-0.072191864
109	0x3d3bf6a8	0.045889527
110	0x3d993a9e	0.074818835
111	0x3d90cb32	0.070700064
112	0x3d18dc36	0.037319385
113	0xbd492f20	-0.049117208
114	0x3d6bc7a4	0.05756344
115	0xbd18b0c4	-0.03727795
116	0x3bdba420	0.006702915
117	0xbd037ce4	-0.032101527
118	0x3cce470c	0.025180362
119	0x3b6ed6c0	0.003644392
120	0x3d0da1dc	0.03457819
121	0xbcb7fe72	-0.022460196
122	0x3d8c86c2	0.068616405
123	0x3d943e52	0.07238449
124	0x3c4db870	0.01255618
125	0x3da03ab6	0.07823698
126	0xbcc6211e	-0.024185713
127	0xbc543840	-0.012952864
128	0xbd57d266	-0.052690886
129	0xbd8c19f1	-0.068408854
130	0xbd0abc1f	-0.033870813
131	0xbd40306f	-0.04692119
132	0xbd64243a	-0.05569861
133	0xbbbd6f40	-0.0057810843
134	0xbd90d5cf	-0.07072031
135	0x3d61e748	0.055152208
136	0xbcfd99ea	-0.030957181
137	0x3d259e94	0.040434435
138	0x3d724d0c	0.05915551
139	0x3da1e7b6	0.079055235
140	0x3d36fdf0	0.044675767
141	0xbbcebc80	-0.006309092
142	0x3c76a2a0	0.015053421
143	0x3d66a510	0.05630976
144	0x3d0851fe	0.03328132
145	0xbc88d740	-0.016704202
146	0x3cf36920	0.029713213
147	0xbd724b3c	-0.05915378
148	0xbc866f4c	-0.016410492
149	0x3d5a3c5c	0.05328022
150	0xbd0b213a	-0.033967234
151	0xbda048a2	-0.078263536
152	0xbd39ad38	-0.04533121
153	0x3d8fd206	0.07022481
154	0x3d9ea57c	0.077464074
155	0xbd1ab9c0	-0.0377748
156	0x3c4e1ce8	0.012580134
157	0x3c1367f0	0.008996949
158	0xbccff602	-0.02538586
159	0xbda68572	-0.081309214
160	0xbca924b2	-0.02064738
161	0xbd6afbd1	-0.057369057
162	0x39826f00	0.00024878234
163	0x3c807248	0.015679494
164	0xbd393c7b	-0.045223694
165	0x3c799750	0.01523383
166	0xbc7b4588	-0.015336402
167	0x3d99e49e	0.075143084
168	0x3b2050e0	0.0024462268
169	0xbd20628d	-0.039156485
170	0x3c010018	0.0078735575
171	0x3d567710	0.05235964
172	0xbda6b83e	-0.0814061
173	0xbd1bd704	-0.03804685
174	0xbd500c62	-0.05079306
175	0xbd90682d	-0.0705112
176	0x3ca5e5d8	0.0202512
177	0x3c4b3f88	0.012405284
178	0xbd01673f	-0.031592604
179	0xbc894660	-0.01675719
180	0xbda1cdeb	-0.07900604
181	0x3d1d6c30	0.038433254
182	0x3d3b5cf0	0.04574293
183	0x3c6b9378	0.014378421
184	0x3b08ffa0	0.0020904317
185	0x3b1a3420	0.0023529604
186	0xbc0ef718	-0.008725904
187	0x3d7b3e4c	0.061338708
188	0xbd05c610	-0.03265959
189	0x3da57c64	0.08080366
190	0x3d2d3698	0.042288393
191	0x3d832de8	0.0640524
192	0xbd18368e	-0.037161402
193	0xbcccf94c	-0.025021218
194	0xbd6d6f85	-0.05796768
195	0x3d839698	0.06425208
196	0x3c918200	0.017762184
197	0x3d5a27c0	0.053260565
198	0xbd4fee0e	-0.050764136
199	0xbd581078	-0.05275008
200	0xbcaa95ac	-0.020823322
201	0x3b6b57a0	0.0035910383
202	0x3d9dfd6a	0.077143505
203	0xbd75c148	-0.05999878
204	0x3c422bd0	0.011851266
205	0xbb312aa0	-0.0027033463
206	0xbcde913c	-0.027168863
207	0xbcbe374e	-0.02321973
208	0x3c25e318	0.010124944
209	0xbd7b06f8	-0.061285943
210	0x3d729f8c	0.059234187
211	0x3d4efc78	0.05053374
212	0xbd955b25	-0.07292775
213	0xbd97c04b	-0.07409724
214	0x3ce16fa8	0.027519062
215	0xbd0412e6	-0.032244585
216	0x3d98fb14	0.07469764
217	0x3da3a93c	0.07991263
218	0x3ce97934	0.028500177
219	0x3c8b33d0	0.01699248
220	0xbd8e6fd1	-0.06954921
221	0x3d911dbe	0.07085751
222	0x3d9dfce8	0.07714254
223	0x3b8b87c0	0.004258126
224	0x3bb5a820	0.0055437237
225	0x3d04feec	0.032469675
226	0x3c14c258	0.009079538
227	0xbda6b0d3	-0.08139195
228	0xbcfd63f6	-0.030931454
229	0x3d5dbd20	0.05413544
230	0xbd1c77d0	-0.0382002
231	0x3b89f5a0	0.004210189
232	0xbd38a153	-0.045075726
233	0xbd8d2c98	-0.06893271
234	0xbb856070	-0.004070334
235	0xbcf3b782	-0.02975059
236	0xbcddadb8	-0.027060375
237	0xbd5053b1	-0.050861064
238	0xbd3ee839	-0.046608184
239	0x3bd4c390	0.0064930394
240	0x389ad400	7.38278e-05
241	0xbd9dae9d	-0.076993205
242	0xbd883b39	-0.06651921
243	0xbd8d9d14	-0.06914726
244	0x3c7d3720	0.015455037
245	0xbbd3f630	-0.006468557
246	0x3d0ce966	0.034402274
247	0xbc39ca08	-0.011339672
248	0x3d8f24a2	0.06989409
249	0xbb843660	-0.0040348023
250	0x3d8ca530	0.068674445
251	0x3c8c68bc	0.017139785
252	0xbd896bc3	-0.06710007
253	0x3d5d3584	0.054006115
254	0x3c76ee58	0.015071474
255	0x3cd3ba20	0.025845587

localization.3.bias f4 [16]
0	0xbc8125f8	-0.015765175
1	0x3d530bf0	0.051525056
2	0xbd7bff72	-0.06152291
3	0xbd32edb2	-0.043683715
4	0x3d200486	0.039066814
5	0x3cad03ac	0.021119915
6	0xbd55b59a	-0.052175142
7	0xbbe8b9b0	-0.007102214
8	0xbd2ff7b6	-0.042960845
9	0xbc617968	-0.013761856
10	0x3cecc248	0.028901234
11	0x3c9056cc	0.017619513
12	0xbd2a5595	-0.041585524
13	0x3d936908	0.071977675
14	0xbd1a3551	-0.037648503
15	0xbd5445b0	-0.05182427

colorization.0.weight f4 [6, 3, 5, 5]
0	0xbcc6e1c6	-0.024277579
1	0xbdb32501	-0.08747292
2	0xbdc8898b	-0.09791859
3	0x3d87181d	0.06596396
4	0x3dcfc02d	0.101440765
5	0x3c863002	0.016380314
6	0xbd07ff08	-0.0332022
7	0x3dbd18ee	0.092332706
8	0x3d0e000e	0.03466802
9	0xbdd3e858	-0.103470504
10	0xbd45a6b4	-0.048254684
11	0xbc96da32	-0.01841459
12	0xbde991a6	-0.11404733
13	0x3cc8aa86	0.024495374
14	0xbd38f20c	-0.04515271
15	0x3daf5216	0.085605785
16	0xbd684b67	-0.056712534
17	0x3e004a40	0.12528324
18	0x3cee3220	0.029076636
19	0xbc1915ee	-0.009343607
20	0x3daeac05	0.08528904
21	0x3d00e678	0.031469792
22	0x39c46260	0.00037457328
23	0xbc7eea9f	-0.015558868
24	0x3d9f8658	0.07789296
25	0xbd82fcc6	-0.06395869
26	0x3d289b0e	0.041163497
27	0xbddd814f	-0.10815679
28	0xbc22b460	-0.0099307
29	0xbdbdca64	-0.092671186
30	0xbbe14932	-0.0068751806
31	0xbdb2fd20	-0.08739686
32	0x3d115e34	0.03549023
33	0xbddc9408	-0.10770422
34	0x3d7d7d48	0.061887056
35	0x3dc76633	0.0973629
36	0xbde3f4ce	-0.11130677
37	0xbdc67502	-0.09690286
38	0xbd64d1cb	-0.055864137
39	0xbda7d04a	-0.08194025
40	0xbc11bd48	-0.008895226
41	0x3d9f4f15	0.077787556
42	0x3c9ac4ee	0.018892732
43	0xbd931958	-0.07182568
44	0xbdc3600b	-0.09539803
45	0xbd805e1a	-0.062679484
46	0x3da357c0	0.07975721
47	0x3dd3c6db	0.10340663
48	0xbdb83c3f	-0.08995866
49	0x3ca4ce05	0.020117769
50	0xbd9102db	-0.07080623
51	0x3d49ca10	0.049264967
52	0xbdae51fe	-0.085117325
53	0xbda553ab	-0.08072599
54	0xbe001fed	-0.12512179
55	0x3d52e0ca	0.051483907
56	0xb9a0a240	-0.00030638464
57	0xbd1857bc	-0.037193045
58	0xbd7de0f0	-0.061982095
59	0xbdc49876	-0.09599392
60	0x3d3fdd9b	0.0468422
61	0x3da92d2d	0.0826057
62	0xbdb70cc2	-0.0893798
63	0x3d83cf31	0.06436003
64	0x3dace7f3	0.08442678
65	0x3d1b4e2e	0.037916355
66	0xbd693a98	-0.056940645
67	0x3d7359d7	0.05941185
68	0xbcbffee6	-0.023436975
69	0xbbba8f44	-0.005693348
70	0xbdafc870	-0.08583152
71	0x3db33f03	0.08752253
72	0xbdef689f	-0.11689877
73	0xbd1acabe	-0.037791006
74	0xbd1ab59b	-0.03777085
75	0x3d9d9308	0.076940596
76	0xbdb1fff9	-0.08691401
77	0x38fdd580	0.000121037476
78	0xbdacb646	-0.084332034
79	0xbd87060a	-0.06592949
80	0x3cce322a	0.025170404
81	0x3c446673	0.011987316
82	0x3d3ce429	0.046116028
83	0x3c20b0ca	0.009807775
84	0xbdd0a79d	-0.1018822
85	0xbda4c6e4	-0.08045748
86	0xbd4564e2	-0.048191912
87	0x3d36234a	0.044467248
88	0x3dd56471	0.10419548
89	0x3d804d0f	0.06264698
90	0x3da3119b	0.07962342
91	0x3dec938d	0.115515806
92	0xbd6d4dbe	-0.05793547
93	0xbdb6067a	-0.08887954
94	0x3ac681e0	0.0015144907
95	0xbd82c450	-0.063851
96	0x3d972209	0.073795386
97	0x3d46b7dd	0.04851519
98	0xbcb6b823	-0.0223046
99	0xbddfe69d	-0.10932658
100	0x3c1930aa	0.009349981
101	0xbd8b064c	-0.067883104
102	0x3d9c3ab0	0.07628381
103	0x3da17720	0.078840494
104	0xbd97e6ce	-0.074170694
105	0xbcb27430	-0.021783918
106	0x3dbeacab	0.093102776
107	0xbc6f6d3a	-0.014613444
108	0x3d522412	0.05130393
109	0x3dce8328	0.1008361
110	0x3c8dbe52	0.017302666
111	0xbd86cec4	-0.06582406
112	0xbdc7f41d	-0.09763358
113	0xbcd04116	-0.02542166
114	0x3c697273	0.014248478
115	0xbd278746	-0.04090049
116	0xbd8aff86	-0.067870185
117	0x3c81309d	0.015770251
118	0x3d3b082b	0.045662086
119	0xbdce6fa2	-0.10079886
120	0xbc5e5b91	-0.013571636
121	0x3d4ad6ee	0.04952138
122	0x3d445c72	0.047939725
123	0x3daf161f	0.08549141
124	0x3ce78006	0.028259289
125	0xbbae045e	-0.005310579
126	0xbd9e717c	-0.07736489
127	0x3dc21d96	0.09478299
128	0xbc5cba50	-0.013472155
129	0x3d7adcb4	0.061245635
130	0x3dd625d1	0.10456432
131	0xbcb71506	-0.022348892
132	0x3daf33d6	0.08554809
133	0xbd4d3034	-0.0500948
134	0xbdace434	-0.08441964
135	0xbd138c3e	-0.036022417
136	0xbd25bc0a	-0.04046253
137	0xbd1b74d8	-0.037953228
138	0xbc801fee	-0.015640225
139	0xbdea7f6b	-0.11450084
140	0xbda1f177	-0.07907384
141	0x3d5d7f25	0.054076333
142	0xbd80b289	-0.06284053
143	0xbdfa4bbe	-0.12221478
144	0xbd881cee	-0.06646143
145	0x3a99e2b8	0.0011740541
146	0x3d66f623	0.056387078
147	0xbdf3c29f	-0.119023554
148	0xbdc9a2ce	-0.09845506
149	0x3dbeacd3	0.09310307
150	0xbd3085b4	-0.04309626
151	0xbdbb4a88	-0.09145075
152	0x3dc427bc	0.09577891
153	0xbde42a4d	-0.11140881
154	0xbb1cc664	-0.002392196
155	0x3da5e780	0.08100796
156	0x3c85e842	0.0163461
157	0xbc97a59e	-0.01851159
158	0xbd2fb3ac	-0.042895958
159	0x3d6415ab	0.055684727
160	0xbd285459	-0.041096065
161	0x3d84d879	0.064866014
162	0x3d4e69fc	0.050394043
163	0xbdba4a4b	-0.090962015
164	0x3dbabb2c	0.091177315
165	0x3c36145e	0.011113254
166	0x3d660af0	0.056162775
167	0x3d41dd71	0.047330324
168	0xbd9cc4e4	-0.076547414
169	0xbd6df9d4	-0.058099583
170	0xbcde08bd	-0.027103776
171	0xbdeb7bbb	-0.11498209
172	0x3db7b292	0.089696065
173	0xbdc087e6	-0.094009206
174	0xbd1e363c	-0.03862594
175	0xbc431939	-0.011907869
176	0xbb7e79a0	-0.0038829818
177	0x3d8f0f83	0.069853805
178	0xbbde6822	-0.006787316
179	0xbd3aa1bb	-0.045564394
180	0xbdbab2c6	-0.091161296
181	0x3d35fec8	0.04443243
182	0xbd747b58	-0.059687942
183	0xbb7c0e80	-0.003846079
184	0x3dbd931f	0.09256577
185	0x3c253877	0.010084263
186	0x3d7bb698	0.06145343
187	0x3dc9368c	0.09824857
188	0xbcb3e57f	-0.021960018
189	0x3ad6c2b0	0.0016384926
190	0xbda3332e	-0.07968746
191	0x3cea5793	0.028606212
192	0xbdcea92b	-0.1009086
193	0x3dd75d03	0.105157875
194	0xbd720ec2	-0.059096105
195	0xbdab9b99	-0.08379287
196	0xbdd09ff2	-0.10186757
197	0xbd2e0b37	-0.042491164
198	0xbdb26472	-0.08710565
199	0x3dd442c3	0.10364296
200	0x3dd07b8d	0.101798154
201	0xbca4b819	-0.020107316
202	0xbc7b5e3c	-0.015342291
203	0x3dc500f4	0.096193224
204	0x3d978f07	0.07400327
205	0xbd37f381	-0.044909958
206	0x3dc3802f	0.095459335
207	0xbc0efd5d	-0.008727399
208	0x3c58ba57	0.013228021
209	0xbceb69f8	-0.028737053
210	0xbd66dc61	-0.056362513
211	0x3c9b26a4	0.018939324
212	0x3d5d4fb0	0.054031074
213	0x3dc70d43	0.09719326
214	0xbdaf82b5	-0.08569852
215	0x3da6ba73	0.08141031
216	0xbdebf60e	-0.115215406
217	0x3c553237	0.01301246
218	0xbd10c83c	-0.03534721
219	0x3d344016	0.04400643
220	0xbccf808e	-0.025329854
221	0xbd264788	-0.04059556
222	0xbc189dad	-0.009314937
223	0x3da6c0e7	0.08142262
224	0x3d150563	0.03638209
225	0x3d02941d	0.031879533
226	0x3dd7352c	0.105081886
227	0xbc8e6574	-0.017382361
228	0xbdb2e71a	-0.087354854
229	0xbd44a4f5	-0.048008878
230	0xbd156d42	-0.03648115
231	0xbd9d70dc	-0.07687542
232	0xbdf45b18	-0.11931437
233	0x3ad41a88	0.0016182223
234	0xbd36c622	-0.044622548
235	0xbc7e3d07	-0.01551748
236	0xbdb3c8b3	-0.08778515
237	0x3c6c09da	0.014406646
238	0xbd612e32	-0.054975696
239	0xbc9d3076	-0.019188147
240	0xbd5dd0d7	-0.054154243
241	0xbc24ac97	-0.010050914
242	0xbb893be2	-0.004188047
243	0xbd47ec16	-0.048809133
244	0xbdbbbf38	-0.091673315
245	0xbdb014f7	-0.08597749
246	0xbc9700a4	-0.018432923
247	0xbda9c847	-0.08290153
248	0x3d86137e	0.065466866
249	0x3dd78682	0.10523702
250	0xbdb00eca	-0.08596571
251	0xbc61fde3	-0.0137934415
252	0x3d92ef43	0.07174542
253	0x3cc03621	0.02346331
254	0xbdfc11fe	-0.12308119
255	0x3d451bc4	0.048122182

colorization.0.bias f4 [6]
0	0xbd11de67	-0.03561249
1	0xbd450aac	-0.04810588
2	0xbd86c8b8	-0.06581253
3	0xbd02d37c	-0.03193997
4	0x3c87bcea	0.016569573
5	0x3d236cf9	0.039898846

colorization.3.weight f4 [16, 6, 5, 5]
0	0x3c6cba56	0.014448723
1	0x3d19f358	0.037585586
2	0x3d0dc378	0.03461024
3	0x3d025e6d	0.031828333
4	0xbd9b2579	-0.07575507
5	0xbd23718f	-0.03990322
6	0xbd705b9e	-0.058681123
7	0x3d73cea6	0.059523247
8	0xbd8cda2d	-0.06877551
9	0x3d475a6c	0.048670217
10	0xbd9a3f35	-0.07531587
11	0x3cf81d8d	0.030287528
12	0xb878e100	-5.9337355e-05
13	0x3d014227	0.03155723
14	0x3d2f525e	0.04280316
15	0xbcde40d8	-0.02713053
16	0xbcf73d66	-0.030180644
17	0xbc52d141	-0.012867273
18	0xbcf08d3c	-0.02936422
19	0x3d7f42d0	0.062319577
20	0xbd9a7410	-0.075416684
21	0xbd6d84ef	-0.057988103
22	0xbc19c230	-0.009384677
23	0xbb1b9924	-0.0023742402
24	0xbd884be9	-0.06655104
25	0xbd4317fc	-0.047630295
26	0xbd6d1240	-0.057878733
27	0x3c022bb2	0.007944988
28	0xbd529af0	-0.05141729
29	0x3d7c6c2a	0.06162659
30	0x3d502db6	0.050824843
31	0xbc82f59e	-0.01598626
32	0xbcc23528	-0.023706988
33	0x3d3ecb82	0.0465808
34	0xbc1c2e53	-0.009532529
35	0xbd547b56	-0.051875435
36	0x3d4813b4	0.048846915
37	0x3b186dd4	0.0023258822
38	0x3d5d5c03	0.054042827
39	0x3d0d4210	0.03448683
40	0xbd0ab5c6	-0.03386476
41	0x3d520804	0.051277176
42	0xbce22da2	-0.02760965
43	0x3c454a15	0.012041588
44	0xbcf2f022	-0.02965552
45	0xbd296f8b	-0.04136614
46	0x3c831b3f	0.016004203
47	0x3c2e5f4d	0.010642839
48	0x3b02743c	0.0019905707
49	0x3d0b9a92	0.034082957
50	0xbb88f7d4	-0.004179934
51	0x3cc892c8	0.024484053
52	0x3c84c555	0.016207376
53	0xbd6eb0aa	-0.05827395
54	0x3bb718b8	0.0055876635
55	0x3a7babf0	0.0009600511
56	0xb9c3a240	-0.00037314184
57	0xbd4bca85	-0.049753685
58	0xbc721632	-0.0147758
59	0x3d818f97	0.06326216
60	0xbcd8610a	-0.02641346
61	0xbd47bb7a	-0.048762776
62	0xbd87fced	-0.06640039
63	0x3ccf8f93	0.025337016
64	0x3cca88dc	0.024723463
65	0xba5bb450	-0.00083810557
66	0x3b6f925c	0.0036555743
67	0x3d3d389e	0.046196572
68	0xbdb369c1	-0.08760405
69	0x3ce3575a	0.027751613
70	0xbda64362	-0.08118321
71	0xbbfa0674	-0.007630164
72	0xbd7def9f	-0.0619961
73	0x3d152160	0.036408782
74	0xbd18c023	-0.03729261
75	0x3d0f676e	0.035010748
76	0xb9a82c40	-0.00032076426
77	0xbb6d5038	-0.0036211144
78	0x3ba08748	0.0048989393
79	0x3d724b95	0.059154112
80	0x3b9922fe	0.004673361
81	0x3c7b074a	0.015321562
82	0xbd752a32	-0.059854694
83	0x3b6db2f8	0.0036270004
84	0x3d5cfcd9	0.05395207
85	0x3cfb7b3e	0.030698415
86	0x3d7ee799	0.062232587
87	0xbc6f28fb	-0.014597173
88	0xbd01141c	-0.03151332
89	0x3d8cd11b	0.06875821
90	0x3ba7eaea	0.0051244395
91	0xbd541acb	-0.051783364
92	0xbc87c69f	-0.016574202
93	0xbd95fac6	-0.07323222
94	0x3cf9c7f3	0.030490851
95	0xbd101b78	-0.035182446
96	0x3d503491	0.05083138
97	0xbdb9aaf2	-0.09065808
98	0x3bf423a6	0.0074505387
99	0x3c39573f	0.011312305
100	0x3d57c9ff	0.052682873
101	0xba9bbfe8	-0.0011882754
102	0x3c3e9707	0.011632687
103	0xbd4b6f50	-0.049666703
104	0xbc409af4	-0.011755694
105	0x3ae40260	0.0017395727
106	0x3d7252e4	0.059161082
107	0xbd54541d	-0.05183803
108	0xbd00826e	-0.031374387
109	0x3d4818b1	0.048851673
110	0xbc63850e	-0.013886703
111	0xbcfb1f1d	-0.030654484
112	0xbcd21d9e	-0.025648888
113	0x3c8c89e7	0.0171556
114	0xbd185226	-0.037187718
115	0x3c147b9c	0.009062674
116	0x3b79ef4c	0.0038137017
117	0xbd25c856	-0.04047426
118	0x3d5d101e	0.05397045
119	0x3b9e182c	0.004824659
120	0xbd4122fe	-0.04715251
121	0xbdb9d499	-0.09073753
122	0xbd8c61b7	-0.06854575
123	0x3c9fad48	0.019491807
124	0x3ceff50d	0.029291654
125	0x3ce1de6c	0.02757188
126	0xbd8eca48	-0.06972176
127	0x3d21ccb7	0.039501872
128	0xbcc9fdc2	-0.024657134
129	0xbd4c1f76	-0.04983469
130	0x3b4bd9b0	0.0031105094
131	0xbd869335	-0.06571046
132	0xbd253ad7	-0.040339317
133	0x3d40ffcc	0.047118947
134	0xbd6c04e8	-0.057621866
135	0xbb100644	-0.002197639
136	0xbcbc4fd7	-0.02298729
137	0xbc130bd3	-0.008974987
138	0x3c2c7595	0.010526081
139	0xbdabd921	-0.083910234
140	0xbd318936	-0.043343745
141	0xbdb5a957	-0.0887019
142	0xbda2aa20	-0.07942605
143	0x3cea83f1	0.028627368
144	0x3cf7d21c	0.030251555
145	0x3d799419	0.060932253
146	0xbd61e906	-0.05515387
147	0xbc52cf5b	-0.01286682
148	0x3d64d058	0.055862755
149	0x3d151517	0.036397066
150	0x3c915043	0.017738467
151	0x3d338f6e	0.043837957
152	0xbd889f4e	-0.0667101
153	0x3d08b3b9	0.033374522
154	0xbb6f6f3c	-0.0036534807
155	0x3af0b688	0.0018364945
156	0x3c26ca8a	0.010180125
157	0x3c6316e7	0.013860441
158	0xbd7f6d37	-0.062360015
159	0xbd7f2a00	-0.062295914
160	0x3d3ec8fe	0.0465784
161	0xbd43d461	-0.047809962
162	0x3d57e666	0.05270996
163	0x3d8f8a28	0.07008773
164	0x3d697ca4	0.057003632
165	0xbd8f7296	-0.070042774
166	0x3d190260	0.03735578
167	0x389e7580	7.555913e-05
168	0x3d65f449	0.05614117
169	0x3c82d066	0.015968513
170	0xb8d5b900	-0.000101910904
171	0x3d2208f7	0.03955933
172	0x3d63a46e	0.055576734
173	0xbdac87f8	-0.084243715
174	0x3d37bd5e	0.04485833
175	0xbbcfcb6e	-0.0063413894
176	0xbd314dd8	-0.04328713
177	0x3cccbd99	0.024992751
178	0xbda99562	-0.08280446
179	0xbd9b58e4	-0.07585314
180	0x3d188e95	0.03724535
181	0xbbf3b776	-0.0074376417
182	0x3caaa6e9	0.020831542
183	0x3d427c40	0.047481775
184	0x3cb176c5	0.021663079
185	0x3d49baf9	0.049250577
186	0xbda8c22f	-0.082401626
187	0xbca5ae1c	-0.020224623
188	0xbc9c71e8	-0.019097283
189	0x3d8db3b6	0.06919043
190	0xbd83eb92	-0.06441416
191	0x3b44a498	0.0030005332
192	0xbd7c5f57	-0.06161436
193	0x3d705427	0.058674004
194	0xbd09efb5	-0.033675868
195	0x3cf71822	0.030162875
196	0x3cc8ec7d	0.024526829
197	0x3d6e4b0c	0.05817704
198	0x3c68dae2	0.014212342
199	0xbdaa9ef4	-0.08331099
200	0x3d64444f	0.055729207
201	0x3c2a8e66	0.010409927
202	0xbcfa9a3a	-0.03059112
203	0xbcf3be61	-0.029753866
204	0xbd1714ba	-0.036885
205	0xbd10546d	-0.035236765
206	0xbc7ba51b	-0.015359188
207	0x3bd7e90a	0.0065890597
208	0xbce78ec2	-0.028266314
209	0x3c36af53	0.011150199
210	0x3d37f3eb	0.044910353
211	0xbd8445a0	-0.064585924
212	0xbd966681	-0.0734377
213	0xbd6d38c7	-0.057915475
214	0x3cac58d9	0.02103846
215	0xbcde5a86	-0.027142774
216	0xbd7377cf	-0.05944043
217	0x3cf12b40	0.029439569
218	0xbd61df0c	-0.055144355
219	0xbd8b22b2	-0.06793727
220	0xbd4130e6	-0.047165774
221	0x3bb15ffc	0.0054130536
222	0x3cf0bc48	0.029386654
223	0x3d89f71f	0.06736588
224	0xbbaa0030	-0.0051880106
225	0xbc8776c6	-0.016536128
226	0x3c609b4d	0.013708902
227	0x3d7d4752	0.061835594
228	0x3c05a916	0.008157989
229	0xbcfd386c	-0.030910693
230	0xbb114164	-0.002216422
231	0xbc353d9a	-0.01106205
232	0xbd1819f8	-0.03713414
233	0xbdadb18b	-0.08481129
234	0x3cb561b9	0.022141324
235	0xbc8d6981	-0.017262222
236	0x3d1943a6	0.03741803
237	0xbc030657	-0.007997117
238	0x3ba98ac2	0.005174012
239	0xbda01212	-0.07815947
240	0x3d92cb6c	0.07167706
241	0xbbd2fc64	-0.0064387787
242	0x3c8d7692	0.017268453
243	0xbca85a78	-0.020550951
244	0x3d860810	0.065445065
245	0x3cb7238c	0.022355817
246	0x3cc41fa6	0.023940872
247	0xbd85e0a5	-0.06536988
248	0xbcffd939	-0.03123151
249	0x3bb0e0aa	0.005397876
250	0x3d4fd277	0.050737824
251	0xbcd32056	-0.025772255
252	0x3c2a9549	0.010411569
253	0x3c110e36	0.008853486
254	0xbc85decc	-0.01634159
255	0xbda2149c	-0.07914087

colorization.3.bias f4 [16]
0	0xbb42ec80	-0.0029743016
1	0x3c5c1307	0.013432271
2	0xbd3f158b	-0.046651404
3	0xbd22ac7e	-0.039715283
4	0x3d90beac	0.07067618
5	0xbd085ee3	-0.033293616
6	0xbd8f1a03	-0.06987383
7	0xbd681106	-0.05665686
8	0xbd127225	-0.035753388
9	0x3db1b41c	0.08676931
10	0xbd4b5ceb	-0.04964916
11	0x3cceb872	0.025234435
12	0x3d4940be	0.04913401
13	0x3daac0c5	0.08337549
14	0x3d1ca0f3	0.03823943
15	0xbd5900dc	-0.052979335
